LVFFN_PAM2/model/j20m300a90.pt (torch_old, 2641 bytes, 3 tensors)

complner.0.weight f4 [20, 20]
0	0xbd5c3110	-0.053757727
1	0x3cd66c06	0.026174556
2	0x3dc6e199	0.09710998
3	0xbe6646f2	-0.22488001
4	0x3dba1454	0.090859085
5	0x3e642e1e	0.22283217
6	0xbe2b042b	-0.16700809
7	0xbe0c2841	-0.1368723
8	0x3e597369	0.21235432
9	0x3df35ba7	0.11882716
10	0x3cb226d7	0.021747036
11	0xbe92f814	-0.28704894
12	0xbeb8f7a3	-0.36126432
13	0x3e716398	0.23573148
14	0x3ebb2caf	0.36557528
15	0x3c2e4bd8	0.0106382
16	0x3e013deb	0.12621276
17	0x3be19793	0.006884524
18	0xbf108307	-0.5644993
19	0xbeac1b4b	-0.33614573
20	0x3dc98dfb	0.09841534
21	0x3c0350c7	0.008014864
22	0x3e37fbc9	0.17967142
23	0xbe024b47	-0.12724029
24	0x3e8edb40	0.2790165
25	0xbd2839c1	-0.041070703
26	0x3de2c1be	0.1107211
27	0x3e4c3f22	0.19945958
28	0xbdcd5844	-0.10026601
29	0xbd6f0c05	-0.058361072
30	0xbe860d80	-0.26182175
31	0x3ec00460	0.37503338
32	0x3e51142c	0.20417851
33	0x3e16f0fd	0.14740367
34	0xb9647a77	-0.00021789396
35	0xbd5e6754	-0.05429776
36	0xbd331576	-0.04372164
37	0x3d0c835a	0.034304954
38	0x3e89b50f	0.2689595
39	0x3e9a6a2e	0.30159134
40	0x3bd15cdb	0.006389243
41	0x3d917b89	0.071036406
42	0xbdc39f6b	-0.09551891
43	0x3e5c6478	0.21522701
44	0xbd3fe670	-0.04685062
45	0x3d199f66	0.03750553
46	0xbe601095	-0.21881326
47	0x3c122c4e	0.008921696
48	0xbbd21958	-0.0064117126
49	0xbc8caa1b	-0.017170956
50	0xbe96c556	-0.2944743
51	0xbec118d9	-0.3771427
52	0x3e45fdaf	0.19335054
53	0x3e3e9eac	0.18615216
54	0x3dbafac2	0.091298595
55	0xbdaea36b	-0.08527263
56	0xbe295467	-0.16536103
57	0xbef95cbb	-0.4870356
58	0xbf28684c	-0.65784144
59	0x3e81c3ef	0.25344798
60	0xbe8d072e	-0.2754454
61	0xbe139b3a	-0.14414683
62	0x3ddc0c60	0.10744548
63	0xbd3dab88	-0.046306163
64	0xbdb1299a	-0.08650513
65	0x3cc00b03	0.02344275
66	0xbd8bd74d	-0.06828175
67	0xbe85aa26	-0.26106375
68	0xbe0fa9cc	-0.14029616
69	0x3d2f26c6	0.042761587
70	0x3e7d3b5e	0.24729678
71	0x3e0ca03c	0.13733
72	0xbdca12d3	-0.09866872
73	0x3e69d2d1	0.22834326
74	0x3c9c88ac	0.019108139
75	0xbdff57a9	-0.12467892
76	0xbe6ac903	-0.22928242
77	0xbd63d6fa	-0.05562494
78	0xbeb24bd5	-0.3482348
79	0xbeb7d533	-0.35904846
80	0xbe13750f	-0.14400123
81	0xbc18d6c5	-0.009328549
82	0xbbe34032	-0.006935143
83	0xbe279f1b	-0.16369288
84	0x3e57fc42	0.21092322
85	0x3b15b29e	0.002284206
86	0x3c6b3652	0.014356213
87	0x3e323deb	0.17406432
88	0x3d96cc2a	0.0736316
89	0xbcad53ec	-0.021158181
90	0xbd2b1aa1	-0.041773442
91	0x3e8c2edf	0.2737951
92	0x3c499e64	0.01230583
93	0xbdaa817e	-0.0832548
94	0xbe674a42	-0.22586921
95	0x3c462ea3	0.01209608
96	0xbdc9283c	-0.09822127
97	0xbc17833e	-0.009247599
98	0x3ee02635	0.4377915
99	0xbe9466b6	-0.28984612
100	0xbc977ce7	-0.018492175
101	0x3d45bf58	0.048278183
102	0xbe7e4ec0	-0.24834728
103	0x3eaa66a3	0.3328143
104	0xbe927061	-0.28601363
105	0xbebfac9c	-0.37436378
106	0x3e51d0a4	0.20489746
107	0x3e83a5cc	0.2571243
108	0xbe0f08f2	-0.13968256
109	0xbe66a934	-0.22525483
110	0xbe99b023	-0.30017194
111	0x3e235360	0.15949774
112	0x3de83f65	0.113402165
113	0xbcff03f5	-0.031129817
114	0x3dafec61	0.085900076
115	0xbd97034d	-0.073736764
116	0xbe74c485	-0.23903091
117	0xbd2f49b9	-0.042794917
118	0x3e21ad34	0.15788728
119	0xbe29993c	-0.1656236
120	0xbc0380d9	-0.008026325
121	0x3d3de53d	0.046361197
122	0x3cd7cf06	0.026343834
123	0xbe74d44c	-0.2390911
124	0xbd0e4100	-0.034729958
125	0xbe0ec775	-0.13943274
126	0xbe3c152e	-0.18367454
127	0xbe092dbe	-0.13396356
128	0xbe038659	-0.12844218
129	0x3b955cc2	0.0045581767
130	0xbdc16ace	-0.094441995
131	0xbe01b9bd	-0.1266851
132	0xbdd3ce98	-0.10342139
133	0x3da8944d	0.08231411
134	0xbdb1623a	-0.08661313
135	0x3d163b52	0.036677666
136	0x3dca8fbe	0.09890698
137	0xbe85b295	-0.2611281
138	0xbf1caa4c	-0.6119735
139	0x3e82213f	0.2541599
140	0x3cff4046	0.031158578
141	0x3cadc798	0.021213338
142	0x3de3ee0e	0.1112939
143	0xbb943d6d	-0.004523924
144	0x3df978b8	0.121812284
145	0xbd414870	-0.047188222
146	0x3ea1dd2a	0.31614047
147	0xbd402364	-0.04690875
148	0x3e883607	0.2660372
149	0xbd32e30f	-0.04367357
150	0xbc07ad99	-0.008281135
151	0x3e4adfd5	0.19811948
152	0x3d525360	0.051349044
153	0x3e7ef034	0.24896318
154	0xbdfcbb40	-0.123404026
155	0xbd44e8aa	-0.04807345
156	0x3e9389c2	0.28816038
157	0x3e770ba8	0.2412554
158	0x3e0caf6a	0.1373879
159	0xbf47f2fb	-0.78105134
160	0xbcd6fe3e	-0.026244279
161	0xbdeb6750	-0.11494315
162	0x3cad3fc5	0.021148572
163	0x3b4de199	0.0031414984
164	0x3da58abe	0.080831036
165	0x3e793ee3	0.24340396
166	0xbe1475d3	-0.14498071
167	0x3e0ea338	0.1392945
168	0xbc422c9e	-0.011851458
169	0xbecd3ef7	-0.400871
170	0xbe5ff767	-0.2187172
171	0x3d89e2fa	0.067327455
172	0xbd5f7a35	-0.054559905
173	0xbe60b9ed	-0.21945925
174	0xbe2f62d4	-0.17127544
175	0x3e5840e2	0.21118501
176	0x3e1d65da	0.15370885
177	0x3deafeaf	0.11474358
178	0x3dcd8ead	0.10036979
179	0xbf0dc7e8	-0.5538316
180	0x3d2bd82b	0.0419542
181	0x3e7a3f0b	0.24438111
182	0xbea0b29a	-0.31386262
183	0x3e11cffe	0.14239499
184	0x3db9944a	0.09061487
185	0xbe15afd7	-0.14617859
186	0xbdcd9377	-0.10037892
187	0x3c24df98	0.0100630745
188	0x3cf272c7	0.029595746
189	0x3ecfee62	0.4061156
190	0x3e8f8d6c	0.28037584
191	0x3e74409a	0.23852769
192	0x3ec0f206	0.3768465
193	0xbead631f	-0.33864686
194	0xbe50c3ca	-0.20387188
195	0xbe73fdf7	-0.23827349
196	0xbe24d550	-0.16096997
197	0xbe84d308	-0.25942254
198	0x3e85bace	0.26119083
199	0xbd98590e	-0.07438861
200	0x3bdb5895	0.0066939094
201	0x36edf9c0	7.092225e-06
202	0xbdac1083	-0.08401587
203	0x3daccebb	0.08437868
204	0xbe2dd1bc	-0.16974539
205	0xbc9a205c	-0.018814258
206	0xbe08f697	-0.13375317
207	0xbe150baa	-0.1455523
208	0x3dab2231	0.08356131
209	0x3db64667	0.08900147
210	0x3e01c529	0.12672867
211	0xbe204409	-0.15650953
212	0xbe6d4ac8	-0.23173058
213	0x3cc33879	0.02383064
214	0x3e5de762	0.21670297
215	0xbe2e3043	-0.17010598
216	0x3d9aa5d5	0.07551161
217	0x3d9e13dd	0.07718632
218	0xbefc409c	-0.49268043
219	0xbda7b986	-0.08189683
220	0xbd85f95a	-0.06541701
221	0xbe106b55	-0.14103444
222	0x3d40cf5c	0.047072753
223	0xbc22ee0d	-0.009944451
224	0xbe91122a	-0.2833417
225	0xbc7f902e	-0.01559834
226	0x3de8134e	0.11331807
227	0x3e476708	0.19472897
228	0x3d46a9da	0.048501827
229	0xbdb4c56d	-0.088267185
230	0xbdd8b4f1	-0.10581387
231	0x3c8a45b5	0.016878942
232	0x3d930a34	0.071796805
233	0x3dce71fb	0.10080334
234	0x3eb31bcd	0.34982148
235	0xbe1216b7	-0.14266478
236	0xbe7751bf	-0.24152277
237	0xbea5bc94	-0.32370436
238	0xba82e146	-0.000998535
239	0xbcd6a607	-0.026202215
240	0x3ced8ac0	0.028996825
241	0x3c759afd	0.014990565
242	0xbd827b25	-0.06371144
243	0x3d80b8dc	0.06285259
244	0xbe482a13	-0.195473
245	0xbdaafcde	-0.08349012
246	0x3dd28d2c	0.10280833
247	0x3c715c46	0.014731472
248	0xbe5cec0f	-0.21574424
249	0x3e5b2927	0.21402417
250	0xbd97acfe	-0.074060425
251	0xbe6d2676	-0.23159203
252	0x3ddde2ec	0.108342975
253	0xbd0d0be2	-0.03443516
254	0x3dec776c	0.115462154
255	0x3e6e53c9	0.23274149

complner.0.bias f4 [20]
0	0x3c8c6fae	0.017143097
1	0xbe251998	-0.16123044
2	0xbb2eaca5	-0.0026653197
3	0x3c24bd95	0.0100549655
4	0xbe830781	-0.25591663
5	0x3c8a1892	0.01685742
6	0xbd6dfaef	-0.058100637
7	0x3c353bf1	0.011061654
8	0xbcc913dd	-0.024545604
9	0x3c0d99e5	0.008642648
10	0xbeaa0c25	-0.3321239
11	0x3cd5c58e	0.026095178
12	0xbd901b9d	-0.07036517
13	0xbc4a8d37	-0.01236277
14	0x3ced2eac	0.028952919
15	0xbd42df72	-0.047576375
16	0xbc573c1a	-0.013136888
17	0x3bd3496f	0.006447963
18	0xbc6fa60d	-0.014626992
19	0x3c945faf	0.018112032

complner.2.weight f4 [1, 20]
0	0xbe27c56c	-0.16383904
1	0x3dae0bf0	0.08498371
2	0xbe213d5e	-0.15746066
3	0xbdb9f504	-0.09079936
4	0x3d888990	0.06666863
5	0x3e5c125f	0.21491383
6	0xbdf30ca3	-0.11867645
7	0x3de75373	0.112952136
8	0x3db880d4	0.09008947
9	0x3deb85f0	0.11500156
10	0xbde3ce20	-0.111232996
11	0xbd759abd	-0.059962023
12	0xbdc7ee74	-0.09762278
13	0xbe8c8ac1	-0.2744961
14	0x3e05fd96	0.13085017
15	0xbdee71e3	-0.11642816
16	0xbdd76023	-0.105163835
17	0x3e5d76c4	0.21627337
18	0xbdea3664	-0.114361554
19	0x3dc8d5b0	0.09806383
