LVFFN_PAM2/model/j25m300a83channel.pt (torch_old, 3513 bytes, 3 tensors)

complner.0.weight f4 [25, 25]
0	0xbeb5586f	-0.35419032
1	0xbee6ce51	-0.45079282
2	0xbe7bcdee	-0.24590275
3	0xbe29b4f2	-0.16572931
4	0xbc41f559	-0.011838281
5	0xbea91afc	-0.330284
6	0xbf233d6c	-0.637656
7	0xbf0629aa	-0.52407324
8	0xbc5870f6	-0.013210526
9	0x3ea2691c	0.31720817
10	0x3e223d17	0.15843616
11	0x3d47d053	0.048782658
12	0xbf010e54	-0.5041249
13	0xbeba9f5a	-0.364497
14	0xbefbb985	-0.49164978
15	0xbe292651	-0.16518523
16	0xbf080b4a	-0.53142226
17	0x3ec55a37	0.3854539
18	0xbe53a00b	-0.2066652
19	0xbe5a8f71	-0.21343781
20	0x3f27c0ed	0.65528756
21	0xbe97b5f3	-0.29631004
22	0xbf3e256d	-0.7427586
23	0x3ea58036	0.3232438
24	0xbf807e62	-1.0038569
25	0x3e1f9157	0.15582787
26	0x3e43c39e	0.19117591
27	0x3efab024	0.4896251
28	0x3f485f7b	0.7827069
29	0x3f24e36e	0.6440953
30	0x3ef2d12f	0.4742522
31	0x3ede4e7d	0.43419257
32	0x3ed74bc4	0.42049992
33	0x3ecad76a	0.39617473
34	0x3ec0c17a	0.3764761
35	0x3e2b8375	0.16749366
36	0x3e7a511f	0.24445008
37	0x3ecbde17	0.3981788
38	0x3e1499bb	0.14511769
39	0x3f817daf	1.011648
40	0xbef2dca0	-0.4743395
41	0x3f612f19	0.8796249
42	0xbf3a881d	-0.7286394
43	0xbf00c719	-0.503038
44	0x3f02d393	0.51104087
45	0xbf6a4a86	-0.91519964
46	0xbe08d439	-0.13362207
47	0x3f62d8a5	0.88611823
48	0xbf991845	-1.1960531
49	0xbe0278da	-0.12741414
50	0xbe42448e	-0.18971464
51	0xbf1d0248	-0.61331606
52	0xbf4fa55b	-0.8111169
53	0xbf7e6eb6	-0.9938768
54	0xbf6d754e	-0.9275712
55	0xbf5b49fa	-0.85659754
56	0xbf12bb61	-0.5731717
57	0xbec68cc1	-0.38779262
58	0xbd9cb65f	-0.07651972
59	0x3daec474	0.08533564
60	0x3e41ff8f	0.18945144
61	0x3e9562f9	0.29177073
62	0x3ded4990	0.115862966
63	0x3e5f0dad	0.2178256
64	0x3d478198	0.048707575
65	0x3ea530b2	0.32263714
66	0x3dd81e4c	0.10552654
67	0x3effbda3	0.4994937
68	0x3ecc80a4	0.39941895
69	0x3e8dbf18	0.27684855
70	0x3ed1fd3c	0.41013515
71	0x3de462c7	0.11151653
72	0xbde88aab	-0.11354574
73	0xbcd97806	-0.02654649
74	0xbea79103	-0.32727823
75	0x3edae696	0.42754048
76	0x3f0f189b	0.5589692
77	0x3f0199d6	0.5062536
78	0x3ece90e8	0.4034493
79	0x3ee2f91f	0.4433069
80	0x3ef9f7f1	0.48821977
81	0x3efef608	0.49797082
82	0x3f006263	0.50150126
83	0x3ed96304	0.42458355
84	0x3eb13538	0.34610915
85	0x3e129f3c	0.14318556
86	0x3e8f60fb	0.28003678
87	0xbdc72a0c	-0.09724817
88	0x3ec2b8df	0.3803167
89	0xbbada71b	-0.0052994615
90	0xbe957e72	-0.29198033
91	0x3f492f07	0.78587383
92	0xbf44a595	-0.7681516
93	0xbd3c6401	-0.04599381
94	0x3f593ec2	0.84861386
95	0xbf31179c	-0.6917665
96	0xbe6c3d5c	-0.23070282
97	0x3f4ef4bc	0.80842185
98	0xbf25afa3	-0.64721125
99	0xbe395d52	-0.18102005
100	0x3f27498c	0.653466
101	0x3f159e76	0.5844492
102	0x3ea609d1	0.32429364
103	0x3e3e5276	0.18586144
104	0x3e666d00	0.22502518
105	0x3ee1a379	0.44070032
106	0x3efa1396	0.48843068
107	0x3e4deda9	0.20110191
108	0xbd8d40f2	-0.06897153
109	0x3d81cc0f	0.06337749
110	0x3e154b57	0.14579521
111	0x3e8f4d31	0.2798858
112	0x3e6e8328	0.2329222
113	0xbcae0429	-0.021242218
114	0x3ebca968	0.36847997
115	0xbe9fad9e	-0.31187147
116	0x3e544073	0.2072771
117	0xbed17baf	-0.40914676
118	0x3e82ddee	0.25559944
119	0x3ea1d950	0.3161111
120	0x3e141c75	0.1446398
121	0x3eb2a87a	0.34894162
122	0x3ebf86d4	0.37407553
123	0xbf28b50b	-0.6590125
124	0x3e94a931	0.29035333
125	0x3eccd592	0.4000669
126	0x3ef501e2	0.47853
127	0x3eebc349	0.46047428
128	0x3ebfe02b	0.37475714
129	0x3e5e0c21	0.21684314
130	0x3ec09a93	0.3761793
131	0x3de9b256	0.11410968
132	0x3f07e31d	0.5308092
133	0x3e1504e4	0.14552647
134	0x3e8c6230	0.2741866
135	0xbc161bb4	-0.009161878
136	0xbcfa51a1	-0.030556502
137	0x3d9fae01	0.077968605
138	0x3dac5c0a	0.084159926
139	0x3df07a74	0.11742106
140	0x3d340a9c	0.04395543
141	0x3d833f7e	0.064085945
142	0xbe10c68d	-0.14138241
143	0x3e317e46	0.17333326
144	0x3ea722c3	0.3264371
145	0xbdb9ac74	-0.09066096
146	0x3ed67d7e	0.41892618
147	0x3c737f45	0.014861886
148	0xbea81ff9	-0.32836893
149	0x3dfbdffd	0.12298582
150	0xbd6f0fe7	-0.058364775
151	0xbd5eda47	-0.054407384
152	0xbd7f09f1	-0.06226534
153	0xbddb794e	-0.107164964
154	0xbe288daa	-0.1646029
155	0xbe5187ee	-0.2046201
156	0xbe563f06	-0.20922479
157	0xbe592452	-0.21205261
158	0xbe1c5a3b	-0.15268795
159	0xbe06c573	-0.13161258
160	0xbe1e8229	-0.1547934
161	0x3bad03ff	0.0052800174
162	0xbf02060e	-0.5079049
163	0x3f087b51	0.53313166
164	0xbfa94e5a	-1.3227036
165	0x3fb2a60d	1.3956925
166	0xbfb98a76	-1.449538
167	0x3ef6ec3d	0.4822711
168	0x3f2572e5	0.6462844
169	0xbfb8eb28	-1.4446764
170	0x3f5ce94d	0.8629349
171	0x3ed955ca	0.42448264
172	0xbfad53aa	-1.3541157
173	0x3fa16eca	1.2611935
174	0xbeb499aa	-0.35273486
175	0xbefecb11	-0.49764302
176	0xbee71248	-0.45131135
177	0xbf308cbd	-0.6896475
178	0xbf7d1fe7	-0.98876804
179	0xbf41c8f5	-0.7569726
180	0xbf0701f8	-0.5273738
181	0xbe139c8a	-0.14415184
182	0xbe4be720	-0.19912386
183	0xbee67ff2	-0.4501949
184	0xbf1d70b5	-0.615001
185	0xbf404c79	-0.7511669
186	0xbf038174	-0.51369405
187	0xbe1324a8	-0.14369452
188	0xbd89c39d	-0.067267634
189	0x3d50082e	0.05078905
190	0xbe4bb7b4	-0.19894296
191	0xbe57bbed	-0.21067782
192	0xbef61968	-0.48066258
193	0xbe7f1964	-0.2491203
194	0x3ddc95e2	0.107707754
195	0xbe2240f5	-0.15845092
196	0xbd91f2d6	-0.071263954
197	0x3cccdac5	0.025006661
198	0xbf4bd10c	-0.79615855
199	0xbe718671	-0.23586442
200	0xbee7142d	-0.4513258
201	0xbefdb483	-0.49551782
202	0xbee577eb	-0.44818053
203	0xbe4dc4fc	-0.20094675
204	0xbdec8e9a	-0.115506366
205	0xbd865077	-0.06558316
206	0xbe97af6e	-0.2962603
207	0xbe47bcee	-0.19505665
208	0xbeb2873b	-0.34868798
209	0x3e4568a8	0.19278204
210	0xbe17f496	-0.14839396
211	0x3e6abf63	0.2292457
212	0x3c87695b	0.01652973
213	0xbea1c145	-0.31592765
214	0xbe372202	-0.17884067
215	0x3ec1e5fc	0.37870777
216	0xbe7b1d1b	-0.24522822
217	0x3ec485fa	0.38383466
218	0x3e7d9a3f	0.24765871
219	0xbe0ed6cc	-0.13949126
220	0x3ea079b6	0.31342858
221	0xbf080412	-0.5313121
222	0xbf0e07fd	-0.5548094
223	0x3f97f651	1.1872045
224	0xbf1ef513	-0.62092704
225	0x3f16dc05	0.58929473
226	0x3f395ed8	0.72410345
227	0x3f51d47e	0.8196486
228	0x3f83dec4	1.0302358
229	0x3ee72b3e	0.4515018
230	0xbe117c5c	-0.14207596
231	0xbceef673	-0.02917025
232	0x3ec02aa2	0.37532526
233	0x3f391fd8	0.72314215
234	0x3f2a369c	0.6648958
235	0x3ebc930f	0.36830947
236	0x3c3942eb	0.011307458
237	0xbc47f524	-0.012204442
238	0xbdaf7285	-0.08566765
239	0x3e485d84	0.19566923
240	0x3ef45367	0.4771988
241	0x3ec5379e	0.38518995
242	0x3f242a60	0.6412716
243	0x3e9e175c	0.30877197
244	0xbe8e06d1	-0.27739576
245	0xbe4b0c9b	-0.19829027
246	0xbf40d2d5	-0.75321704
247	0xbf73c526	-0.952227
248	0xbe64ddcf	-0.22350238
249	0xbf28847d	-0.6582716
250	0xbf1f47fc	-0.62219214
251	0xbf3c57c6	-0.7357143
252	0xbf30645c	-0.68903136
253	0xbf1820e6	-0.594252
254	0xbf192a5e	-0.5983027
255	0xbef747f1	-0.48297074

complner.0.bias f4 [25]
0	0xbcb5795a	-0.022152591
1	0x3d153551	0.0364278
2	0x3bf086f8	0.0073403083
3	0xbb98f266	-0.004667568
4	0x3dd78c5f	0.105248205
5	0xbe10b197	-0.14130245
6	0xba96e5d5	-0.0011512587
7	0xbc7589f5	-0.014986505
8	0x3c898122	0.016785208
9	0x3c00a573	0.007851946
10	0x3be62d61	0.0070244526
11	0x3a0f36e2	0.0005463195
12	0xbd5473f4	-0.051868394
13	0x3c9b9928	0.018993929
14	0xbbf12948	-0.0073596574
15	0x3d1ab500	0.03777027
16	0x3d007380	0.03136015
17	0x3d4b7b42	0.049678095
18	0x3a8fb9ca	0.0010965404
19	0xbcc147a2	-0.023593727
20	0x3ce735e7	0.028223945
21	0xbd36328b	-0.044481795
22	0x3c2dd0b6	0.010608843
23	0x3b088355	0.0020830233
24	0x3c19d2c5	0.00938863

complner.2.weight f4 [1, 25]
0	0xbdb94c49	-0.09047753
1	0x3d94d687	0.0726748
2	0x3d499740	0.04921651
3	0x3ddd04b5	0.107919134
4	0x3d706ac3	0.058695566
5	0x3d35a2fc	0.044344887
6	0xbead3c75	-0.33835188
7	0xbdd43d02	-0.10363199
8	0xbd812183	-0.0630522
9	0x3d9cc192	0.07654108
10	0xbdde17b1	-0.108443625
11	0x3db7abca	0.08968313
12	0xbd91c08f	-0.07116806
13	0xbd643a9b	-0.055719953
14	0x3da97a02	0.08275224
15	0xbd2debf4	-0.04246135
16	0xbdaf38f8	-0.08555788
17	0xbd8d4400	-0.068977356
18	0x3e4f5e61	0.20250846
19	0x3d6b19ee	0.057397775
20	0x3d904da2	0.07046057
21	0xbd8d2601	-0.06892014
22	0xbd2b8ee4	-0.041884318
23	0x3b769755	0.0037626822
24	0x3d70d5b5	0.058797557
