LVFFN_PAM2/model/j25m300a83system.pt (torch_old, 3513 bytes, 3 tensors)

complner.0.weight f4 [25, 25]
0.0014839057 0.006754491 0.0068024 0.008804863 -0.0014332312 -0.005300187 -0.010565851 -0.005706364
-0.005812897 -0.008669563 -0.018725509 -0.028432725 -0.032872114 -0.039739884 -0.020557538 -0.047607567
0.0111004645 -0.06079547 0.02623575 -0.060507108 0.023760157 -0.048982576 0.04477574 -0.033641998
0.040738054 0.04958018 0.016774248 0.09719924 0.050357424 -0.009437651 0.009291041 -0.0144561045
0.16896084 -0.04327106 0.06920253 0.14826015 0.26247746 -0.20797375 0.37170878 0.22022717
0.35739523 -0.16753334 0.24973853 0.036897626 -0.20411 -0.2794022 -0.41014546 0.0681661
0.5629622 -0.25130287 0.021003509 0.014700975 0.024819259 0.049515046 0.044454902 0.2844929
-0.15311286 0.12944034 0.24416189 -0.27218574 0.028095925 0.29722008 0.13499135 -0.37945765
0.07996562 0.08260018 0.48577198 -0.31995004 -0.25770572 0.27543032 -0.18029286 -0.011624584
-0.16972905 -0.7847788 0.2531942 -0.030275758 -0.04503376 -0.050271016 -0.10941076 -0.031054463
-0.075118855 0.05371826 0.005690583 0.013488435 -0.061077055 0.31723326 -0.37843394 -0.1195855
0.5498399 -0.19156711 -0.29200497 -0.1334466 0.4901232 0.10234508 -0.7099673 0.07555082
-0.056016166 -0.27951986 0.61307013 -0.907762 -0.001465303 -0.007873578 -0.013933502 -0.018498529
-0.020768782 -0.020664876 -0.01908828 -0.017195504 -0.010824739 -0.0031465685 0.01048912 0.019520612
0.030267376 0.027825644 0.05036651 0.030366974 0.08233901 0.014452749 0.10582138 -0.026955908
0.120484985 -0.073957756 0.12843288 -0.06275147 0.06554014 -0.2821431 0.06921323 -0.12485085
0.21181364 0.028511304 0.22410524 -0.25389424 -0.23116696 -0.11131854 0.32719156 0.30134666
0.2945807 -0.08273225 -0.3743981 -0.19402044 -0.6573361 0.41776085 -0.23562965 0.119406596
0.56701505 -0.44312644 -0.091481306 0.19853193 -1.0897765 0.7686155 0.014363357 0.003125861
0.0077389833 0.009200321 -0.077564925 0.20680754 -0.546382 0.7319273 -0.6559975 0.014206225
0.51869965 -0.24869938 -0.3424873 0.30751252 0.30358607 -0.15135556 -0.28063685 0.06484962
0.23343484 0.15949665 -0.13010113 -0.15626927 0.21442808 0.07002523 0.18866563 0.027128618
0.08948396 0.052321855 0.073239185 0.002784511 -0.06325794 -0.17944041 -0.0666419 -0.16193447
0.29992402 -0.1903984 0.1521876 -0.06319938 -0.067899756 0.099706285 0.1497034 0.38316736
-0.012825049 -0.50305206 -0.19075811 -0.53979516 -0.13440111 0.30167186 -0.5694788 -0.4643187
0.16396905 0.09921965 0.026808906 -0.055919215 -0.20564054 0.055456597 0.1477967 0.18003647
0.22576801 -0.11447386 0.097813174 -0.04377427 0.019657778 0.015441151 0.20075586 0.35575005
0.28791168 -0.17611217 0.039510757 0.035540733 0.022015769 0.285336 0.11321944 -0.40635464
0.9015477 0.051250525 0.1212664 -0.058589194 0.18535045 0.12868544 0.097870216 -0.15672687
-0.026683131 -0.10175458 -0.17135097 -0.1630833 -0.041702434 0.016595121 0.3082493 -0.121914625
-0.12922913 -0.332006 0.026270755 0.18246485 0.23509578 0.20800827 -0.3270263 -0.10321505
-0.23797482 -0.703445 0.0064429464 -0.0077288807 -0.11365634 -0.10120463 0.15125029 0.28190073
00000000: 9d7f c23a c754 dd3b abe6 de3b 4642 103c
00000010: 42db bbba 31ad adbb 641c 2dbc 73fc babb
00000020: 1d7a bebb c80a 0ebc 3d66 99bc bfeb e8bc
00000030: e9a4 06bd 4ac6 22bd 4868 a8bc 2700 43bd
00000040: b9de 353c ac04 79bd 5bec d63c 4dd6 77bd
00000050: a9a4 c23c f4a1 48bd c466 373d 31cc 09bd
00000060: f2dc 263d 9614 4b3d 266a 893c 6510 c73d
00000070: 9643 4e3d 61a0 1abc 7339 183c 4cd9 6cbc
00000080: 1204 2d3e ff3c 31bd 0eba 8d3d 82d1 173e
00000090: 7263 863e 12f7 54be 9d50 be3e 3b83 613e
000000a0: 82fc b63e dc8d 2bbe 75bb 7f3e f721 173d
000000b0: 3602 51be ce0d 8fbe 96fe d1be ab9a 8b3d
000000c0: 4a1e 103f c5aa 80be 8d0f ac3c 5cdc 703c
000000d0: c251 cb3c 4ad0 4a3d 5816 363d 0ea9 913e
000000e0: 9ec9 1cbe 028c 043e 9305 7a3e ee5b 8bbe
000000f0: 6d29 e63c 3b2d 983e 2c3b 0a3e 4648 c2be
00000100: 04c5 a33d 482a a93d 1bb7 f83e 7ed0 a3be
00000110: 01f2 83be 3405 8d3e b19e 38be 0a75 3ebc
00000120: 74cd 2dbe 43e7 48bf aca2 813e de04 f8bc
00000130: 5275 38bd fbe8 4dbd c012 e0bd ee65 febc
00000140: ead7 99bd ae07 5c3d 1278 ba3b 99fe 5c3c
00000150: ef2b 7abd 666c a23e 18c2 c1be 3ee9 f4bd
00000160: 4fc2 0c3f 2b2a 44be ad81 95be 3aa6 08be
00000170: 6ef1 fa3e 4c9a d13d 6bc0 35bf 63ba 9a3d
00000180: 3571 65bd 3a1d 8fbe 2af2 1c3f 1763 68bf
00000190: 690f c0ba 2e00 01bc 5849 64bc 3a8a 97bc
000001a0: 4b23 aabc 6349 a9bc 065f 9cbc 96dd 8cbc
000001b0: 3f5a 31bc a936 4ebb 8fda 2b3c b1e9 9f3c
000001c0: 4af3 f73c 9bf2 e33c 1d4d 4e3d 29c4 f83c
000001d0: 5ba1 a83d 39cb 6c3c e1b8 d83d a3d2 dcbc
000001e0: d5c0 f63d 2a77 97bd e983 033e d883 80bd
000001f0: e939 863d 0f75 90be aabf 8d3d cdb1 ffbd
00000200: ade5 583e 8a90 e93c d87b 653e 6dfe 81be
00000210: 08b7 6cbe fafa e3bd a785 a73e 1c4a 9a3e
00000220: 48d3 963e 876f a9bd 1cb1 bfbe 4bad 46be
00000230: 2e47 28bf c0e4 d53e e648 71be 728b f43d
00000240: e627 113f 78e1 e2be 8d5a bbbd f44b 4b3e
00000250: cc7d 8bbf fcc3 443f 4954 6b3c 3fdb 4c3b
00000260: 4c97 fd3b f1bc 163c 5cda 9ebd 5bc5 533e
00000270: b1df 0bbf 965f 3b3f 74ef 27bf 3ac1 683c
00000280: 80c9 043f 0dab 7ebe 7f5a afbe 4872 9d3e
00000290: a26f 9b3e f4fc 1abe a2af 8fbe e1cf 843d
000002a0: 8b09 6f3e 1753 233e 3b39 05be 0d05 20be
000002b0: 0993 5b3e 6369 8f3d 9031 413e d63c de3c
000002c0: 5e43 b73d 714f 563d 6dfe 953d 587c 363b
000002d0: 618d 81bd 3abf 37be 8c7b 88bd 26d2 25be
000002e0: a48f 993e ccf7 42be 11d7 1b3e ad6e 81bd
000002f0: 070f 8bbd cf32 cc3d d94b 193e 832e c43e
00000300: 2820 52bc 05c8 00bf 1856 43be 0430 0abf
00000310: 72a0 09be bc74 9a3e 5dc9 11bf 2ebb edbe
00000320: 81e7 273e ac33 cb3d 5a9e db3c 8c0b 65bd
00000330: 6f93 52be 7526 633d 0558 173e 7b5b 383e
00000340: bb2f 673e 4571 eabd 4652 c83d a64c 33bd
00000350: 5909 a13c e2fc 7c3c f292 4d3e df24 b63e
00000360: 2969 933e c056 34be 08d6 213d 2993 113d
00000370: 6a5a b43c 8f17 923e 98df e73d b70d d0be
00000380: d4cb 663f 12ec 513d 855a f83d 39fb 6fbd
00000390: 82cc 3d3e 1ec6 033e 2e70 c83d 027d 20be
000003a0: 9596 dabc b564 d0bd a176 2fbe 4fff 26be
000003b0: 2cd0 2abd 7ef2 873c dad2 9d3e 60ae f9bd
000003c0: a454 04be b1fc a9be c435 d73c 11d8 3a3e
000003d0: f3bc 703e 1f00 553e fe6f a7be 6a62 d3bd
000003e0: acaf 73be f914 34bf 5a1f d33b 8d42 fdbb
000003f0: a8c4 e8bd 6044 cfbd 5be1 1a3e 4b55 903e

complner.0.bias f4 [25]
0.0005405733 -0.0070998482 0.0011506511 0.00022444384 0.00012528241 0.022672622 -9.230673e-05 0.0010166118
-0.041258905 -0.020516453 -0.026320474 -0.08595892 -0.0023626303 -0.03215286 0.03007039 -0.03229157
0.08698544 0.04830956 0.0005906928 0.012925236 0.0005951568 0.00055949617 -0.07802481 -0.0034991277
-0.14575616
00000000: 43b5 0d3a d8a5 e8bb 72d1 963a af58 6b39
00000010: 3e5e 0339 efbb b93c cc94 c1b8 d53f 853a
00000020: 19ff 28bd 1f12 a8bc 099e d7bc 3b0b b0bd
00000030: 5cd6 1abb b8b2 03bd 2e56 f63c 2a44 04bd
00000040: 6c25 b23d 3fe0 453d b9d8 1a3a 5ec4 533c
00000050: 4c04 1c3a 27ab 123a 79cb 9fbd 9f51 65bb
00000060: 1a41 15be

complner.2.weight f4 [1, 25]
0.0013005629 -0.04692457 0.07756685 -0.10424223 0.00049049815 0.032169927 -0.104726814 -0.036649097
0.033410773 -0.037083235 -0.05806165 0.0313612 0.0030046462 -0.0017038274 -0.05781915 0.04235456
-0.03200275 0.032493986 -0.0017653957 -0.03953578 0.00088746625 -0.00016175213 0.034147277 -0.10188739
-0.029905513
00000000: a677 aa3a fa33 40bd 5edb 9e3d f37c d5bd
00000010: c694 003a 9dc4 033d 037b d6bd 5d1d 16bd
00000020: bcd9 083d 97e4 17bd 0dd2 6dbd 9a74 003d
00000030: 99e9 443b f652 dfba c6d3 6cbd fa7b 2d3d
00000040: 5115 03bd 6a18 053d da64 e7ba 45f0 21bd
00000050: daa4 683a 029c 29b9 04de 0b3d 56aa d0bd
00000060: 68fc f4bc
