LVFFN_PAM2/model/j35m300a83rx.pt (torch_old, 5993 bytes, 3 tensors)

complner.0.weight f4 [35, 35]
00000000: d831 22bd 280f d2bd c20c 57be bc87 4cbe
00000010: 93c0 653d f4e9 f03d a816 d73d 6361 50be
00000020: 4b8e 463e 74c5 d5be 71a3 903e c49c 943e
00000030: cc14 94be 76fb f23d a2cc 963e 12b0 363e
00000040: 587e febe 38c4 ef3d 6605 ec3e bc06 5b3d
00000050: 1950 a8bd 4844 6fbd d988 82bd 608a 6a3e
00000060: fbd8 f13e 75cc 2cbe 0de4 18bf 4ade cb3e
00000070: 046e bd3e dc70 a6be 2e07 c9bd 21f0 0c3f
00000080: c62c 6bbe 87bf 81bf 4f5e a23f 2405 b7be
00000090: 5248 26bf d393 bbbe f0ec 023e 78cf 4e3f
000000a0: 6cad 2f3f 7714 bd3d 428a 22bf 4b32 a2be
000000b0: 036f 293e fd72 8c3e a28e cd3b bc6e 40be
000000c0: 0444 f1be c842 3cbe ce07 70bb 2bf4 413f
000000d0: b2ae 013f e1c8 b4be 4da4 0dbf d636 04bf
000000e0: d1ea 223d 9237 703f 41c0 913e c0e4 72bf
000000f0: 3ece 86bf 8f6e 6ebf 291e ce3e e47a 8b3f
00000100: ead7 bb3f 02b7 8e3f a755 51be dde5 2fbf
00000110: bb2b 5fbe 4b1c f83d ff44 c73d 1deb a33e
00000120: 569a 803e 90bf e1bd 96a5 73be dac7 b3bb
00000130: 0376 f9be e830 8f3e 2f72 1ebe 99a9 8cbd
00000140: f1ca d33e 9a50 11be 082b dfbe fab1 b53d
00000150: 7333 7a3f fb6f b93e a9db edbe 5c58 84bf
00000160: 749e dfbe 5b9d 123f 5578 f33e a357 843d
00000170: 251c aabe 2e73 b8be e753 b2bd c08c c63e
00000180: 65e0 363f f368 c4bd 130e 09bf f962 f23d
00000190: 25e0 f33d ec9d 07be d716 1bbe e0cc 143f
000001a0: 4a5f 12bf 7a3a efbc 117d 643c fff6 183d
000001b0: 3f8a b9bc 692d 99ba 6d4b dbbc b8cc 5d3e
000001c0: 6d53 7ebe 5a4c 9d3e 9c27 06be 8995 3abe
000001d0: 3bd9 2f3e 8831 663d 6c88 05be a566 d73c
000001e0: 2cf7 543e 1a1c 093e bf58 a7bd cdde 1d3c
000001f0: 2d17 90bc 4b62 363e ef5e 48bd fb21 aabd
00000200: 1d7d 45bd 3a58 1c3c 1632 343d b363 1c3e
00000210: ab61 c6bc 4361 363b ece7 2c3d 2117 763e
00000220: 2eeb 9cbe 2475 983d 3e2e 52bd af4a a3be
00000230: 7f4c 8bbe 7008 47be 4519 ebbe cdb4 89be
00000240: 3671 20be b564 383e 3368 023e 3c11 923c
00000250: ba87 a9bd 5cff 883d 723b cdbc d8f7 543e
00000260: 553f 80be 04e5 02be e53a 30bc b557 eebc
00000270: 686c 3c3d 876c a73e 046d b03e d900 df3d
00000280: 3c73 febe aa0b 9fbe 6b38 debe 138d 8c3e
00000290: 172d 883f b0d7 0f3f d4d5 babe fde1 27bf
000002a0: ea77 40bf a2de 8a3e df26 783f 149d 333f
000002b0: 2307 cabd 33f7 4bbf 68ae 76bf 867a 39bd
000002c0: 2ba8 16be c533 b8bd d576 813d 4046 413e
000002d0: 07dc 493b 5c93 10be 5b5f a4bd a2c9 d43d
000002e0: 5206 46be 2bde 013e 670a 4ebe 339e 95bd
000002f0: 7fbc b23e 27bc 523e 2b37 d5be 2f2f 47bc
00000300: 7524 1d3d 6d11 acbe 51e4 50be 7a5e 313e
00000310: e60f 983e 900f f43e 98c9 f1bd 5076 5bbf
00000320: 710c 2f3d 7230 013f 3c4e fc3d 97db 1cbe
00000330: 953c 473d e648 b4be b44e 0abf cd23 7d3d
00000340: d89b 7c3f 0724 f1bd 8d1a 61bd d3fb 2cbc
00000350: bbd1 dd3d f934 fe3d dff7 47bd 130b 393e
00000360: 185c ddbe 622a be3e 1e04 b8bd 75cb cabe
00000370: baf9 aa3e 4ee0 db3e acb3 43be 6322 10bf
00000380: eb55 09bd f912 453f f87d 193f 766a 2f3d
00000390: b307 e5be a544 9bbe 73cb 733e 9f70 af3e
000003a0: 41b6 2f3e 9bcb 46be 7743 57be aca3 13bc
000003b0: b5c5 963e 4446 ac3e 811a 013e db9f 84be
000003c0: 7893 eabc 8184 c03d 5eff b33e 4883 2f3e
000003d0: b4a0 8bbd a2df dfbd d2fd 87be e907 0fbe
000003e0: dde6 2fbe ccd5 bc3d 6e80 053f ad42 cc3e
000003f0: 75ab adbe c465 00bf 13ca 0ebd 517b 443e
-0.039598316 -0.10256797 -0.2100096 -0.19973654 0.056091856 0.11763373 0.10502368 -0.2034965
0.19390218 -0.41752207 0.28249696 0.29025853 -0.28922117 0.118643686 0.29452997 0.17840603
-0.49705768 0.11707348 0.4609787 0.05347322 -0.082184024 -0.058414727 -0.06373758 0.22904348
0.47235855 -0.16874869 -0.5972298 0.3981803 0.36997998 -0.3250798 -0.098158225 0.5505391
-0.22966298 -1.0136575 1.2685031 -0.3574611 -0.649541 -0.36636218 0.12785697 0.8078532
0.68623996 0.09232419 -0.63492215 -0.31678995 0.16546254 0.2743148 0.0062731067 -0.18792242
-0.47122204 -0.1838485 -0.0036625746 0.75763196 0.5065719 -0.35309508 -0.5532883 -0.51646173
0.03977472 0.93834794 0.2846699 -0.94880295 -1.053169 -0.9313745 0.40257385 1.0896878
1.4675267 1.11496 -0.2044283 -0.6871012 -0.21794026 0.121147715 0.09729957 0.32015315
0.2511775 -0.11022866 -0.23793635 -0.0054864706 -0.48722848 0.27967 -0.15473245 -0.06868286
0.4136577 -0.14190903 -0.43587518 0.08871837 0.97734755 0.36218247 -0.4645665 -1.0339465
-0.43675578 0.57271355 0.47552744 0.06462028 -0.33224598 -0.36025375 -0.08707409 0.3877926
0.7143615 -0.0959033 -0.535371 0.11835284 0.119079866 -0.13243836 -0.15145431 0.58125114
-0.5717665 -0.029202688 0.013945834 0.03734493 -0.022648929 -0.0011686507 -0.026769364 0.21660125
-0.24836512 0.30722314 -0.13101047 -0.18221106 0.1717271 0.05619958 -0.13040322 0.026294062
0.20797414 0.13389626 -0.08171224 0.009635639 -0.017589176 0.17810933 -0.04891866 -0.083072625
-0.04821502 0.009542519 0.04399308 0.15272407 -0.024216494 0.0027828969 0.042213365 0.2403226
-0.30648178 0.07444218 -0.05131363 -0.31892917 -0.272068 -0.19436812 -0.45917717 -0.26895753
-0.15668187 0.18007167 0.12735061 0.017830484 -0.08277841 0.06689331 -0.02505276 0.2079767
-0.25048319 -0.12782675 -0.010756229 -0.029094556 0.04600182 0.32699987 0.34458172 0.108888336
-0.49697292 -0.31063586 -0.43402418 0.2745138 1.063876 0.5618849 -0.36491263 -0.65579206
-0.75182974 0.2712298 0.9693431 0.7016156 -0.098646425 -0.7967407 -0.9635987 -0.045282863
-0.14712588 -0.08994249 0.063214935 0.18874454 0.0030801313 -0.14118713 -0.08026 0.10390021
-0.19338349 0.12682407 -0.20121156 -0.07305565 0.34909436 0.20579587 -0.41643652 -0.012157246
0.038364846 -0.33607045 -0.20399596 0.17321196 0.2969963 0.47668123 -0.11806029 -0.85727406
0.042736474 0.50464547 0.123196095 -0.15318142 0.04864176 -0.35211867 -0.5402634 0.06180172
0.986753 -0.1177445 -0.05495696 -0.010558086 0.108310185 0.124124475 -0.048820373 0.1807063
-0.43234324 0.3714171 -0.0898516 -0.3960835 0.3339365 0.42944568 -0.19111508 -0.5630247
-0.033529203 0.76982075 0.5995784 0.04282614 -0.44732437 -0.3032581 0.23808078 0.3426561
0.17159368 -0.19413607 -0.2102183 -0.00901119 0.29447713 0.33647358 0.12607767 -0.2590321
-0.028634772 0.09400273 0.35155767 0.17139924 -0.06817761 -0.109313264 -0.26560837 -0.13967861
-0.17177911 0.09220466 0.52149093 0.3989462 -0.33919874 -0.5015528 -0.03486068 0.19187666

complner.0.bias f4 [35]
00000000: 1934 953c bb28 083c 9602 00bc 44e6 67bf
00000010: 7b96 64bc 590b f03c 10d0 78bc 9677 ad3c
00000020: e2db 9abc 168b 343c 85ed 423f 66a2 0b3d
00000030: 0d9d cebb a742 86bb 719b 6f3c 80b3 783c
00000040: cf8e 83bb 3b51 043d 33e1 723c 7253 273d
00000050: 3bff bfbb e4c4 26ba 76a4 0cbd 3d34 ba3b
00000060: 98e3 203e c53c a0bc 6195 103c 4e13 1f3a
00000070: f9f3 c93a fb00 0fbd 968e 43bb f953 183b
00000080: 5451 afbb ba00 2c3d 66d5 66bc
0.018213319 0.008310492 -0.007813117 -0.9058573 -0.013951893 0.029302286 -0.015186325 0.021175187
-0.018903676 0.011019489 0.76143676 0.034090422 -0.006305343 -0.004097301 0.014624462 0.015179515
-0.004014827 0.03230403 0.0148241995 0.040851064 -0.0058592833 -0.00063617365 -0.03433653 0.005682497
0.1571182 -0.019560227 0.008824677 0.0006068245 0.0015407793 -0.034913044 -0.0029839627 0.002324341
-0.0053502712 0.04199288 -0.014088964

complner.2.weight f4 [1, 35]
00000000: 5142 9cbd b094 93bd c345 a33d 8bec 113e
00000010: 3e64 793d a43e 6abd 751a 8c3d f74e 633d
00000020: 0300 7ebd 12f8 a3bd ec0a 0e3e db69 1c3d
00000030: 6e55 873d dc37 883d 3f63 8a3d b75a 6cbd
00000040: 3111 a33d cc97 9f3d 3f38 833d d70f 653d
00000050: 7102 5c3d 5953 69bd 456b 7f3d 542a 883d
00000060: 0c17 3cbd f186 94bd eae7 71bd 33da 37bd
00000070: 531b ba3d 3e72 c7bd 4f46 8a3d ef71 5fbd
00000080: bc59 88bd f68c 853d 2881 743d
-0.07629836 -0.07206094 0.0797229 0.1425039 0.060886614 -0.057188645 0.06840984 0.05549523
-0.06201173 -0.080063 0.13871354 0.03818689 0.06608091 0.06651279 0.06757211 -0.0577037
0.079622634 0.07792625 0.064072125 0.05592331 0.053713266 -0.056964252 0.06235816 0.066486984
-0.045920417 -0.072523005 -0.05905906 -0.044885825 0.09087243 -0.09738587 0.067516916 -0.054552015
-0.066577405 0.06521027 0.059693485
