MPSNN_PAM2_PAM4/model/modeltrained_savetc250_30.pt (torch_old, 252813 bytes, 3 tensors)

complner.0.weight f4 [250, 250]
-0.036031555 0.019213568 0.015401057 0.011027816 0.043452583 -0.010921904 -0.049563766 -0.04924356
-0.006805144 0.06277471 -0.0038810105 0.041895695 -0.022822332 -0.04193106 0.007882035 -0.007406659
-0.05866367 -0.008852129 0.017487152 0.028596003 0.016649377 -0.03739515 0.045493044 0.062457673
0.0032521905 -0.048218008 -0.012636289 -0.011496649 -0.015023087 -0.026620615 0.0566046 0.02236163
-0.021497037 0.03379691 0.060254738 -0.026539002 -0.011163403 -0.020418236 0.058651928 0.007909303
-0.061962835 0.045552343 -0.022749513 -0.023778053 0.038770676 0.014827783 -0.031562995 0.042494092
0.025705764 -0.060319465 0.05480823 -0.041111138 -0.01751225 0.044695698 0.028720738 0.016774978
0.026161887 -0.028270692 0.007900942 -0.05124759 -0.051616814 -0.018112311 -0.016299224 0.008507592
0.019408036 -0.0065535377 0.049624678 -0.048759956 0.020876093 0.030651152 -0.061270643 -0.023053404
0.028829409 -0.0042706216 0.039014444 0.034259576 -0.046599526 0.05322045 -0.0024317084 -0.005316282
-0.01751026 -0.0015858477 -0.033617817 0.052971218 0.012498643 0.04210123 0.0051442133 -0.043436877
-0.037065554 0.049622696 -0.027124196 0.01982197 -0.043188587 0.02762768 -0.028946063 0.010733655
0.037145905 -0.046337254 0.06071881 -0.051592976 -0.05792818 0.03285062 -0.0069486713 0.012972405
0.028771318 0.0004625435 -0.008555136 -0.032144617 0.004430315 -0.015483186 -0.038390268 0.03294614
-0.015573767 0.02328948 0.034744494 -0.030781439 -0.027599547 0.047008317 -0.018817082 -0.029091671
-0.0064119925 -0.029362328 -0.0047446806 -0.018080661 0.039089568 0.020209925 -0.028904716 0.04312657
0.006717469 -0.019955581 0.06565612 0.008538101 0.006388781 -0.02649165 -0.044121474 0.037477333
-0.01665516 -0.051214464 -0.031895593 0.014050317 -0.0063324114 0.06672814 -0.012989124 0.033530023
-0.012421939 -0.054700278 -0.041962627 -0.008663368 0.051214408 0.022958336 -0.0009800157 0.037083343
-0.053187367 -0.0010841726 0.036393914 0.02439221 0.0034259835 0.03661575 0.017408678 -0.048647895
0.01277391 0.008577677 -0.05481188 0.035514418 0.03059309 -0.029342094 -0.042716656 0.035899974
0.043463662 -0.049174666 0.026608935 -0.005283662 -0.045173157 -0.06289466 -0.046694666 -0.05171372
-0.006103574 -0.048633017 -0.012529945 0.021247815 0.030497111 0.041070927 0.059179053 -0.014370992
0.05742978 0.02917179 -0.047562066 -0.047905043 0.01299031 0.02784451 0.049037665 -0.029251771
0.07127833 0.0383455 -0.033647478 -0.005316983 -0.035100378 -0.042217374 -0.03838912 0.014712662
0.061039433 -0.033081237 -0.028489647 0.0043559545 -0.01740237 0.004130032 0.029692361 0.034461405
-0.07036214 0.018816156 0.028953748 -0.03938939 -0.005388169 -0.037184812 -0.041516047 0.0026209797
-0.054922737 -0.03336364 0.01689346 0.029034 0.014852326 -0.03271386 0.030201033 -0.024191499
0.05453027 0.047241546 0.031029036 -0.0304262 0.07595682 -0.040223446 0.017045233 0.06702854
-0.045689482 -0.01920711 -0.0148796085 -0.013369841 -0.044271577 0.015028814 0.034988884 -0.038236897
0.03923103 -0.012057478 0.052945033 -0.015504736 -0.01818557 0.036282588 -0.06414846 -0.07190851
0.035680637 0.023957264 -0.00096603314 0.06054394 -0.013537124 -0.041110374 -0.05907458 0.03567745
00000000: d395 13bd c665 9d3c b754 7c3c 03ae 343c
00000010: 56fb 313d c9f1 32bc 6003 4bbd 9db3 49bd
00000020: affd debb 0790 803d 8d58 7ebb d29a 2b3d
00000030: e6f5 babc e7bf 2bbd a723 013c 8fb3 f2bb
00000040: 5149 70bd 8508 11bc 3741 8f3c 2a42 ea3c
00000050: 4664 883c a82b 19bd ea56 3a3d 9ed3 7f3d
00000060: b422 553b 3f80 45bd 7008 4fbc 715c 3cbc
00000070: 6523 76bc 7a13 dabc 3ada 673d bd2f b73c
00000080: 8e1a b0bc a16e 0a3d accd 763d 5268 d9bc
00000090: b5e6 36bc 2544 a7bc 013d 703d 0596 013c
000000a0: becc 7dbd 1895 3a3d 305d babc 31ca c2bc
000000b0: 00ce 1e3d 3bf0 723c 3348 01bd 490e 2e3d
000000c0: e594 d23c 8b11 77bd 987e 603d 2764 28bd
000000d0: da75 8fbc d612 373d c147 eb3c ae6b 893c
000000e0: 7451 d63c f097 e7bc f472 013c fee8 51bd
000000f0: 276c 53bd 4560 94bc f385 85bc 6d63 0b3c
00000100: 9afd 9e3c 0fbf d6bb 3f43 4b3d 85b8 47bd
00000110: 5704 ab3c 2018 fb3c edf6 7abd 7eda bcbc
00000120: a72b ec3c 92f0 8bbb 9ccd 1f3d c553 0c3d
00000130: 25df 3ebd b0fd 593d 4c5d 1fbb 3534 aebb
00000140: ad71 8fbc 38dc cfba d6b2 09bd 59f8 583d
00000150: 1cc7 4c3c 5772 2c3d ca90 a83b deea 31bd
00000160: 0dd2 17bd 2b41 4b3d 9033 debc af61 a23c
00000170: 84e6 30bd 7253 e23c 4b20 edbc 36dc 2f3c
00000180: 4e26 183d 22cc 3dbd 49b4 783d 2853 53bd
00000190: 1946 6dbd 5f8e 063d aeb1 e3bb 368a 543c
000001a0: d4b1 eb3c 8a81 f239 d72a 0cbc 13aa 03bd
000001b0: 2d2c 913b 30ad 7dbc 1d3f 1dbd 88f2 063d
000001c0: 1d29 7fbc 94c9 be3c 3e50 0e3d 5b29 fcbc
000001d0: 7218 e2bc cb8b 403d 4826 9abc a851 eebc
000001e0: b11b d2bb 4489 f0bc 4479 9bbb e51d 94bc
000001f0: 621c 203d 498f a53c 95c9 ecbc 7ca5 303d
00000200: 371e dc3b e379 a3bc b776 863d 64e3 0b3c
00000210: fb58 d13b 0405 d9bc b8b8 34bd d581 193d
00000220: 6770 88bc 42c6 51bd f4a4 02bd 4d33 663c
00000230: 1e80 cfbb c3a8 883d 56d0 54bc c756 093d
00000240: 6385 4bbc 660d 60bd 01e1 2bbd cdf0 0dbc
00000250: 33c6 513d 1f13 bc3c df73 80ba b4e4 173d
00000260: ffda 59bd cc1a 8eba c911 153d 2cd2 c73c
00000270: 7786 603b 66fa 153d a59c 8e3c 0443 47bd
00000280: a949 513c 6389 0c3c 6c82 60bd 9177 113d
00000290: 5c9e fa3c d55e f0bc a9f7 2ebd da0b 133d
000002a0: f406 323d 606b 49bd fbfa d93c 9222 adbb
000002b0: 7d07 39bd eace 80bd e842 3fbd c4d1 53bd
000002c0: 7d00 c8bb 6a33 47bd 664a 4dbc e60f ae3c
000002d0: 14d5 f93c fd39 283d bc65 723d 4f74 6bbc
000002e0: 7d3b 6b3d aef9 ee3c 71d0 42bd 1438 44bd
000002f0: 4fd5 543c 2b1a e43c b8db 483d 69a1 efbc
00000300: 60fa 913d 2c10 1d3d f0d1 09bd 163a aebb
00000310: 6ac5 0fbd 20ec 2cbd e93d 1dbd 610d 713c
00000320: 7c04 7a3d 3180 07bd 1f63 e9bc 65bc 8e3b
00000330: 6a8f 8ebc 3855 873b 653d f33c 6727 0d3d
00000340: 071a 90bd 5724 9a3c 6930 ed3c c556 21bd
00000350: 3d8f b0bb 1a4f 18bd bb0c 2abd bec4 2b3b
00000360: aaf6 60bd 50a8 08bd 2764 8a3c b6d8 ed3c
00000370: 2c57 733c f8fe 05bd 2868 f73c 402d c6bc
00000380: 225b 5f3d 5a80 413d 9b30 fe3c 5e40 f9bc
00000390: 408f 9b3d 57c1 24bd 72a2 8b3c 4246 893d
000003a0: e524 3bbd 3b58 9dbc 9ac9 73bc 2d0d 5bbc
000003b0: 1d56 35bd 6a3b 763c 8150 0f3d 4b9e 1cbd
000003c0: b7b0 203d ba8c 45bc e4dc 583d 9407 7ebc
000003d0: e8f9 94bc 0d9d 143d 4560 83bd c544 93bd
000003e0: dc25 123d 0642 c43c 633d 7dba ecfc 773d
000003f0: d0ca 5dbc 5a63 28bd 30f8 71bd 8522 123d

complner.0.bias f4 [250]
0.010428162 -0.009080665 0.046324134 0.012285367 0.0027455245 0.07177854 0.008316538 0.0709854
0.0002670841 0.020230697 -0.08944946 0.0054123574 0.000277012 0.0018721935 -0.008891227 0.03873738
0.016256891 0.09928625 -0.021998925 -0.027524924 -0.03430258 0.019502634 -0.009218114 -0.045539103
-0.03821584 -0.050465234 0.038429078 -0.039181642 0.08595325 0.03946919 -0.012451185 0.04322734
-0.01429596 -0.01777161 -0.008565321 0.027125793 -0.002149625 1.7364557e-05 0.020512328 -0.012827033
-0.044854138 0.025927778 -0.029101105 -0.00036193602 -0.010542288 0.024367856 -0.025776407 -0.058192905
-0.01289652 0.010143394 0.0043319543 -0.0014267149 -0.0036542995 0.055127565 -0.016614042 -0.0080414405
-0.0991013 0.01264129 -0.017708223 -0.010134767 -0.103069685 0.042694166 -0.04640649 0.06872287
-0.0006234096 -0.052406494 -0.12816781 -0.012987724 0.04095002 -0.06632955 -0.028025553 0.034648288
0.060662713 0.08777893 -0.05483623 -0.033882286 -0.0005551817 -0.0696817 -0.06297774 0.016511196
0.012315192 0.02688447 -0.008587714 -0.0045585628 0.05713962 -0.006745948 0.052592833 0.081759475
-0.033869248 0.007659099 -0.021408265 0.045618236 0.0015827551 0.017323818 0.0051096063 0.017184246
0.09608683 -0.0403972 0.038201734 -0.11921602 0.04529975 0.021957345 0.09399523 0.031337187
0.01568035 -0.007931169 -0.022666447 -0.008808924 0.0077725262 -0.0120890355 -0.005767325 -0.007113287
0.0032883147 -0.036565397 -0.012675769 0.013448975 0.0011043885 -0.013064136 0.005713277 0.0104272505
-0.015064285 -0.023599338 0.0059934156 -0.027727932 0.0952984 -0.02198134 -0.0023102146 0.0061105364
0.018802715 0.021452356 0.021701597 -0.052049372 -0.011004986 -0.0268567 0.023771064 0.023102242
0.016047915 0.013284444 0.010861707 0.05790268 0.08728674 0.0005257046 0.0020408095 -0.0023655165
-0.004887963 0.049381018 0.06761551 0.030397432 -0.008191097 0.006271289 -0.08691268 0.092847414
0.03301847 0.032785937 -0.002265426 0.088615865 -0.00063718535 0.0072225933 -0.04447434 -0.028262835
-0.035836887 -0.01803661 -0.099275306 0.008019906 0.009515875 0.014218201 -0.10985123 0.03214497
0.0055750315 0.03685364 -0.04338835 0.025179649 0.0050791427 -0.054684933 -0.046603493 -0.0054273116
-0.012481516 0.0034126989 -0.0022360308 -0.049865812 0.057178117 -0.07239573 -0.011942741 -0.0033009527
0.015294811 0.08642807 -0.05971898 0.003496403 -0.004571847 0.034431204 -0.0003920202 0.046027362
0.008883617 0.0030062133 -0.10500353 -0.0068212 -0.027360426 0.00025483556 -0.009633741 -0.00990244
0.015084513 -0.021497713 -0.04113526 -0.0371751 -0.111112535 0.0028006232 -0.033352807 0.009653558
0.0018389404 -0.012075823 -0.0047362177 0.019586856 -0.0031781476 -0.0069046156 0.08988032 -0.028013213
0.06240203 -0.002232399 0.013209037 0.06159066 0.006065802 -0.013910921 0.062154587 0.06882761
-0.02125012 0.070827454 0.069372684 0.04354036 0.084844165 -0.014046638 0.057313856 0.018453488
-0.019272571 0.041812956 -0.0037304892 -0.031188477 0.09302364 -0.052142844 -0.0120973475 0.074329376
0.0002442316 0.009525719 -0.0073371693 -0.12523988 0.004267165 -0.10273267 0.024122497 0.0062262053
0.00838274 0.0009459139
00000000: e2da 2a3c 12c7 14bc 60be 3d3d 9048 493c
00000010: 42ee 333b a100 933d 1742 083c cb60 913d
00000020: 6c07 8c39 d9ba a53c 4731 b7bd 255a b13b
00000030: ec3b 9139 6464 f53a 82ac 11bc 16ab 1e3d
00000040: 2c2d 853c 9756 cb3d 1737 b4bc f37b e1bc
00000050: dd80 0cbd fdc3 9f3c 9307 17bc 3687 3abd
00000060: 3688 1cbd a2b4 4ebd cf67 1d3d ee7c 20bd
00000070: 4208 b03d 72aa 213d 0e00 4cbc 270f 313d
00000080: 9a39 6abc c495 91bc 8f55 0cbc e936 de3c
00000090: b9e0 0cbb 1aaa 9137 7809 a83c 7a28 52bc
000000a0: f9b8 37bd 7e66 d43c 7165 eebc 3bc2 bdb9
000000b0: 90b9 2cbc 199f c73c 0b29 d3bc af5b 6ebd
000000c0: ed4b 53bc 7a30 263c 11f3 8d3b 9c00 bbba
000000d0: f97c 6fbb 71cd 613d 2c1a 88bc 3fc0 03bc
000000e0: 9ff5 cabd 6a1d 4f3c d610 91bc 4b0c 26bc
000000f0: 3316 d3bd 14e0 2e3d bb14 3ebd 93be 8c3d
00000100: 4f6c 23ba 31a8 56bd 6c3e 03be 76ca 54bc
00000110: 35bb 273d cad7 87bd d895 e5bc 5deb 0d3d
00000120: 7779 783d 71c5 b33d f49b 60bd 27c8 0abd
00000130: 9d89 11ba 47b5 8ebd 79fa 80bd 7d42 873c
00000140: a9c5 493c d23c dc3c 7cb3 0cbc ff5f 95bb
00000150: 3c0b 6a3d 1d0d ddbb 956b 573d 8371 a73d
00000160: 7bba 0abd 2ef9 fa3b 6360 afbc 30da 3a3d
00000170: 7374 cf3a aeea 8d3c 7c6e a73b fac5 8c3c
00000180: 2cc9 c43d 8977 25bd 6c79 1c3d 8727 f4bd
00000190: 3b8c 393d e4df b33c 9280 c03d 6c5b 003d
000001a0: 1474 803c bcf1 01bc fcae b9bc 4e53 10bc
000001b0: adb0 fe3b 1711 46bc d4fb bcbb 9416 e9bb
000001c0: c480 573b 99c5 15bd 07ae 4fbc 1759 5c3c
000001d0: 21c1 903a f50a 56bc 7136 bb3b 0fd7 2a3c
000001e0: 31d0 76bc 6653 c1bc 6a64 c43b b025 e3bc
000001f0: cf2b c33d 3612 b4bc f866 17bb e53a c83b
00000200: 2708 9a3c dabc af3c 8cc7 b13c b931 55bd
00000210: 424e 34bc 9502 dcbc 89bb c23c ea40 bd3c
00000220: eb76 833c ffa6 593c 4df5 313c 5c2b 6d3d
00000230: 64c3 b23d 70cf 093a 1abf 053b c806 1bbb
00000240: 352b a0bb c043 4a3d 007a 8a3d 0904 f93c
00000250: f333 06bc 637f cd3b 46ff b1bd c926 be3d
00000260: 603e 073d 8c4a 063d 8b77 14bb 3c7c b53d
00000270: c908 27ba 81ab ec3b ba2a 36bd 7687 e7bc
00000280: b3c9 12bd 83c1 93bc da50 cbbd ec65 033c
00000290: 79e8 1b3c 75f3 683c aff9 e0bd 72aa 033d
000002a0: c1ae b63b d8f3 163d fcb7 31bd 8d45 ce3c
000002b0: f06e a63b 4ffd 5fbd 4ee3 3ebd 97d7 b1bb
000002c0: 467f 4cbc 96a7 5f3b 5f8a 12bb 1840 4cbd
000002d0: 9a33 6a3d 3644 94bd 7dab 43bc cc54 58bb
000002e0: 1697 7a3c 3301 b13d e49b 74bd e923 653b
000002f0: 6fcf 95bb bc07 0d3d 1088 cdb9 3087 3c3d
00000300: 978c 113c e403 453b 170c d7bd 5f84 dfbb
00000310: f922 e0bc 739b 8539 d7d6 1dbc d83d 22bc
00000320: 0925 773c f91b b0bc 727d 28bd eb44 18bd
00000330: f88e e3bd a98a 373b f49c 08bd f529 1e3c
00000340: 9a08 f13a acd9 45bc 4632 9bbb 9d74 a03c
00000350: 7848 50bb 1d40 e2bb 2c13 b83d f77b e5bc
00000360: 4599 7f3d 714d 12bb b76a 583c 7d46 7c3d
00000370: a3c3 c63b a2ea 63bc cf95 7e3d 7df5 8c3d
00000380: bb14 aebc fc0d 913d 4413 8e3d 6057 323d
00000390: c7c2 ad3d df23 66bc efc1 6a3d c52b 973c
000003a0: 83e1 9dbc 1044 2b3d 397b 74bb fa7e ffbc
000003b0: 2e83 be3d bc93 55bd f433 46bc 003a 983d
000003c0: 360c 8039 c311 1c3c a36c f0bb e23e 00be
000003d0: 93d3 8b3b 8265 d2bd 8b9c c53c 3205 cc3b
000003e0: c357 093c 35f7 773a

complner.2.weight f4 [1, 250]
-0.00036231687 -0.00010101549 -0.008804926 -0.00047707223 0.019444587 0.0076952707 0.017952098 -0.0040321937
0.00039918997 -0.00028534813 -0.03805054 0.021873066 0.00016263538 -0.00018471603 -0.010604009 0.036273945
-0.00030122153 0.01044905 -0.0003164737 -0.035213638 0.012640526 0.027365146 0.00044425542 -0.041263364
-0.028711146 0.00038298834 -0.0016993809 -0.0039339093 0.009272949 0.03800118 -0.00027752898 0.012665022
0.018619806 -0.00013633554 0.0002507017 0.004989973 0.02886614 -0.00012581286 -0.011967171 0.00033777874
0.0044636317 0.029372113 0.00027114307 -0.00011759229 -0.028114093 -0.05609919 -0.00011518519 -0.04021456
0.00010940509 -0.0004939941 0.00027499502 0.027954292 -0.000112890855 0.013289631 -3.177968e-05 0.00016654201
-0.011197921 0.00019642906 -0.012774744 -0.041634794 0.033725597 -0.00014914713 -0.013375604 0.017230652
0.00042966485 0.024490051 0.026458945 0.00038759803 -0.032765176 0.020099122 0.024837166 0.008836452
0.006287726 -0.007019781 0.0006412627 -0.026388234 -0.005246598 -0.0040742233 -0.028194593 0.020682644
0.0031985503 -0.033393804 -0.00034763792 -0.009841775 0.013107191 -8.876692e-05 0.05442146 0.023176035
0.031652752 -0.028032131 6.8769834e-05 -0.018268166 0.00024455605 0.0030572615 0.009984481 -0.035529613
-0.011714756 -0.010320154 0.022115063 -0.030480703 8.326194e-05 -0.02099145 -0.017191831 -0.00042590618
-0.012367915 7.7054116e-05 0.032508306 -0.019064412 -0.00037079438 0.00044458068 -0.0005157522 -0.00022838038
-0.00012930483 -0.064462446 -0.00011501457 -0.019873472 0.000117000855 -0.048816424 -0.00025253813 0.00010531088
-0.0002585677 8.64606e-05 0.00018418633 -0.027567567 0.007935607 -0.00024093987 -0.00032581846 -6.800457e-05
0.016269416 -0.011487555 0.036127973 0.032866806 0.00048828527 0.00015643057 -0.03678384 -9.189351e-05
-5.8279977e-05 0.00027723296 0.000114730916 -0.017059552 -0.0338989 -0.0002533809 -0.00027562064 -0.00017512517
0.00017481214 -0.021091755 0.02802207 0.00038297803 0.00027402453 0.00056791486 -0.014393413 0.033760168
0.0012279709 -9.797594e-05 -0.012915031 -0.013649205 8.849401e-05 -3.2468302e-05 -0.023128433 0.012793471
0.0001974708 0.021967972 0.03516464 -0.001603515 -0.00014170766 7.725009e-05 -0.015547337 -0.013788865
0.00016429496 0.004916494 3.1941425e-05 -0.01720119 -0.026274323 -0.009616605 -0.004416071 -0.004922054
0.028584642 -8.2211176e-05 -0.0005346445 -0.018251555 -0.00015153491 -0.029355597 0.024115222 0.010465696
-8.2826315e-05 -0.0107951155 0.034758605 0.00016523061 0.0032299068 0.00038847557 -0.00039288087 0.0139488615
9.756544e-05 -0.00011725117 -0.009062528 -0.00026879017 -0.0005409289 0.000281126 0.00015448048 -9.084314e-05
0.028916847 0.0293809 0.0014460204 -0.014675776 0.01052893 -0.00020931511 -0.038558263 0.024095805
-5.4813474e-05 -0.015448887 -0.00036704377 0.030714896 -3.8854116e-05 -8.6430755e-06 0.014216511 -0.030359037
-0.02347446 -0.005976632 -3.538437e-05 -0.00017490837 -0.00020293449 0.039418783 0.0005758887 -0.00477809
-0.0001200529 0.005353892 0.008099776 -0.020403387 -0.017684476 -0.022507576 -0.010114386 6.481834e-05
0.00022175621 -0.013572955 0.00024881674 -0.007425459 0.014123346 -0.0161734 0.00031371377 0.00028462923
0.00020339957 -0.00036816866 -0.00031106174 -0.008749734 0.00027241552 -0.034256425 -6.361515e-05 -8.140753e-05
-0.00042769854 0.00019388075
00000000: 59f5 bdb9 47d8 d3b8 8942 10bc 8d1f fab9
00000010: 414a 9f3c 9c28 fc3b 4710 933c 7e20 84bb
00000020: 5f4a d139 c79a 95b9 e2da 1bbd 252f b33c
00000030: 1a89 2a39 55b0 41b9 70bc 2dbc fd93 143d
00000040: 45ed 9db9 7e32 2b3c 62ec a5b9 2d3c 10bd
00000050: 351a 4f3c df2c e03c f4ea e839 c603 29bd
00000060: a333 ebbc d3cb c839 c3bd deba 06e8 80bb
00000070: 91ed 173c 20a7 1b3d 4f81 91b9 f480 4f3c
00000080: 9088 983c 4bf5 0eb9 9d70 8339 ed82 a33b
00000090: af78 ec3c a2ec 03b9 f411 44bc e517 b139
000000a0: a843 923b c99d f03c 3528 8e39 e19b f6b8
000000b0: 874f e6bc 44c8 65bd 948f f1b8 06b8 24bd
000000c0: 6970 e538 627f 01ba 352d 9039 6600 e53c
000000d0: d1bf ecb8 c1bc 593c 2c4b 05b8 c8a1 2e39
000000e0: 7c77 37bc 86f8 4d39 294d 51bc 3f89 2abd
000000f0: da23 0a3d 6164 1cb9 5925 5bbc 4c27 8d3c
00000100: a444 e139 5c9f c83c 6ec0 d83c 8736 cb39
00000110: c734 06bd eaa6 a43c 5077 cb3c c4c6 103c
00000120: 4509 ce3b 3106 e6bb 691a 283a 232c d8bc
00000130: a7eb abbb 1081 85bb 59f8 e6bc a66e a93c
00000140: c59e 513b f1c7 08bd 2c43 b6b9 653f 21bc
00000150: 8bbf 563c 6128 bab8 09e9 5e3d abdb bd3c
00000160: 51a6 013d a4a3 e5bc 8638 9038 1fa7 95bc
00000170: c237 8039 565c 483b f395 233c 8087 11bd
00000180: 3fef 3fbc dd15 29bc a62a b53c abb2 f9bc
00000190: ea9c ae38 43f6 abbc e2d5 8cbc 294c dfb9
000001a0: cca2 4abc 1d98 a138 6e27 053d f82c 9cbc
000001b0: 2e67 c2b9 9c16 e939 8b33 07ba 6479 6fb9
000001c0: 0096 07b9 e304 84bd fa33 f1b8 b1cd a2bc
000001d0: 5b5e f538 bbf3 47bd 1867 84b9 59da dc38
000001e0: 5f90 87b9 2e52 b538 2422 4139 61d5 e1bc
000001f0: 5904 023c cea4 7cb9 9dd2 aab9 ad9d 8eb8
00000200: 7047 853c 4c36 3cbc edfa 133d 589f 063d
00000210: 4500 003a 8307 2439 a7aa 16bd f4b6 c0b8
00000220: a671 74b8 9459 9139 b19b f038 79c0 8bbc
00000230: 93d9 0abd 35d8 84b9 2d81 90b9 cea1 37b9
00000240: c74d 3739 9ec8 acbc 8a8e e53c 71ca c839
00000250: f3aa 8f39 1fe0 143a 5ad2 6bbc 1a48 0a3d
00000260: def3 a03a 6f78 cdb8 9199 53bc eaa0 5fbc
00000270: dc95 b938 932e 08b8 d777 bdbc b59b 513c
00000280: 2a10 4f39 2df6 b33c cc08 103d 092d d2ba
00000290: 5c97 14b9 5401 a238 42ba 7ebc b1ea 61bc
000002a0: 9846 2c39 8a1a a13b d8f8 0538 83e9 8cbc
000002b0: 403d d7bc f78e 1dbc b0b4 90bb 2e49 a1bb
000002c0: 572a ea3c ca68 acb8 6327 0cba 4984 95bc
000002d0: 58e5 1eb9 267b f0bc 498d c53c 5078 2b3c
000002e0: 0ab3 adb8 ffdd 30bc 0a5f 0e3d c141 2d39
000002f0: d8ac 533b 4fac cb39 94fb cdb9 c489 643c
00000300: 0c9c cc38 bee4 f5b8 ff7a 14bc 68ec 8cb9
00000310: 20cd 0dba 1864 9339 0afc 2139 0a83 beb8
00000320: 06e3 ec3c 37b0 f03c 6588 bd3a aa72 70bc
00000330: 8981 2c3c 997b 5bb9 45ef 1dbd 9164 c53c
00000340: 85e7 65b8 541d 7dbc c86f c0b9 ce9d fb3c
00000350: 4af7 22b8 ba01 11b7 5eec 683c 84b3 f8bc
00000360: 834d c0bc 9fd7 c3bb ae69 14b8 9c67 37b9
00000370: d0ca 54b9 9775 213d 3df7 163a 8691 9cbb
00000380: e9c4 fbb8 b46f af3b ecb4 043c 0125 a7bc
00000390: 09df 90bc cf61 b8bc cfb6 25bc 15ef 8738
000003a0: 3b87 6839 1961 5ebc 9e73 8239 4451 f3bb
000003b0: 9b65 673c 147e 84bc f379 a439 4a3a 9539
000003c0: a847 5539 c306 c1b9 0016 a3b9 0b5b 0fbc
000003d0: fed2 8e39 7750 0cbd 2069 85b8 56b9 aab8
000003e0: ba3c e0b9 784c 4b39
