MPSNN_PAM2_PAM4/model/modeltrained.pt (torch_old, 363223 bytes, 3 tensors)

complner.0.weight f4 [300, 300]
0.054620475 0.060022287 -0.03061074 -0.04476782 -0.045582205 0.035914004 0.016820243 0.026465178
-0.043382894 0.03558249 -0.054563783 -0.05022546 0.04233344 0.03993784 -0.00097599934 -0.037813693
0.035991102 0.012969718 -0.002841289 0.0076862415 0.046515103 -0.04029123 -0.028708637 -0.0063924035
0.063078746 0.024998823 -0.029066674 0.036816057 -0.01564614 0.005499387 0.056725077 -0.038308393
0.0138476845 -0.03535448 0.02122846 -0.0332752 0.04860684 -0.056766577 -0.005048418 0.031111531
-0.027517108 -0.010286298 0.025279349 -0.053567126 0.005688456 -0.0119952 0.01591408 -0.05316428
-0.04707321 -0.057916384 0.042044505 -0.045416623 0.0020110619 0.010268785 -0.053038716 0.046156146
-0.018802186 0.047686446 0.012526615 0.03371001 0.06973223 0.04133495 -0.025105283 0.032547887
0.07152466 0.009883405 -0.037464514 -0.034932088 0.05840703 0.045676406 0.053334635 0.05988474
0.038444795 0.028575448 0.056738846 0.034430318 0.056451656 0.044370927 -0.013420758 -0.033240687
0.06255979 0.051325414 -0.035356294 -0.015946953 0.033507492 0.017086418 0.05032047 -0.030799214
0.03481336 0.054480206 0.01257047 -0.042287964 0.018768111 0.020912198 0.04869306 0.036044855
0.055878717 -0.024876662 -0.04960543 -0.017112125 -0.04224528 0.042119473 0.008904622 0.033506986
0.037493054 0.018743375 -0.007354547 0.055478066 0.036474023 -0.031980358 0.026351951 -0.00879845
0.018105168 0.003631325 0.031761132 0.035313945 0.028213229 0.040954698 -0.026446907 0.015361204
-0.016245555 0.013043395 0.05863742 0.048501797 0.03100562 -0.023592254 -0.017314313 -0.02101611
0.055422302 0.075838394 0.0150188515 0.05274951 0.012413859 -0.015479583 0.011043604 0.07764271
-0.0043049254 0.006543454 0.08580803 0.09422419 0.015744932 -0.003981698 0.0553557 0.08375273
0.102028236 0.0035609864 0.021755066 0.07973525 0.039692666 0.028315874 0.082614034 0.02309072
0.02388662 0.027309233 -0.0013017497 0.045538593 -0.0016431736 0.019784184 -0.013364473 -0.024390014
-0.050625555 0.0038777306 -0.031297285 -0.06310099 -0.024450578 -0.04269772 0.033794478 -0.040359624
0.011909752 0.023102924 0.015263563 -0.0051975185 0.029137095 -0.002347947 0.026425892 -0.03964631
0.037012104 -0.06378365 0.014310425 -0.0012460116 -0.030171689 -0.028238986 0.03160082 0.03716091
-0.059747092 -0.016639521 -0.009151969 0.027886856 -0.025332186 0.016236387 -0.0473572 -0.058398064
-0.065406434 -0.0069487337 0.012495778 0.024799952 -0.015171718 0.018031063 -0.0543651 -0.017658597
-0.022821894 0.024625957 -0.0433173 0.018432973 -0.063059755 -0.021001264 -0.05572499 -0.02903314
-0.053743333 0.040014412 0.04650261 0.046961367 -0.033859447 -0.043694798 0.0098417215 0.014735607
-0.013063753 0.015849525 -0.052456584 0.04344811 -0.02324974 -0.038229853 -0.0132784005 -0.04092587
-0.04071374 0.042917557 -0.0008527173 0.053493876 0.046744026 0.014243034 0.0057243393 -0.051993366
0.04446256 -0.032040197 -0.0068676616 -0.026728654 -0.030214429 0.03638136 -0.022164116 0.005349589
-0.021813901 0.026482282 -0.040688578 0.037454404 0.011244886 0.011311508 -0.03580939 -0.005377932
-0.022509143 0.03200489 0.048504874 0.02722221 0.041397054 -0.02505279 0.011727104 -0.015100801
00000000: b8b9 5f3d eed9 753d 60c3 fabc 765e 37bd
00000010: 68b4 3abd 901a 133d 9bca 893c 80cd d83c
00000020: 43b2 31bd f2be 113d 467e 5fbd 36b9 4dbd
00000030: d465 2d3d dc95 233d 35da 7fba 88e2 1abd
00000040: 686b 133d f17e 543c eb34 3abb dedc fb3b
00000050: 9f86 3e3d 6b08 25bd 602e ebbc 5e77 d1bb
00000060: 6e2f 813d 55ca cc3c 3c1d eebc 6fcc 163d
00000070: 552c 80bc 3434 b43b 8e58 683d 43e9 1cbd
00000080: 66e1 623c dccf 10bd 4fe7 ad3c 934b 08bd
00000090: f717 473d 1284 68bd 336d a5bb 9cdd fe3c
000000a0: 8f6b e1bc dc87 28bc a316 cf3c 3469 5bbd
000000b0: 3a66 ba3b 8487 44bc 3f5e 823c cac2 59bd
000000c0: d7cf 40bd bb39 6dbd dc36 2c3d c806 3abd
000000d0: 05cc 033b 683e 283c 203f 59bd 3a0e 3d3d
000000e0: 0b07 9abc dd52 433d 6e3c 4d3c 8213 0a3d
000000f0: c5cf 8e3d d64e 293d 98a9 cdbc ef50 053d
00000100: 857b 923d 01ee 213c 6474 19bd f314 0fbd
00000110: 363c 6f3d 2f17 3b3d 6b75 5a3d b349 753d
00000120: 4a78 1d3d 0f17 ea3c fe66 683d ce06 0d3d
00000130: da39 673d 4abe 353d bde2 5bbc 6327 08bd
00000140: 591f 803d 993a 523d c3d1 10bd 2fa3 82bc
00000150: 273f 093d d1f8 8b3c d61c 4e3d a24e fcbc
00000160: 7498 0e3d a326 5f3d 5ff4 4d3c 2536 2dbd
00000170: 95bf 993c 0f50 ab3c 6072 473d c5a3 133d
00000180: 15e1 643d 24ca cbbc 102f 4bbd ba2e 8cbc
00000190: 6309 2dbd 7885 2c3d b1e4 113c 9f3e 093d
000001a0: 5192 193d b58b 993c 69fe f0bb f83c 633d
000001b0: c965 153d d6fd 02bd 0ce0 d73c 6027 10bc
000001c0: 4a51 943c 86fb 6d3b f617 023d 5ba5 103d
000001d0: 6e1f e73c 1dc0 273d 2fa7 d8bc 8fad 7b3c
000001e0: 6615 85bc f7b3 553c cb2d 703d d2a9 463d
000001f0: 7fff fd3c 8b44 c1bc bfd6 8dbc fa29 acbc
00000200: 7f02 633d 2951 9b3d a111 763c df0f 583d
00000210: 8063 4b3c 149e 7dbc 3cf0 343c 2403 9f3d
00000220: 5510 8dbb 786a d63b 1fbc af3d 9df8 c03d
00000230: 84fb 803c e778 82bb a9bc 623d 8d86 ab3d
00000240: 2ef4 d03d 705f 693b ae37 b23c 3c4c a33d
00000250: c794 223d b1f6 e73c 8c31 a93d c028 bd3c
00000260: dfad c33c 9db7 df3c 799f aaba ad86 3a3d
00000270: c25f d7ba 7112 a23c aaf6 5abc 91cd c7bc
00000280: be5c 4fbd 8621 7e3b 9531 00bd 183b 81bd
00000290: 944c c8bc cee3 2ebd 146c 0a3d 2250 25bd
000002a0: 1f21 433c 5842 bd3c 0614 7a3c f24f aabb
000002b0: ebb0 ee3c 04e0 19bb 1d7b d83c 2b64 22bd
000002c0: 019a 173d 01a1 82bd 4676 6a3c 3651 a3ba
000002d0: 9e2a f7bc 7255 e7bc dd6f 013d 0a36 183d
000002e0: 5eb9 74bd 9b4f 88bc 24f2 15bc fa72 e43c
000002f0: 7285 cfbc 2c02 853c a0f9 41bd cf32 6fbd
00000300: cff3 85bd 34b2 e3bb 17bb 4c3c 4529 cb3c
00000310: cc92 78bc e1b5 933c f0ad 5ebd c3a8 90bc
00000320: fbf4 babc 60bc c93c 7b6d 31bd bf00 973c
00000330: 7925 81bd d80a acbc e33f 64bd e8d6 edbc
00000340: f821 5cbd 27e6 233d 8579 3e3d 905a 403d
00000350: 34b0 0abd 51f9 32bd 2c3f 213c 9e6d 713c
00000360: 5a09 56bc ddd6 813c b7dc 56bd a5f6 313d
00000370: 3d76 bebc e896 1cbd a68d 59bc e3a1 27bd
00000380: 73c3 26bd 52ca 2f3d e488 5fba 651c 5b3d
00000390: aa76 3f3d 9d5b 693c 3d93 bb3b fff6 54bd
000003a0: 601e 363d 953c 03bd 1f0a e1bb 0df6 dabc
000003b0: 4084 f7bc 9f04 153d 8591 b5bc 9b4b af3b
000003c0: 11b3 b2bc 5ff1 d83c 11a9 26bd ca69 193d
000003d0: 783c 383c e753 393c deac 12bd 5d39 b0bb
000003e0: 1865 b8bc 8f17 033d 0cad 463d 1d01 df3c
000003f0: f58f 293d 823b cdbc 0a23 403c 5a69 77bc

complner.0.bias f4 [300]
0.070882276 0.051740803 0.041715283 0.044362515 -0.004571559 0.06510943 0.02488232 0.064210154
-7.575239e-05 0.007947688 -0.0038780565 0.040328033 -0.016199777 -0.04598987 0.046020832 -0.041447684
0.0049299453 -0.034443565 -0.038640633 0.016413162 -0.009631099 0.010523414 -0.05120072 -0.025711628
0.051533345 -0.06623575 -0.0651982 0.053850807 0.06216879 -0.004834699 -0.026176997 -0.061278302
-0.0689236 -0.019304322 0.024413519 0.0059892167 -0.07337995 0.057360757 -0.004804957 0.005151282
-0.018751755 -0.03547344 -0.069524854 0.0515844 0.048226308 0.04530029 0.0031779194 0.013708771
0.054173462 0.027853912 0.009492396 0.062093385 0.040113427 0.07487316 -0.0175004 -0.013183349
-0.0520558 -0.058839425 0.04938824 0.04003728 -0.05426589 0.028343314 0.022337835 0.015861187
-0.064270265 0.03105607 -0.004543002 0.073091984 0.061319828 -0.07422091 0.043033812 -0.031615335
0.06400046 -0.030869793 -0.0002754438 -0.008100164 -0.02253832 -0.047484864 -0.00883792 0.06462305
0.0088925585 0.041017864 -0.040760573 -0.032655075 0.048716415 -0.07722947 0.07455086 0.06908674
-0.013824366 -0.04637798 0.0009682811 0.046329428 -0.03671989 -0.056767795 0.03507871 0.055043947
-0.019844187 -0.072957836 0.014346443 0.060711082 -0.016938075 0.014182943 0.041556474 0.0337524
-0.023534512 -0.075947024 -0.019703489 0.046647396 -0.0320043 -0.04032602 -0.041487243 0.02930321
0.07819283 0.055007372 0.029182537 -0.06015069 -0.0029948398 0.001123621 -0.040172145 0.05558865
0.0075582694 -0.042374328 -0.07031013 0.019382913 0.034612834 0.049743887 0.036893874 -0.038311396
-0.038926646 -0.07289711 -0.011547986 -0.02350688 0.054401364 -0.0659963 0.014921851 0.066544734
0.06639221 0.07368173 0.054518074 0.04783829 -0.08479563 -0.012637557 0.05102811 -0.043781273
0.022291113 0.014847342 0.06771388 -0.012633702 0.032658394 -0.07292246 0.017855564 0.040215645
0.035199687 0.039655983 -0.04009901 0.0024632106 0.06573039 -0.04400472 0.022522124 -0.06270104
0.025892213 0.0060084388 0.0008199572 0.014600439 -0.05291835 0.017690027 0.049309563 0.013241534
-3.129239e-05 -0.07252276 -0.07437533 -0.04350846 -0.053338174 -0.038196523 0.044466276 0.022428878
0.008172615 -0.05867525 -0.06656345 0.07982088 -0.0014749571 -0.016228383 0.0064471783 0.08151847
0.028832842 -0.020896044 0.024138823 0.051584456 0.050766382 -0.069748506 -0.0756186 -0.01748523
0.04678421 0.0075170104 -0.009627958 0.08300047 0.060610566 -0.0530983 -0.06861339 -0.04831877
-0.008383203 -0.024536125 -0.03524716 0.001003333 0.03520193 0.02881914 -0.0679517 -0.022543143
0.015796497 0.06673962 0.040054914 -0.04806417 -0.03347552 -0.039211918 -0.04695488 0.05166566
-0.038056828 -0.064233705 0.017331623 -0.0580045 -0.06882579 -0.07583133 0.07259813 0.02048077
0.058020774 0.011658007 0.04221858 0.036385585 0.04347727 0.03330436 -0.042357583 -0.041640792
0.0071677123 0.020789267 -0.016883012 -0.05563478 -0.054834623 0.001855043 -0.028004007 0.009343868
0.022951627 0.07478434 -0.057907883 -0.064412646 -0.03162057 0.07543041 -0.07561874 -0.07282558
0.025576888 -0.034791723 -0.034344807 0.047140267 0.041384637 -0.038426857 0.043958973 -0.07512472
00000000: ba2a 913d 2aee 533d a5dd 2a3d 78b5 353d
00000010: 04cd 95bb 1858 853d 02d6 cb3c 9d80 833d
00000020: 41dd 9eb8 0537 023c fe26 7ebb 022f 253d
00000030: 65b5 84bc e05f 3cbd 5780 3c3d 0cc5 29bd
00000040: 618b a13b b214 0dbd a445 1ebd e574 863c
00000050: c2cb 1dbc 666a 2c3c d9b7 51bd 31a1 d2bc
00000060: a114 533d 9ca6 87bd a286 85bd aa92 5c3d
00000070: b3a4 7e3d 656c 9ebb 2471 d6bc f5fe 7abd
00000080: d127 8dbd 1924 9ebc dcfe c73c 3141 c43b
00000090: 3a48 96bd 1df3 6a3d e772 9dbb 16cc a83b
000000a0: 489d 99bc 994c 11bd 0c63 8ebd 2a4a 533d
000000b0: f388 453d cc8c 393d a444 503b c19a 603c
000000c0: fee4 5d3d e32d e43c ff85 1b3c a255 7e3d
000000d0: fa4d 243d 1957 993d 005d 8fbc f9fe 57bc
000000e0: 7638 55bd 9c01 71bd 534b 4a3d 22fe 233d
000000f0: e945 5ebd 3d30 e83c d6fd b63c 52ef 813c
00000100: 21a0 83bd 4d69 fe3c 77dd 94bb 40b1 953d
00000110: 802a 7b3d 2201 98bd 3944 303d 157f 01bd
00000120: ac12 833d a6e2 fcbc 7169 90b9 8db6 04bc
00000130: 48a2 b8bc 7d7f 42bd eccc 10bc 1759 843d
00000140: 18b2 113c 5902 283d 8ff4 26bd 54c1 05bd
00000150: dd8a 473d 7c2a 9ebd 1fae 983d 597d 8d3d
00000160: 987f 62bc d6f6 3dbd 3fd4 7d3a edc3 3d3d
00000170: 9867 16bd 5985 68bd b2ae 0f3d c375 613d
00000180: 4790 a2bc eb6a 95bd 580d 6b3c 2fac 783d
00000190: b8c1 8abc 935f 683c 1f37 2a3d f53f 0a3d
000001a0: 73cb c0bc 1d8a 9bbd 3669 a1bc 5711 3f3d
000001b0: f116 03bd e62c 25bd 87ee 29bd 490d f03c
000001c0: 9023 a03d 694f 613d 3710 ef3c 9260 76bd
000001d0: 1345 44bb 7746 933a 8c8b 24bd edb0 633d
000001e0: 5cab f73b b490 2dbd c2fe 8fbd eac8 9e3c
000001f0: 30c6 0d3d 3fc0 4b3d 081e 173d 69ec 1cbd
00000200: 8c71 1fbd 144b 95bd c433 3dbc 8091 c0bc
00000210: f7d3 5e3d 1129 87bd c87a 743c 9b48 883d
00000220: a4f8 873d 72e6 963d 584e 5f3d 15f2 433d
00000230: 55a9 adbd c20d 4fbc da02 513d fe53 33bd
00000240: da9b b63c 4442 733c 93ad 8a3d 96fd 4ebc
00000250: cfc4 053d 5f58 95bd d545 923c 29b9 243d
00000260: 8c2d 103d 506e 223d dc3e 24bd d16d 213b
00000270: a89d 863d 4b3e 34bd 5180 b83c 6769 80bd
00000280: e81b d43c 70e2 c43b 65f2 563a ae36 6f3c
00000290: e9c0 58bd adea 903c d3f8 493d 05f3 583c
000002a0: f33f 03b8 d086 94bd 1852 98bd ed35 32bd
000002b0: 2179 5abd f573 1cbd 4522 363d c4bc b73c
000002c0: 6fe6 053c 7555 70bd 6b52 88bd 2179 a33d
000002d0: 5953 c1ba 63f1 84bc da42 d33b 28f3 a63d
000002e0: da32 ec3c 2e2e abbc c8be c53c 394a 533d
000002f0: 69f0 4f3d 4ed8 8ebd eddd 9abd 2f3d 8fbc
00000300: cda0 3f3d 4151 f63b 95be 1dbc 27fc a93d
00000310: c942 783d 9a7d 59bd 2d85 8cbd e7e9 45bd
00000320: b459 09bc fcff c8bc 535f 10bd 4582 833a
00000330: e62f 103d 1e16 ec3c 432a 8bbd 66ac b8bc
00000340: a867 813c c8ae 883d 9f10 243d efde 44bd
00000350: a01d 09bd ad9c 20bd c353 40bd 5f9f 533d
00000360: 7ae1 1bbd f68c 83bd 0cfb 8d3c 2096 6dbd
00000370: 89f4 8cbd 754d 9bbd 54ae 943d 4ac7 a73c
00000380: 31a7 6d3d 3a01 3f3c 64ed 2c3d 0d09 153d
00000390: 3915 323d 276a 083d 257f 2dbd 898f 2abd
000003a0: 21df ea3b 414e aa3c 3e4e 8abc 4ce1 63bd
000003b0: 459a 60bd ea24 f33a a968 e5bc 0617 193c
000003c0: 0d05 bc3c 8828 993d d130 6dbd c7ea 83bd
000003d0: 9284 01bd 427b 9a3d ffdd 9abd 9425 95bd
000003e0: 9f86 d13c c481 0ebd 24ad 0cbd 2716 413d
000003f0: f082 293d 7b65 1dbd 530e 343d fdda 99bd

complner.2.weight f4 [1, 300]
0.04134074 -0.056759268 -0.051222615 0.045989785 -0.049824666 0.032108605 -0.05725412 -0.08158421
-0.041800976 0.038194876 -0.049380954 0.031142138 0.06565888 0.024016974 -0.027659273 0.04348769
0.078804314 0.051267054 -0.07497525 -0.06810547 0.06420281 -0.053770345 0.07980966 -0.03143525
0.057332236 0.0729833 -0.04816292 0.064403094 -0.046907485 -0.048964802 0.0763701 -0.07026645
-0.0360133 0.04012786 -0.06743195 -0.028641026 0.05354703 -0.026331378 0.081722386 -0.06795199
0.03657222 0.02040168 0.046548393 0.04629181 -0.058439028 -0.0324596 0.047758676 -0.039087385
-0.050639693 -0.07503297 0.06289322 0.065142326 0.063827075 -0.035032157 0.08530944 0.055011965
0.04176995 0.053785138 -0.057319347 -0.048822276 -0.04847768 0.01913442 0.06828773 0.049248822
0.021477045 -0.055794567 -0.051510863 -0.08020148 0.07649989 -0.07523638 -0.02991996 -0.062049653
0.066961125 0.033422142 0.039353862 -0.08195544 -0.040842034 0.033400007 -0.01770833 -0.033974685
-0.09189874 -0.027896771 0.06441181 -0.07402256 -0.07123879 0.049846265 0.02920706 -0.07561531
-0.065085046 0.058090504 0.0501905 0.054548897 0.06470106 0.051164564 -0.033691633 -0.02396636
0.03419046 0.053736452 -0.05334145 0.05530306 -0.06996345 0.053935245 0.049659073 0.06701543
0.024997354 -0.028488996 -0.056959208 -0.05430355 -0.06671497 -0.022091394 -0.057086162 0.045997657
-0.08066973 0.080512956 0.05187389 0.040610917 -0.07703898 0.044574395 0.05937741 -0.03070934
-0.07366592 0.05349713 -0.032944772 -0.08080475 -0.03366452 -0.08717531 0.05467799 -0.048254278
0.05045542 0.07412657 0.047957372 0.036815863 0.021125564 0.07334437 -0.033238318 -0.057374798
-0.077798165 -0.074252516 0.0840192 0.02369471 0.08487088 0.08142528 -0.06914666 -0.04421212
0.018851873 0.039126553 0.08757948 0.06858773 0.05444919 0.049092434 0.042227544 -0.025112027
-0.0287373 0.07958834 0.031749487 -0.027194243 0.059573688 0.06359554 0.06998654 0.014525305
-0.060141847 0.05540581 0.08736353 0.046547163 -0.035156768 0.08030895 -0.0765874 0.07454014
-0.050943516 -0.07025859 -0.0703259 0.059189368 -0.061440323 0.029155765 -0.027523085 0.034821205
0.068283185 0.04228434 0.07056531 -0.03253518 0.06764533 0.038175732 0.037502095 -0.051377393
-0.04192594 -0.0827101 -0.044624064 -0.034682974 0.07077001 0.031501394 0.08060506 -0.026363961
-0.067877755 -0.043437 -0.030877676 0.048970245 -0.049821556 -0.051064294 -0.041796725 0.068937376
0.077010825 0.052190423 0.07094551 0.02276291 0.044123318 -0.07829106 -0.055954326 0.030710991
-0.058360312 -0.079142146 0.07403291 0.07107219 0.042937465 -0.06469013 -0.07632487 -0.08841303
-0.072751336 0.066964716 0.08806453 0.06336662 0.07097247 -0.064833894 0.06353639 -0.055603717
-0.036587425 0.055095267 0.076069936 0.03633608 0.073183894 0.046051864 -0.047394726 -0.03864688
0.05086612 0.042019524 0.03329135 0.038306147 0.024967687 -0.08421409 -0.088747956 -0.051184576
-0.035434674 -0.057289675 0.041467626 -0.07569475 -0.057653345 0.043835506 0.03490534 -0.0742107
0.047868077 0.06069344 0.051533774 -0.03949331 0.065331705 -0.06614657 0.0509642 0.043058667
00000000: e854 293d 687c 68bd cece 51bd c95f 3c3d
00000010: f314 4cbd 5084 033d 4c83 6abd 9f15 a7bd
00000020: 8037 2bbd 3b72 1c3d af43 4abd cc1d ff3c
00000030: 2a78 863d 3fbf c43c b395 e2bc 2620 323d
00000040: 2864 a13d 67fd 513d a08c 99bd e17a 8bbd
00000050: c37c 833d 4b3e 5cbd 3f73 a33d 40c2 00bd
00000060: 35d5 6a3d 4578 953d 7b46 45bd c5e5 833d
00000070: 1022 40bd 518f 48bd ed67 9c3d dbe7 8fbd
00000080: af82 13bd 1c5d 243d c319 8abd 96a0 eabc
00000090: 2154 5b3d e7b4 d7bc 115e a73d 6a2a 8bbd
000000a0: c1cc 153d 6d21 a73c 87a9 3e3d 7b9c 3d3d
000000b0: c35d 6fbd 5cf4 04bd 9a9e 433d 181a 20bd
000000c0: 916b 4fbd e3aa 99bd 29ce 803d 5769 853d
000000d0: c5b7 823d e17d 0fbd b7b6 ae3d 3a54 613d
000000e0: f816 2b3d ce4d 5c3d b1c7 6abd def9 47bd
000000f0: 8890 46bd cabf 9c3c 70da 8b3d 22b9 493d
00000100: a1f0 af3c d888 64bd 0efd 52bd ac40 a4bd
00000110: f9ab 9c3d 8815 9abd b41a f5bc c727 7ebd
00000120: ea22 893d a8e5 083d 8431 213d 41d8 a7bd
00000130: fa49 27bd 72ce 083d 0f11 91bc 0a29 0bbd
00000140: 6835 bcbd c587 e4bc 57ea 833d 2499 97bd
00000150: a5e5 91bd 992b 4c3d a543 ef3c 33dc 9abd
00000160: 4f4b 85bd 4ff0 6d3d 8e94 4d3d aa6e 5f3d
00000170: fd81 843d ef91 513d 3d00 0abd 1a55 c4bc
00000180: 4c0b 0c3d c11a 5c3d 907c 5abd 7685 623d
00000190: ff48 8fbd 34eb 5c3d 5067 4b3d 633f 893d
000001a0: 40c7 cc3c c161 e9bc 0f4e 69bd 666d 5ebd
000001b0: dca1 88bd 03f9 b4bc 2ed3 69bd 0a68 3c3d
000001c0: 2c36 a5bd fae3 a43d b779 543d a257 263d
000001d0: 9dc6 9dbd a493 363d ba35 733d 2792 fbbc
000001e0: 28de 96bd ce1f 5b3d 19f1 06bd f67c a5bd
000001f0: cfe3 09bd f888 b2bd 07f6 5f3d 47a6 45bd
00000200: 58aa 4e3d accf 973d f36e 443d 3bcc 163d
00000210: 850f ad3c 9335 963d e724 08bd d601 6bbd
00000220: a554 9fbd b411 98bd 4212 ac3d 691b c23c
00000230: c9d0 ad3d 4cc2 a63d c49c 8dbd c517 35bd
00000240: 3e6f 9a3c 2a43 203d df5c b33d b977 8c3d
00000250: 1d06 5f3d 2615 493d caf6 2c3d bdb7 cdbc
00000260: 7c6a ebbc 36ff a23d c00b 023d 76c6 debc
00000270: 8a03 743d 613e 823d 1a55 8f3d 8bfb 6d3c
00000280: 4c57 76bd 34f1 623d a7eb b23d 3da8 3e3d
00000290: 8b00 10bd 0579 a43d dbd9 9cbd 80a8 983d
000002a0: 26aa 50bd bce3 8fbd 0707 90bd 8d70 723d
000002b0: d9a8 7bbd 12d8 ee3c 1878 e1bc aea0 0e3d
000002c0: 0ed8 8b3d 5832 2d3d 8c84 903d 9c43 05bd
000002d0: a389 8a3d 285e 1c3d cc9b 193d 1a71 52bd
000002e0: 89ba 2bbd ea63 a9bd b9c7 36bd bc0f 0ebd
000002f0: deef 903d 9b07 013d 4414 a53d 3cf9 d7bc
00000300: 7e03 8bbd ffea 31bd 2ef3 fcbc 0695 483d
00000310: b011 4cbd cb28 51bd 0b33 2bbd 0a2f 8d3d
00000320: dab7 9d3d a0c5 553d e14b 913d 4879 ba3c
00000330: a7ba 343d 1057 a0bd 5d30 65bd 9e95 fb3c
00000340: 390b 6fbd 4715 a2bd 919e 973d 4c8e 913d
00000350: 32df 2f3d 427c 84bd 3750 9cbd e411 b5bd
00000360: a7fe 94bd cc24 893d 2d5b b43d 5cc6 813d
00000370: 045a 913d a2c7 84bd 5e1f 823d b9c0 63bd
00000380: b2dc 15bd 93ab 613d 8eca 9b3d 24d5 143d
00000390: 70e1 953d e1a0 3c3d f920 42bd 314c 1ebd
000003a0: fe58 503d aa1c 2c3d 835c 083d e8e6 1c3d
000003b0: 0989 cc3c 7078 acbd 7dc1 b5bd eba6 51bd
000003c0: f323 11bd 94a8 6abd f5d9 293d d905 9bbd
000003d0: ea25 6cbd dc8c 333d e7f8 0e3d c8fb 97bd
000003e0: 5111 443d af99 783d 1415 533d bdc3 21bd
000003f0: a1cc 853d da77 87bd d6bf 503d 495e 303d
