MPSNN_PAM2_PAM4/model/modeltrained_savetc300_50_1.pt (torch_old, 363223 bytes, 3 tensors)

complner.0.weight f4 [300, 300]
000000 2e 28 94 bc 61 83 40 3d bd d6 5c 3d 65 70 6b bc
       -0.018085565 0.047000293 0.053915728 -0.014370059
000010 a9 9f 29 bd f6 52 55 3d a8 f5 15 bc 20 32 33 3b
       -0.04141203 0.05208107 -0.009152807 0.002734311
000020 47 7a 1b 3c 40 6d 60 3c d8 38 dc 3c e1 ed 34 bd
       0.009489602 0.013697922 0.026882574 -0.04417217
000030 3a c3 0a 3d 11 62 0b bd ea 9b 4f 3d 7f 4e 96 bc
       0.03387759 -0.03402907 0.0506858 -0.018347977
000040 e8 25 57 bc ca 40 c8 bc 26 2a 4d bc ae aa dd bc
       -0.013131596 -0.024444956 -0.012522256 -0.027058925
000050 26 4b 03 bd 72 0a 35 bb 20 35 88 bc 3f c6 12 3d
       -0.03205409 -0.0027624634 -0.016626894 0.035833593
000060 59 d6 86 bc 95 70 28 bd e9 4d 36 bd ba 4d e2 bc
       -0.01645963 -0.04112299 -0.044507895 -0.027624954
000070 2c 35 9b bc c8 01 5d 3d 86 be f5 3c 5b e4 d0 3b
       -0.018946253 0.053956777 0.029998075 0.0063748783
000080 d1 b9 bb 3b 0a 80 49 bd 36 64 31 bd 29 33 c9 bc
       0.005728938 -0.049194373 -0.04330846 -0.024560528
000090 1f 2b 5c 3d 1b d9 39 3c cf 96 24 3d 32 be 24 bd
       0.05375206 0.011343266 0.040182885 -0.040220447
0000a0 82 97 18 bc 91 6a a6 bc d3 fb 74 3a e8 7d 28 3d
       -0.009313466 -0.020314487 0.0009345386 0.0411357
0000b0 d1 33 03 3d 38 69 66 bd d7 14 f0 3b d8 5a 47 bd
       0.032031838 -0.05625269 0.007326703 -0.04867062
0000c0 9d f6 3c 3d 94 2f f8 3c 6c de 1d bd ad 77 44 bd
       0.046133626 0.030296125 -0.038542196 -0.047965694
0000d0 1f 06 8d bc 03 31 1f bc a2 5c 7e 3a ff 67 d6 3b
       -0.017214833 -0.009716275 0.00097031344 0.006543159
0000e0 f4 70 3b bd ae 1e 47 3b cc 49 b1 3c 3b b9 15 bc
       -0.045762017 0.0030383277 0.021641634 -0.009138401
0000f0 0c a6 51 bd 3c c0 e9 bb 70 85 1c 3d da 1f 59 bd
       -0.051183745 -0.007133512 0.038213193 -0.05300889
000100 9a 33 ae ba 11 7a 35 3d c6 0a 15 3d 76 e4 18 bd
       -0.0013290525 0.044305865 0.036387227 -0.037327252
000110 42 a8 3a 3d ec bb 01 bd 18 a7 de 3c a6 5d 36 bd
       0.04557062 -0.031673357 0.027179286 -0.044522904
000120 99 4d 0f 3d 09 41 07 3d 86 cf 00 bd 7c ee 40 3d
       0.034986112 0.033021007 -0.03144791 0.047102436
000130 6b 8c 59 bd 66 66 f1 bc 13 db 04 bd bc 66 33 bd
       -0.05311243 -0.029467773 -0.032435488 -0.043799147
000140 e7 ee 08 bd 20 ce ba 3c 5a 06 28 3d 00 92 30 bd
       -0.03343096 0.022803366 0.041021682 -0.043107986
000150 7e 15 4a bd 50 cf 49 bd b2 6d ff bc a2 30 2e 3d
       -0.049336903 -0.049269974 -0.031180236 0.04252685
000160 5e 53 0e bd ac 70 09 3d 2b 83 a1 bb 4b f4 02 3c
       -0.034747474 0.033554718 -0.0049289665 0.007992814
000170 92 b1 3d 3d ec 83 53 3d e2 c6 58 bd 6a af ff 3c
       0.046311922 0.051639482 -0.052924044 0.031211574
000180 c7 26 11 3d 31 5e 64 bc 94 7c 9b bc 69 fa e6 3c
       0.03543737 -0.013938473 -0.018980302 0.028195577
000190 ff 7e df bc b6 f7 07 3d 90 a9 25 3d 01 54 06 bd
       -0.027282236 0.03319522 0.04044491 -0.032794956
0001a0 0c 7e 3f bd d9 30 44 bd 50 d8 92 3c 62 f0 f4 bc
       -0.046751067 -0.047898147 0.017925411 -0.02989978
0001b0 c4 17 79 3c 14 77 38 bd ba 81 34 3d 5f 44 63 3d
       0.01520342 -0.045035437 0.04406903 0.055485126
0001c0 77 d3 20 bc 13 a8 d3 bb 1e be 36 bd 65 18 4d bd
       -0.009816042 -0.006459245 -0.044614904 -0.050072093
0001d0 dd e3 99 3c 62 97 79 3b 98 ce 83 3a 18 4a e7 bc
       0.018785411 0.0038084616 0.0010056077 -0.028233573
0001e0 96 59 6d 3d aa 0e 9e 3c d2 cc 0b 3d 20 b3 cd 3c
       0.057946764 0.019294102 0.03413088 0.025109828
0001f0 e6 48 f2 3c 5e 08 95 bc f8 2f dc 3c fd ad 27 bc
       0.029575776 -0.018192466 0.026878342 -0.010234353
000200 c4 03 32 3d 10 5a 4a 3d f5 11 13 3d 7b 11 46 3a
       0.043460622 0.049402297 0.035905797 0.00075557054
000210 f1 0f cd bc 4e d0 a1 3c df 53 13 bd cf 96 80 3c
       -0.025032016 0.019752648 -0.035968658 0.015696911
000220 7e 92 32 3c b5 15 33 bd 42 c7 df 3c 23 39 24 3d
       0.010899184 -0.043721873 0.027316693 0.040093552
000230 49 f4 4a 3d 32 91 f7 3c 8f aa 17 3d ed 6e 69 3c
       0.049549375 0.030220602 0.03702789 0.014247638
000240 b9 67 0c bd ac 30 83 bc b9 4f 03 3c ea 61 6f bc
       -0.034278605 -0.01601442 0.008014613 -0.014610747
000250 50 b3 1b bd 3f c3 ed 3b bf c6 79 bd bc 14 94 bc
       -0.038012803 0.007255941 -0.060980555 -0.018076293
000260 3c 28 0c 3d d5 f4 54 bd c5 83 a8 3b 12 d7 1f 3d
       0.034218058 -0.051991303 0.0051426613 0.039023466
000270 79 dc db 3c d7 50 4e bd 7d 48 05 3d ac 75 9c 3c
       0.026838528 -0.050370064 0.032539833 0.01909908
000280 69 27 28 3d 92 2b f9 bc 68 ac d2 bc 1a 3e c0 bb
       0.04105321 -0.030416284 -0.025716975 -0.005866778
000290 6f e7 3d 3d 84 07 f0 3c c9 2d 3e 3c e2 75 89 bc
       0.04636329 0.029300459 0.011607596 -0.016779844
0002a0 1c 92 d2 bc e0 6d 35 bd 30 01 14 bd 21 b4 0d 3d
       -0.025704436 -0.044294238 -0.036133945 0.034595612
0002b0 f4 2b 01 bc 86 b2 19 3d a9 10 d5 bb 4d 9b 61 3d
       -0.007884014 0.03752377 -0.00650223 0.055079747
0002c0 a5 9e ce 3b 42 ef 9a bb ba 68 07 3d 0e 4b 25 bd
       0.006305533 -0.004728229 0.03305886 -0.04035478
0002d0 4d 53 45 3d 03 13 2f 3d e2 fa e3 3c 49 c8 33 3c
       0.048175145 0.04274274 0.027829591 0.010973045
0002e0 d8 ea d9 bc d1 c9 19 bd e5 ed 0c bc 02 9d 87 bc
       -0.02660124 -0.037545983 -0.00860164 -0.01655436
0002f0 db 71 3f bd 2f 66 5c bd d8 fe 69 3c 8b 6d 45 bd
       -0.04673944 -0.053808387 0.014281951 -0.04820017
000300 5b 33 3d 3d 28 39 57 3b 47 66 65 bd 5d b1 45 bd
       0.046191555 0.0032840464 -0.056005742 -0.04826485
000310 61 dd a1 3c 3e 33 2f bd 84 65 53 3d b9 10 89 bb
       0.019758882 -0.042773478 0.051610485 -0.0041829017
000320 62 16 32 3d f4 8c 03 3d 48 bf 4a bd ad e4 13 bd
       0.043478377 0.032116845 -0.049498826 -0.036106754
000330 f2 d2 69 bc 29 aa cd 3c a8 e4 9e 3c cb 8e 73 3c
       -0.014271485 0.025105553 0.019396141 0.014865587
000340 dd 03 0a bd b1 72 77 3b 6f ee 89 3c 46 b6 b6 bc
       -0.03369509 0.003775757 0.016837327 -0.022303712
000350 3d d1 cf 3b f6 f4 40 3d 08 b3 35 bd 61 cd 65 bd
       0.006342082 0.047108613 -0.04436019 -0.056104068
000360 33 31 55 3d c1 c1 61 3c 10 f7 5a 3d 25 ac 80 3c
       0.052048873 0.013779105 0.053458273 0.015707085
000370 ab d2 70 3c 2c ef 7a 3a e7 10 3b bd 6a ec 58 3d
       0.014698665 0.00095723826 -0.045670416 0.052959837
000380 f7 15 fe 3c e7 ca ae bb 92 cb a1 3c fa 0b b0 3c
       0.031016333 -0.0053342464 0.01975039 0.021490086
000390 3d d2 bb bc c8 12 5a 3d ec 28 b9 3b d3 ac 21 3d
       -0.022927398 0.053240567 0.00565063 0.03947146
0003a0 c5 e1 4c 3d 18 c4 3e 3c 54 ac 9f 3c 5e 85 f3 3b
       0.050019998 0.011643432 0.019491352 0.00743167
0003b0 48 bd 8c bc a9 cc 37 3b 83 9d 6c bc f0 51 3e 3d
       -0.0171801 0.002804557 -0.014441851 0.04646486
0003c0 96 58 4f 3d 2b 02 4c bd 47 ad 6e bb 0e 72 0f 3d
       0.05062159 -0.049806755 -0.00364192 0.03502088
0003d0 52 5e 01 bd 54 5b 17 bb 42 9c 55 bd 5a 6a a1 bc
       -0.03158409 -0.0023095207 -0.052150972 -0.019704033
0003e0 1d 77 58 3d ac 57 68 bd fe 40 0a 3d ab f0 68 3d
       0.05284797 -0.056724235 0.033753388 0.056870144
0003f0 c9 94 13 bc f8 09 d5 bc 9f 2b aa 3a 06 b7 4b bd
       -0.009007641 -0.02600573 0.0012982971 -0.04973509

complner.0.bias f4 [300]
000000 73 72 05 3c 63 f2 8f 3c ec c6 11 3d 24 76 86 3c
       0.008144963 0.017571634 0.035590097 0.016413756
000010 ce 55 3c bd f2 f1 08 3b 3b 40 aa b9 03 59 b6 3c
       -0.045980267 0.0020896164 -0.00032472782 0.022259241
000020 bc 9b 28 bd 9a c0 37 bc 10 b4 40 bc cf 8e 36 3d
       -0.041164145 -0.011215353 -0.01176168 0.044569787
000030 c0 42 55 bd e2 1f 07 bd ac 9f e7 bc 2d c2 c4 3c
       -0.05206561 -0.03298939 -0.02827438 0.024018371
000040 73 6a 1b bc ea b2 2f bd d4 1b b9 bb 40 85 a0 bc
       -0.009485829 -0.042895235 -0.0056490693 -0.019594789
000050 18 3b c1 3b 00 59 9d 3c 20 68 64 bd 5d 5a e0 bc
       0.005896937 0.019207478 -0.055763364 -0.027386839
000060 ab b3 5f bd 3a 40 66 bd 65 70 ad bc 71 b5 8e 3c
       -0.054614704 -0.056213595 -0.021171758 0.017420502
000070 9e ad a0 3b 17 36 05 3d 59 26 e0 3c 4c 0e 00 bd
       0.0049035093 0.032522287 0.027362036 -0.031263635
000080 cb 0e 88 3c f3 09 35 3d af 7b 48 3c a8 0a 21 bd
       0.016608616 0.04419894 0.01223652 -0.039316803
000090 fa 58 e2 bc a0 64 4e bd 1b 15 55 bd 1d 78 e0 bc
       -0.027630318 -0.050388932 -0.05202208 -0.027401024
0000a0 e8 a4 51 bd 05 2f c9 bb 99 32 de bc d9 6b e3 bb
       -0.051182657 -0.0061396384 -0.027123736 -0.0069403467
0000b0 19 ca 15 bd 93 63 51 bd 7d a4 30 3d 4a 04 27 3d
       -0.03656969 -0.051120352 0.04312562 0.040775575
0000c0 7b f1 94 bc 22 04 d3 bc 06 2f 69 bd ad 1e 66 3d
       -0.018181553 -0.025758807 -0.05692961 0.0561816
0000d0 93 a0 84 bc e3 c0 fc 3c 75 1b a4 bb 96 5a 54 bd
       -0.016189849 0.030853694 -0.005008156 -0.051844202
0000e0 62 19 0f 3d 91 a1 53 3d bc 75 61 bd 1e 75 ac bb
       0.034936316 0.051667754 -0.05504392 -0.005262985
0000f0 d1 c9 01 bd e9 ef 82 bc a6 3c dd bc d7 da 22 3c
       -0.031686608 -0.015983539 -0.027006458 0.009939871
000100 7e 0f 19 bd 6c 60 08 bd ee a5 0a 3d a2 5c 22 bd
       -0.03736829 -0.03329508 0.03384965 -0.039639123
000110 cb 2c 21 3d 86 a8 d4 3c 29 75 11 3d 9d 13 65 3d
       0.03934936 0.025959264 0.035512123 0.055926908
000120 99 60 50 bd 32 c6 e6 bc 55 a4 ea bb 06 08 01 bd
       -0.050873373 -0.028170679 -0.007160703 -0.031501792
000130 1b 9e 1c 3b 02 b9 c2 3c ab 91 0e bd ef 30 5a 3d
       0.002389795 0.02376986 -0.03480689 0.053269323
000140 55 bd 85 bc c1 44 12 bd de a9 55 bd 5c 2b 71 bd
       -0.016325632 -0.0357101 -0.05216395 -0.05887924
000150 fc eb f6 bc 6d 98 70 3d 14 84 a5 3c da ab 4e bd
       -0.030141823 0.058739115 0.020204581 -0.05045686
000160 2e 8c 36 3c 7c 39 27 bd 22 90 16 bc 99 01 d3 bc
       0.01114182 -0.040826306 -0.009189637 -0.025757598
000170 23 73 d2 3c 28 9b ac ba 25 88 99 bb 97 74 88 bb
       0.025689667 -0.0013168799 -0.004685419 -0.004164289
000180 af ce 28 3d f5 6c 8e 3c a0 90 27 3c 48 95 51 3d
       0.041212734 0.01738594 0.010227352 0.051167756
000190 30 52 50 bd 7e e9 40 bd 90 59 5e bd b0 e6 0e 3d
       -0.05085963 -0.047097676 -0.054284632 0.03488797
0001a0 d1 78 15 bd b6 16 43 3d 4c 45 21 bc 9e 67 2a bc
       -0.036492173 0.04762908 -0.009843182 -0.010400681
0001b0 ec 3a 35 3d f7 60 e9 bc 81 ce 1b 3c b4 21 17 3d
       0.044245645 -0.02848862 0.009509684 0.036897376
0001c0 f1 ee 30 bc 94 be d7 3c 90 16 2d 3d 5f 1d 90 bc
       -0.010799156 0.026335992 0.042257845 -0.01759213
0001d0 5b 98 6d bd 87 2e 09 bd 1b e7 57 3d cc d8 eb 3b
       -0.058006626 -0.033491638 0.052710634 0.007197475
0001e0 01 52 05 bd a8 d4 01 bd 1b 13 70 bc 4b 59 9e 3b
       -0.03254891 -0.031696945 -0.014652993 0.004832422
0001f0 4d b9 e4 bc 98 ea 32 3c a5 df b6 3c 0c 5b ec bc
       -0.02792039 0.010920189 0.022323439 -0.028852008
000200 ca 26 a3 bb 56 f8 08 bc 1e 2e 11 bd 02 b0 94 3b
       -0.0049789893 -0.008359989 -0.03544437 0.0045375833
000210 91 6b 89 bc cc 66 0b bc 08 22 4e bd e5 7f b2 ba
       -0.016774924 -0.008508395 -0.050325423 -0.0013618438
000220 82 46 5d 3d 81 03 bb bc 0f 57 22 bd 3b 7d 41 bd
       0.05402232 -0.02282882 -0.039633807 -0.04723857
000230 99 37 68 3c cd a6 29 3d e7 52 ae 3c 27 20 8b bc
       0.014173412 0.04141884 0.021279765 -0.016983105
000240 a4 ea 4c 3d ea c2 4d bc e2 17 60 3d 35 2c bb 3b
       0.05002846 -0.012558678 0.054710276 0.005712057
000250 03 c8 0e 3c be a9 1b bd 3f 10 60 bd 8b 58 5b 3b
       0.008714679 -0.038003676 -0.054702993 0.0033469524
000260 8d 2e e5 bc eb 21 17 bd e3 73 40 bd ae 5a 14 bd
       -0.027976299 -0.03689758 -0.04698552 -0.03621929
000270 0c cd f8 3b c3 55 25 bd 4c 5b 5f bc 12 99 2e 3d
       0.007592803 -0.040364992 -0.013632607 0.042626448
000280 d2 b5 68 bd a0 3b 1d 3d e6 57 c3 bc fe 6e 12 bd
       -0.056814022 0.03838694 -0.023845624 -0.03575038
000290 75 b8 24 3d fc 63 98 bc d2 58 cc bc 29 60 ab 3c
       0.040214974 -0.018602364 -0.024944697 0.020919876
0002a0 c3 a9 d7 bb aa 58 3f 3d fc 24 52 3d 6c 8d 20 bd
       -0.0065815165 0.046715416 0.051304802 -0.03919737
0002b0 e1 4f ed 3b 1d 93 f8 bc 27 b0 22 3d aa 6e ab bc
       0.0072421883 -0.030343587 0.039718773 -0.020926792
0002c0 a6 2e b7 bc e9 bb 2d 3c 85 4f 26 3d dc bc 12 bd
       -0.02236111 0.010603883 0.04060318 -0.03582464
0002d0 cc 38 13 3d f5 68 98 3c 02 c5 9a bc c9 4a f3 bb
       0.035942838 0.018604735 -0.018892769 -0.0074246866
0002e0 1c e7 01 bd 18 81 19 bd c1 96 5c 3c e2 83 03 3d
       -0.031714544 -0.03747663 0.013463677 0.032108195
0002f0 8b a9 05 ba a1 3e 09 bd 16 60 15 3d 5a 0b 98 3c
       -0.0005098811 -0.033506993 0.036468588 0.0185601
000300 84 4f 7d 3c 18 6d c4 b9 9d 74 fd bc 58 e9 08 3d
       0.0154608525 -0.00037465314 -0.030939395 0.03342566
000310 2b 03 39 3c 7d a6 40 bd 2f 62 c0 bc e0 9c 07 bd
       0.011292259 -0.047033776 -0.023484318 -0.033108592
000320 59 02 06 3d 8e 5b 1d bd 6d 55 59 bd 05 45 2b bd
       0.032717083 -0.03841739 -0.053059984 -0.04181387
000330 e7 0f a7 3c 9d 18 0b 3d 04 aa 72 bc e6 bb 33 bd
       0.020393325 0.03395902 -0.014811043 -0.043880366
000340 20 64 3f bd 03 c4 51 3d 97 f7 e6 bc bc 37 b0 bc
       -0.046726346 0.051212322 -0.028194232 -0.021510951
000350 82 17 0c bc b8 a5 a8 ba 91 1d 5f bd 01 8f 03 bd
       -0.008550527 -0.0012866771 -0.054471556 -0.0321188
000360 0a 91 57 bd a2 a6 27 3d 6a 6a 3e 3d 87 09 28 bd
       -0.052628554 0.040930398 0.046488203 -0.04102471
000370 53 ac 70 3d 24 96 38 3d c3 52 3a 3d 55 fe 1f 3d
       0.05875809 0.04506506 0.045489084 0.03906091
000380 93 84 29 3d e7 f6 4d 3d db 38 b0 3c 46 fb 42 bc
       0.0413862 0.050284293 0.021511486 -0.011900729
000390 b1 a3 7e 3c de 9f 18 bd 3e 2e 2b 3d 28 8c a6 3c
       0.015541957 -0.037261836 0.041792147 0.020330504
0003a0 14 0c 0d bd 44 2f ee bb 44 b1 11 bd d1 28 ed bb
       -0.034435347 -0.007268818 -0.035569444 -0.0072375317
0003b0 4e df 10 3c d7 54 d5 3c c1 eb a6 3c d6 13 07 bd
       0.0088423025 0.026041431 0.020376088 -0.0329779
0003c0 01 a5 45 3d 99 6d 9b bb f4 1c 26 3d 3c 8c 06 bd
       0.048253063 -0.0047432897 0.040554956 -0.03284858
0003d0 0d 0a 10 bd 8f af e4 3c ee b4 1d bd 4b 72 a4 bc
       -0.035165835 0.027915744 -0.038502626 -0.02007403
0003e0 e2 d0 9d 3c f5 5c 4b bd fb 4b d7 bc d0 4b bd 3c
       0.019264642 -0.049649198 -0.026281347 0.02310744
0003f0 5a a7 25 bd db 50 9c 3b 6f c6 43 bc f7 70 dc bb
       -0.040442802 0.004770381 -0.011949166 -0.0067273336

complner.2.weight f4 [1, 300]
000000 7c bf 1a bc 2a a5 45 3d 1d aa fe bc 19 77 2a bd
       -0.0094450675 0.048253216 -0.031086976 -0.041617487
000010 8b 72 09 3d 06 5c 5a 3c 35 a8 50 3d 14 1e da bb
       0.033556502 0.013327604 0.050941665 -0.0066564176
000020 01 ff f0 bc 23 62 1d bd 57 34 84 bc 9e f2 83 3c
       -0.02941847 -0.03842367 -0.016138239 0.0161069
000030 f7 66 a0 bc 39 f3 43 bd a8 12 54 3d ec 82 0e 3d
       -0.019580347 -0.047839377 0.051775604 0.034792826
000040 73 bd 11 3d 03 eb 09 bd e3 06 1d 3d 95 c3 45 3d
       0.035581063 -0.03367139 0.038336646 0.048282225
000050 d0 b9 ad bc c4 2d 43 ba 4b 8f 4f bd 99 54 08 3d
       -0.021206766 -0.0007445479 -0.050673764 0.033283804
000060 4e 3f 82 ba 55 ed 32 bd ea a6 0e 3d 88 1f 72 bd
       -0.0009937079 -0.04368337 0.03482715 -0.0591121
000070 9c bf 21 bc f2 d6 30 bc 27 76 a7 bc cb 74 97 bc
       -0.009872343 -0.010793434 -0.020442082 -0.018488308
000080 aa 5c 47 3d bd 1f fc bc fe 2d f8 bb d6 85 84 bc
       0.048672356 -0.030776853 -0.007573842 -0.0161771
000090 21 29 3f bd 5f b3 4d 3c 30 06 57 3d 1e 6a 03 bb
       -0.046670083 0.012554972 0.052496135 -0.0020052264
0000a0 bc 79 45 3d 24 b6 73 bd 06 03 ff 3a d4 37 de bc
       0.048211798 -0.059499875 0.0019455857 -0.02712623
0000b0 b4 42 05 3d e6 10 69 bc 51 6b 5f 3d a7 6a 20 3d
       0.032534316 -0.01422522 0.054545704 0.03916421
0000c0 40 fa 7a 3c f6 1a bc bc 6a 56 15 3c 77 e5 ea bc
       0.015318453 -0.022962075 0.009114841 -0.02867387
0000d0 51 96 67 3d f9 22 3f 3d 2f 3e c0 bb 96 25 60 3d
       0.056539837 0.046664212 -0.005866788 0.054723345
0000e0 36 19 16 bd 82 91 1f bd a3 63 65 bd 2e 7e 61 bd
       -0.036645137 -0.038957126 -0.056003224 -0.055051975
0000f0 17 bd 9c bc 4e 3b 1d 3d 44 65 70 bd 83 7c 52 3c
       -0.019133134 0.038386635 -0.058690324 0.012847069
000100 6c fa dd 3c 31 e3 25 bd 8c be 27 bd 1f 0e be bc
       0.02709695 -0.04049987 -0.040953204 -0.023200093
000110 e1 b2 90 bb ad 48 2e 3c 6c ab 0b 3d 21 55 eb 3a
       -0.0044158553 0.010637444 0.034099028 0.0017954448
000120 32 40 ec 3b 44 4e 3a bc c4 5a de 3c b0 97 43 bd
       0.007209801 -0.011371199 0.02714289 -0.047752082
000130 7e 61 41 3d b3 aa 8b bb 50 21 08 3d 9e 60 40 bc
       0.047212116 -0.0042622923 0.033234894 -0.011741785
000140 93 7e 4a 3d 99 85 e7 bb 2b 73 b1 bc 9f f6 54 3d
       0.049437117 -0.0070654866 -0.021661362 0.05199301
000150 ea 70 4d bd 8a 71 42 bd e6 77 b7 bc 4a 35 15 bd
       -0.05015651 -0.04747156 -0.02239604 -0.036427774
000160 ff 14 23 bd 26 dc 2f 3d 43 8b 17 3d 16 3a 62 bd
       -0.039814945 0.04293456 0.036998045 -0.055231176
000170 2f 62 60 bd da ee 21 bd 94 6b d7 bc 7a 6d 7a 3d
       -0.054781135 -0.039534427 -0.026296414 0.06113956
000180 5a 95 3e 3d 74 98 60 bd 96 bb 07 bc 02 2f 06 3d
       0.04652915 -0.05483289 -0.00828447 0.032759674
000190 10 ba 83 bc ba 18 95 3b 7b 1f 64 3d f8 a9 06 3c
       -0.016079932 0.004550067 0.055694085 0.008219235
0001a0 b7 20 25 bd 86 f1 36 3c bc d7 29 3d c1 2e 2e 3d
       -0.040314402 0.011165982 0.041465506 0.042525057
0001b0 f7 ba 57 3d 0c 7d 71 bc 58 77 75 bd 0e bd 86 3c
       0.052668538 -0.014739286 -0.05992827 0.01644757
0001c0 2c 10 6f bd d8 af 67 bb a9 f4 2f 3d 60 66 ba 3c
       -0.058365032 -0.0035352614 0.042957935 0.022753894
0001d0 d7 53 2b 3d c1 33 9a 3c 4f 82 6a bd a3 98 6d bd
       0.041828003 0.018823506 -0.05725318 -0.058006894
0001e0 01 4b b1 bc c8 33 b9 3c b1 3f 62 bd 46 6e 2a bd
       -0.02164221 0.022607699 -0.055236522 -0.04160907
0001f0 72 79 8a bc 10 54 69 3d f2 6a 58 ba 06 9a 18 bd
       -0.016903613 0.056964934 -0.0008255682 -0.037256263
000200 2e ac 32 3c 03 3a 29 bd c6 45 95 bc 39 e8 62 bb
       0.010905309 -0.04131509 -0.018221747 -0.0034623279
000210 5e 16 4a bc 86 6e 65 bd 67 e4 01 3d 61 bf f9 3b
       -0.012334434 -0.056013606 0.031711962 0.007621691
000220 8d 25 12 3b 42 20 13 3d 85 94 ec bc fa 7e ec 3c
       0.0022300214 0.035919435 -0.028879413 0.02886914
000230 55 73 24 bd bf 6a 6c 3d 74 b4 5c 3c 4d b8 04 bd
       -0.04014905 0.05771899 0.013470758 -0.032402325
000240 41 f6 61 bd b2 37 59 3d 07 19 71 3c 42 e3 38 bd
       -0.055166487 0.05303163 0.01471544 -0.045138605
000250 07 61 86 3b bd 69 af 3c e7 dc a4 3c 5e 7f 7a bb
       0.004100922 0.021412725 0.020124866 -0.003822289
000260 98 f9 54 bc 4b 60 17 3d bd 43 34 3d 7b 2e 31 bc
       -0.012998961 0.036957067 0.044009913 -0.010814304
000270 99 cd f8 bc 1d 33 07 bd 7f 91 87 3c 4b c5 a8 3c
       -0.030371474 -0.03300773 0.01654887 0.02060189
000280 f5 8d d3 3c 4b 5d 5c 3a 2a fa cc 3c 8f f4 f3 bc
       0.025824526 0.0008406236 0.025021631 -0.0297797
000290 02 b2 48 3c 8c 63 35 bc 67 cb c3 bc 34 7b cd bc
       0.012249472 -0.011071097 -0.0239007 -0.025083162
0002a0 ea e3 5e bd 9c 1e 43 3d da 89 be 3b 44 8e 2f 3d
       -0.054416575 0.047636613 0.005814773 0.042860284
0002b0 40 c4 e0 3b 8b 63 37 bd b2 00 36 3d b1 c0 0b 3d
       0.0068593323 -0.044772666 0.044434257 0.03411931
0002c0 da 98 31 3d b2 02 f1 3b 59 75 c7 3a cd b0 a1 3c
       0.04335866 0.0073550576 0.0015217467 0.019737625
0002d0 83 ed 29 3c 29 d9 72 bd d6 79 30 3d f6 2f a2 bc
       0.010371569 -0.05928913 0.04308494 -0.01979826
0002e0 3a d2 15 3c 4a 66 28 3d 8b 23 d5 3b 4a de 2c 3d
       0.00914436 0.041113175 0.006504481 0.04220418
0002f0 78 ea 53 3d 48 7d 09 bb b7 5d 8b 3c 82 28 56 3d
       0.05173728 -0.0020979214 0.01701246 0.052284725
000300 7d 2c 67 bd c9 c7 1c bd c5 aa f0 bc 79 03 25 bd
       -0.05643891 -0.038276467 -0.029378304 -0.040286515
000310 ee 7a 09 bd 4b 45 0a bc 44 5d 55 bd 08 a3 af 3c
       -0.0335645 -0.008439372 -0.0520909 0.021440044
000320 63 b2 0c 3d 7f 53 57 bd 0b 9a 8a 3c 91 b0 92 bc
       0.03434981 -0.052569862 0.016919157 -0.017906459
000330 99 f1 97 bc 47 4d fe bc 9d 2b bc 3c 3c 33 fc 3c
       -0.01854782 -0.031042708 0.022970015 0.03078615
000340 ba a1 8c bc 7d 0a 51 3d 35 76 62 bd f6 14 36 bd
       -0.017166961 0.051035393 -0.055288512 -0.044453584
000350 ee 61 92 bc b2 e0 03 3d 8f 58 0d bc f7 6e 7f 3c
       -0.017868962 0.032196708 -0.008627071 0.015590421
000360 b9 08 34 3d 65 03 2a 3c 90 5f 17 3d 1a da 07 3d
       0.04395363 0.010376786 0.03695637 0.033166982
000370 20 64 1a bd 0b 32 d3 bc a5 99 52 3a be 3f d7 bc
       -0.037693143 -0.025780698 0.0008033759 -0.026275512
000380 f8 cb 09 3d 61 92 15 3d 1b b9 47 bd 90 dd 2a bc
       0.033641785 0.03651655 -0.048760515 -0.010428801
000390 c8 9f c8 bc 3c 26 d7 bc 9e af 14 3d 96 9f 0c 3c
       -0.024490252 -0.026263349 0.036300294 0.00858297
0003a0 98 cb 3b bd ac 70 2b 3c f6 99 12 bd 64 9c 21 bd
       -0.04584846 0.010463875 -0.03579136 -0.039455786
0003b0 48 75 56 bd 6d b5 4d 3d ee 49 3b 3d a0 22 6e bd
       -0.052357942 0.05022185 0.0457248 -0.05813849
0003c0 1b 35 41 3d 44 3d ac bc 99 55 b3 bc 99 0b 40 bd
       0.047169786 -0.021025307 -0.021891402 -0.04688606
0003d0 d7 91 9a 3c b6 dd a1 3c cc 51 26 3d 8c 11 13 bb
       0.01886837 0.01975904 0.04060535 -0.0022440879
0003e0 9b 56 02 3d 1a 50 50 3d 38 25 25 3d fa bc 41 bd
       0.031820875 0.05085764 0.040318698 -0.047299363
0003f0 36 9d fd 3c 0e 88 51 bd 21 86 a8 3c 66 23 3a bd
       0.030958753 -0.051155142 0.02057177 -0.045443915
