MPSNN_Analytical_System/model/modeltrained_save50.pt (torch_old, 11213 bytes, 3 tensors)

complner.0.weight f4 [50, 50]
00000000: 7f4e 9a3e 6a46 f3bd 630a 493e 2036 23be
00000010: 3fca b1bd 63d1 123e 0f75 8dbe d5c4 9f3e
00000020: fdf8 483e 5b4c bb3d e259 50bc 0ab8 bebe
00000030: fd86 863e aa5a 8f3e 8ba8 b13d 5093 a3be
00000040: 0456 a13e 2f5e 5ebd d1d0 a4be 72ed fc3c
00000050: cfcb f93d 6da4 d03c ae20 903e 3e3b cd3c
00000060: 796c 5dbe 9526 cb3d 6f4a d73e 8014 07bf
00000070: b1dc f1bd 4df0 9f3e aba6 95be d9ec 223e
00000080: e2f0 6abe d46e a4be daf8 c63d e0b8 933e
00000090: 8fd8 ad3e d674 ed3e c9bd 0dbe db2b 1fbe
000000a0: c7cb 8e3d af7d 873a 195c 023f 3857 723e
000000b0: a2ff 63be 8dab 923d f2ec 35bd dcfa 32be
000000c0: eed2 3ebd ecf7 713d a970 8ebe 82a7 a73e
000000d0: 362c bb3d 92c3 6e3e eaf2 163e 358f 4cbe
000000e0: 115a 9d3e da60 1fbe d393 363e 51f4 2b3e
000000f0: 38fd 3dbe 596b debc 08b8 3bbe c9ae 443e
00000100: 8726 223e 1e6f 103f eeb7 db3d 5457 203e
00000110: 153c 2ebe d312 2d3e 6a22 03bf 0803 eebe
00000120: f532 07be ac0a fc3c 7ea4 1e3e f80e d03e
00000130: d0be fcbe cd1c 573d 684d 55be f266 973e
00000140: 0d7d 6d3d f851 e03d b16c 73be e775 803e
00000150: 6cef aabd e12b 19bd 679e 093e 5311 d93e
00000160: a23f 683d b42f 203d b78d cc3d e4c5 4b3e
00000170: 4f00 ecbd 745d f53c c780 83be 7555 d03d
00000180: 29a7 913e 290f 813e f3b6 29be 2b45 d53e
00000190: 8c94 2e3b e1a9 233c 00f6 1a3c 9874 473c
000001a0: e717 af3b d85b 1939 b21d 023a 5c03 e0bb
000001b0: 14ba eebb 5427 9bbc 1cd6 60bc 02cc 12bc
000001c0: 5980 db3a 5e8b 873c 372d 0b3d 1ce4 293d
000001d0: 0d7f 043d d4b3 2d3c d009 45bc b391 30bd
000001e0: 203a 69bd c488 85bd fd4a 60bd d7cf 08bd
000001f0: a467 363c e0ad 5d3d 3455 c13d a1c6 e93d
00000200: a104 fd3d ff80 ac3d 7229 253c 9943 a1bd
00000210: 5ce7 1abe be33 54be 7ca3 66be a790 2cbe
00000220: 960d 7ebd ded7 c43d 580f 823e 10ed c03e
00000230: 16cb dd3e 9e5f be3e 4a5c 3d3e 1888 bfbd
00000240: 3ea6 c4be 6e38 28bf 59e6 4ebf fd18 3ebf
00000250: 56cf f1be ae77 3bbc ee24 0cbe c295 8dbe
00000260: 8ba6 9cbc 2d5c acbd 82d8 00bd e032 e03e
00000270: 0016 b53e 3178 b2bd dbaf f8bb 4dbe 99bd
00000280: 3a76 52bd 9929 083e bc42 61be b098 05be
00000290: 6d94 25be bc5e 43be 99e1 83be 8f0d 603e
000002a0: bde4 083f 09e8 5b3d 5b85 30be 88ce 14bd
000002b0: d9a6 7c3e 78a5 223e 85b9 a4bb d04e 8c3e
000002c0: 7d53 1ebe ab57 64be 0f2b 7ebe 1fae 8ebd
000002d0: a538 0e3e e70a 843d 2529 30bd e512 2d3e
000002e0: b1f9 903e a957 ebbd e677 14be ccb4 fc3c
000002f0: a77f b9bd 3142 423e 9e77 a6ba c88b 68bd
00000300: 7a08 523e d78f dfbd ca70 f0bd c340 493d
00000310: c139 cebd 3a0f a6bd 606e b53d 920f a0bd
00000320: 6835 003f 3948 f93d b404 083e 21e9 973e
00000330: 56d9 a93d 47d7 a93d 8a2a e4bc e1a9 dabc
00000340: 2eed 263e c64f 123d 2775 2e3d 5c51 40be
00000350: c92d 0e3e 8d1e ff3e 4b0b c03e 1450 7e3e
00000360: 58d5 b8be 60cb 6cbd dcd7 123d 4909 36bd
00000370: d489 253d 30a7 833e 148e c13c 1917 21be
00000380: 1955 b93d 591d 24be ea24 45be 27da 043e
00000390: d0cd 013d 948d 0a3e c13d acbe 0061 b2be
000003a0: 2d2e bc3c 2158 89be b6a9 a5be 8b4d 523d
000003b0: 17fb d13e 2db7 9bbc ae5a c8be 690d a83e
000003c0: b8ad 163e 538b 34bd 7246 f33e 5e4a a53e
000003d0: 1fb6 bebd 4b25 503e ca71 823e c237 68bd
000003e0: a6fa 62be c755 3fbf 8671 a33e 1f96 8e3e
000003f0: 83f0 2c3e 2e1a a83d d512 00bd 7b1e e33d
0.30138013 -0.11878665 0.19632868 -0.15938616 -0.086811535 0.14337687 -0.2762837 0.31204858
0.19626231 0.09145423 -0.012716742 -0.37249786 0.26274863 0.2799886 0.08674725 -0.31948328
0.31510937 -0.05428904 -0.32190564 0.030874941 0.121970765 0.02546903 0.28149933 0.025052663
-0.2162341 0.09919468 0.42048976 -0.52765656 -0.11809672 0.31238022 -0.2922872 0.15910663
-0.22943452 -0.32115805 0.097154334 0.28851986 0.33954284 0.463782 -0.13841929 -0.15544073
0.06972461 0.0010337139 0.5092178 0.23666084 -0.22265485 0.07161627 -0.04441542 -0.17478508
-0.046587877 0.059074327 -0.27820328 0.32744986 0.09139292 0.23316792 0.14741102 -0.19976504
0.30732778 -0.1556429 0.17829828 0.16792418 -0.18553627 -0.027150797 -0.18331921 0.192073
0.1583501 0.5641955 0.10728441 0.15658313 -0.17015107 0.16901712 -0.51224387 -0.46486688
-0.13203032 0.030766807 0.15492436 0.4063642 -0.49364328 0.0525177 -0.2083031 0.2957073
0.057980586 0.10953134 -0.23771931 0.25089952 -0.08346447 -0.03739536 0.13439332 0.4239603
0.05670131 0.039107993 0.099879675 0.19899708 -0.11523496 0.029951788 -0.25684187 0.1017255
0.28447846 0.2520688 -0.16573696 0.41654333 0.0026638834 0.009989233 0.009458065 0.012173794
0.0053434256 0.00014625432 0.00049635314 -0.006836338 -0.007285366 -0.018939652 -0.013722923 -0.008959772
0.0016746625 0.016545948 0.033978667 0.041477308 0.032347728 0.010601956 -0.012026265 -0.0431077
-0.056940198 -0.065202266 -0.054759014 -0.033401337 0.011133108 0.0541209 0.09440079 0.114148386
0.123543985 0.084230416 0.010080682 -0.07874221 -0.15127319 -0.20722863 -0.22523302 -0.16852055
-0.062024675 0.09611486 0.2540233 0.37680864 0.43319005 0.37182325 0.18492237 -0.0935213
-0.38408083 -0.65711105 -0.8082023 -0.7425688 -0.47228497 -0.011442108 -0.13685963 -0.2765332
-0.019122383 -0.08416019 -0.031456478 0.43788815 0.35368347 -0.08714331 -0.007589323 -0.07507
-0.05138228 0.13297118 -0.21998113 -0.13046527 -0.16169901 -0.19079107 -0.25758055 0.21880172
0.53474027 0.053688083 -0.17238371 -0.036329776 0.24673022 0.15883434 -0.0050269985 0.2740388
-0.15461536 -0.22299068 -0.24821113 -0.06966805 0.13888796 0.06447392 -0.04300799 0.16901739
0.283155 -0.11491329 -0.14498863 0.03084793 -0.09057551 0.18970563 -0.0012700444 -0.05677393
0.20511046 -0.10916107 -0.11740263 0.049134027 -0.100696094 -0.08108373 0.08858943 -0.0781547
0.5008149 0.121719785 0.13283044 0.2967005 0.08293407 0.08293014 -0.027852315 -0.026692333
0.16301414 0.03572061 0.042592194 -0.18781036 0.13884653 0.49827996 0.37508616 0.24835235
-0.36100268 -0.05781114 0.03585039 -0.04444245 0.040414646 0.2571349 0.023627318 -0.15731467
0.09049434 -0.1602682 -0.19252363 0.12973844 0.03169042 0.1353057 -0.33640864 -0.3483963
0.022971237 -0.2682505 -0.32356042 0.051343482 0.4101188 -0.019008243 -0.39131683 0.3282273
0.14714706 -0.044078182 0.47514683 0.322833 -0.093120806 0.20326726 0.2547744 -0.0566938
-0.22165927 -0.7474026 0.3192255 0.27848908 0.16888623 0.082081184 -0.03126796 0.11089798

complner.0.bias f4 [50]
00000000: e985 00c1 655e fd40 e81e 02c0 2e0a 0241
00000010: e78c fb40 0236 0741 0067 0341 2322 4840
00000020: 4866 f7c0 519f d340 e50a e6c0 98fe 0341
00000030: dc92 0441 21eb 00c1 e988 06c1 f405 0341
00000040: 2ef5 05c1 5139 f840 595f ff40 7831 ff40
00000050: 6df2 0141 a979 f0c0 b47b f140 c02f 08c1
00000060: 8d42 05c1 678b f9c0 3e84 01c1 66f4 eec0
00000070: 09a2 f940 9fea 06c1 790e b5c0 e4a1 07c1
00000080: f435 f640 6f3e 0841 5c7a fdc0 0632 e5c0
00000090: a385 0741 7b2f 44c1 12c9 0041 a775 8140
000000a0: a866 0240 13c8 01c1 1f12 fb40 3023 f040
000000b0: 6e95 07c1 689b 0041 1253 05c1 b38f f0c0
000000c0: 90dd 0241 7d2f eb40
-8.032693 7.917773 -2.0331364 8.127485 7.86095 8.4506855 8.2126465 3.1270835
-7.7312355 6.613198 -7.18883 8.249657 8.285854 -8.0574045 -8.408425 8.188953
-8.372358 7.7569966 7.980389 7.9747887 8.121686 -7.514851 7.5463505 -8.511658
-8.328748 -7.798267 -8.094786 -7.467334 7.8010297 -8.432281 -5.6580167 -8.477024
7.694086 8.515243 -7.9211864 -7.1623564 8.470126 -12.261592 8.049089 4.045612
2.0375156 -8.111346 7.845962 7.5042953 -8.473982 8.037941 -8.332781 -7.5175414
8.179092 7.349547

complner.2.weight f4 [1, 50]
00000000: 0221 04c1 95b3 0341 a3b0 6842 5af0 0241
00000010: 2d88 f940 b207 0241 ca58 0241 ccc6 c73e
00000020: 903d 03c1 c83c 8240 ecdd f4c0 a522 0041
00000030: 309e 0341 f823 03c1 63ea 03c1 763b 0041
00000040: 6f41 00c1 0d70 0241 b871 0341 f9c5 0241
00000050: e0af 0341 3c27 00c1 3602 fd40 7994 03c1
00000060: 3f80 04c1 0b28 fdc0 6535 01c1 c59b 01c1
00000070: a32b 0241 5739 01c1 c301 7342 5235 04c1
00000080: d07c fb40 5534 0241 6a36 00c1 bc75 fbc0
00000090: 0cdb 0141 60b4 7a42 0f39 0241 c79e 00c3
000000a0: ba1e 48c2 2342 03c1 0bc4 0241 51ae 0141
000000b0: d7dc 00c1 0ad9 0141 9c5f 02c1 cf5e eec0
000000c0: 587f fd40 ade2 ef40
-8.258059 8.231343 58.172497 8.18368 7.797873 8.126879 8.146677 0.39018857
-8.20253 4.0699196 -7.65209 8.008458 8.22612 -8.196281 -8.244723 8.014517
-8.015975 8.152356 8.215263 8.173333 8.230438 -8.009579 7.90652 -8.223748
-8.28131 -7.911138 -8.075536 -8.10053 8.1356535 -8.076499 60.75172 -8.263018
7.858986 8.137776 -8.013285 -7.858122 8.115978 62.676147 8.13893 -128.62022
-50.030006 -8.203647 8.172862 8.105058 -8.053916 8.115488 -8.148342 -7.4490733
7.921795 7.4964204
