MPSNN_Analytical_System/model/modeltrained_save1.pt (torch_old, 41613 bytes, 3 tensors)

complner.0.weight f4 [100, 100]
00000000: d825 3b40 25aa 2440 67e0 4bc0 c2a6 f5bf
00000010: 5ffd 4abf 1a15 c63f 510f a6c0 2476 ccbf
00000020: 373a 1240 f446 8c40 5783 4340 eec9 93c0
00000030: 537f 15bf e735 ddbf 520f 03c0 f302 6340
00000040: b9aa 4a40 85aa 9f40 4b7b 5340 9f0d 4f40
00000050: 5b6f 7ec0 ebe7 973f 978f a93f 8ff1 a640
00000060: 16dc edbf b34d e63d 5a47 02c0 0e05 a03e
00000070: 1d59 55c0 f423 4cc0 b3c0 39c0 f7d8 9c3f
00000080: 928b 2f3f df45 4140 0dcb b1be 3be9 bcbf
00000090: fc57 0340 bcad aac0 e53b 7140 157b ccbe
000000a0: 7715 6240 1e72 0e40 0c20 b040 bbbd 6cbf
000000b0: 0cd3 63c0 711c fdbe bf1e 3340 425d 4640
000000c0: 34c4 5040 b08f 2ebf f2e8 b9bf cbfa 7c3f
000000d0: af9b 1c3e 1644 0740 5a68 373e 1b28 bf40
000000e0: ba79 08c0 9bf3 c840 c0b1 a43f 22de eebd
000000f0: db28 1e3f 400d 87bf 59e0 54c0 e16b 4b40
00000100: db2b 4c40 6b11 e2bf 1f6e 753f d381 1e40
00000110: 710e f6bf 9ce2 a240 6be2 2cc0 8ff7 56c0
00000120: 5862 8c3f 1148 9e3f 38e6 2a40 b87b e33f
00000130: f26e eebf 3b59 0140 3b54 a5bf 5dd2 5140
00000140: 313c 39c0 4bfc cc3f 9510 1c40 27ff 2840
00000150: a375 ba40 a359 1240 16fc 02be 3e42 5c3f
00000160: 2ddd 2340 342d 353f 3407 953f 3b19 d9bc
00000170: caf8 16c0 f460 1d40 5eb0 55bf a48a b83f
00000180: baf6 7340 c48e 49c0 387b 5fbf 05b5 8fbf
00000190: 9456 aebf d759 4840 da97 d63f 3211 393d
000001a0: 55a8 23bf 76e5 04c0 9984 bec0 8b2b 84c0
000001b0: 6655 47bf 0a8c aabd 0fb2 a4bf b1d7 9ebf
000001c0: 190c 3b40 271b c13f 4669 6abf 290e b040
000001d0: 85e4 3940 6172 1541 fd48 9ebf 160a 1d40
000001e0: 2ed7 2b40 a125 2940 99a9 26bf 07d0 9abf
000001f0: 5b4c a23f fbe4 7d3f de70 c7bf 15a3 d4bf
00000200: 9508 92be 0a47 febe fb9b a9c0 ce18 cb3f
00000210: 1162 5540 e9fb a440 2b57 b9bf dc49 053f
00000220: fd8c 66bf 6aae a73f 81ee 94bd 8d6a 23c0
00000230: 6013 c2bf 2ad8 963f b330 2640 1553 3b40
00000240: c7fb 9bbf 64ac 193f 142c 1d40 5404 b93f
00000250: cab8 ffbf 3a13 f93f 9391 d6c0 c8cb 9340
00000260: ebc2 3fc0 9c7b a540 fa27 61bf 9aba 4ebe
00000270: 5376 6ebf bf7e 9dbf 812b 71be 1b22 3ebf
00000280: b6a0 04c0 7e82 1940 3c3c fe3e 510d 0bc0
00000290: 0f9a f73e c430 1440 90e0 0d40 5b88 1540
000002a0: 771e 13bf 79f6 333f 2219 1040 9abe 73c0
000002b0: 80f5 9dbf 57a9 f83e 55bc 49c0 49ea df3d
000002c0: 7784 c3bf f3ce 8d3f 870c 2dbf 806f 58c0
000002d0: 6e46 91c0 6fd0 533f e9a7 c03f c202 7ec0
000002e0: b59f 4a3f 2f48 38c0 09a4 8d40 8a70 df3e
000002f0: 0496 0e40 d892 153f c706 5340 0de7 5c3e
00000300: da33 b540 b10e 10c0 c8a4 d03f 603d 3840
00000310: f1df bc3f 9503 8d3f 4573 93c0 71ac 29c0
00000320: 11c9 6540 e13c 853e 34d2 5ec0 92e9 bc3f
00000330: 3086 9a40 b26e 2f40 7831 3640 6b3f f5bf
00000340: 5c91 ccbe 592e 8bc0 fcf0 34c0 bd8d 81bf
00000350: 3ef0 8740 67a3 d43f a726 8c3f 30be aebf
00000360: 6ed8 3540 9670 bdbe ad0d dd3f 0e1f 12bf
00000370: 57bd 8840 255b 743e b62b 8fbf d6b8 51c0
00000380: 1580 3ec0 c3fc 0541 a3e2 6740 93d0 12c0
00000390: 6dbb cfbf 4bc7 5040 85b4 edc0 6183 1ec0
000003a0: e70c 15bf 1c91 2abe 8789 1640 1629 debe
000003b0: 7b1d 56c0 6e70 f53e 7407 843f 0770 b2bf
000003c0: 8761 9540 9160 543f f9c0 66bf 1e9c 9ec0
000003d0: 8d16 af40 336e a8be 0446 1540 5968 c03f
000003e0: abbc 4abe 7014 8f40 27c3 3a40 dbeb 9cc0
000003f0: e28c 8540 c509 16bc 2d04 5740 cf0f 0d40
2.9241848 2.5728848 -3.1855714 -1.9191515 -0.79292864 1.547519 -5.1893697 -1.5973554
2.2848032 4.3836613 3.0548913 -4.6183996 -0.58397406 -1.7282075 -2.04781 3.547055
3.16667 4.9895654 3.3044002 3.2352064 -3.9755466 1.1867651 1.3246945 5.216987
-1.858279 0.11245289 -2.035605 0.31253856 -3.333564 -3.1896944 -2.9023864 1.2253712
0.6857234 3.0198896 -0.34725228 -1.4758676 2.0522451 -5.333708 3.7692807 -0.39937654
3.53256 2.2257152 5.503912 -0.92477006 -3.5597563 -0.49435762 2.7987516 3.099442
3.2619753 -0.68188 -1.4524214 0.9882018 0.15293764 2.1135306 0.179109 5.9736457
-2.1324296 6.279737 1.2866745 -0.11663462 0.6178109 -1.0550919 -3.326193 3.1784594
3.1901767 -1.7661566 0.95871156 2.4766738 -1.9223157 5.0901623 -2.7013195 -3.3588598
1.0967512 1.2365743 2.6703014 1.7772131 -1.8627608 2.0210712 -1.291633 3.2784646
-2.8942988 1.6014494 2.438512 2.6405733 5.82686 2.286721 -0.12791476 0.8603858
2.5603745 0.707721 1.1642823 -0.026501289 -2.3589349 2.4590425 -0.8347224 1.441731
3.811934 -3.1493387 -0.8729739 -1.1227118 -1.3620172 3.1304834 1.6765091 0.045182414
-0.6392873 -2.0765052 -5.953686 -4.1303153 -0.7786468 -0.083274916 -1.2866839 -1.2409574
2.9226134 1.5086411 -0.91566885 5.5017285 2.9045727 9.340425 -1.2366024 2.4537406
2.6850085 2.6429217 -0.65102535 -1.2094735 1.2679552 0.9917752 -1.5581319 -1.6612269
-0.28522173 -0.49663574 -5.3002906 1.5866945 3.3341105 5.1557508 -1.4479727 0.52065825
-0.9005888 1.3100102 -0.072720535 -2.5533783 -1.5162163 1.1784718 2.5967224 2.926946
-1.2186211 0.6002867 2.4558153 1.4454446 -1.9978268 1.9458992 -6.7052703 4.6186256
-2.9962718 5.171339 -0.87951624 -0.2018837 -0.931493 -1.2304305 -0.23551752 -0.7427079
-2.072309 2.3985896 0.4965533 -2.1726878 0.48359725 2.3154764 2.2168312 2.3364475
-0.5746836 0.7029796 2.251534 -3.8085084 -1.2340546 0.48566696 -3.1521199 0.10933358
-1.52748 1.1078781 -0.6759724 -3.3818054 -4.5398474 0.8273992 1.5051242 -3.9689183
0.79149944 -2.8794057 4.426274 0.43640548 2.2279062 0.5842719 3.2972887 0.21572514
5.6625795 -2.2508967 1.6300287 2.878746 1.4755841 1.1016718 -4.607821 -2.65115
3.5903971 0.2602301 -3.4815798 1.475878 4.8288803 2.7411313 2.8467693 -1.9159979
-0.3995465 -4.3494077 -2.8272085 -1.012138 4.2480764 1.6612366 1.0949296 -1.3651791
2.8413348 -0.3699996 1.7269799 -0.57078636 4.273113 0.23862894 -1.1185215 -3.2769065
-2.9765675 8.374209 3.6232078 -2.2939804 -1.6229073 3.2621639 -7.428286 -2.4767687
-0.5822281 -0.16656917 2.352144 -0.4339072 -3.3455493 0.4793734 1.0314775 -1.3940438
4.668155 0.8295985 -0.901382 -4.9565573 5.471503 -0.32896575 2.3323984 1.5031844
-0.19798534 4.471245 2.9181612 -4.903791 4.1734476 -0.009157603 3.3596299 2.2040899

complner.0.bias f4 [100]
00000000: 611e c5c0 f8b8 5940 6413 6cbe fd9e a540
00000010: 8cf7 aa40 ee28 3cc0 8bbf 8b3f a36a 1d40
00000020: 320b 9b40 7996 cb40 0fa1 84bf 62d2 94c0
00000030: f424 2ac1 7edf 1840 db41 d340 5bec 4c40
00000040: 0a0c a4c0 385c 97c0 6468 8b3f 1ac9 b9c0
00000050: b5fe 71c0 66fe 81bf 9e47 c340 1401 0241
00000060: e04a 91c0 e0e8 f7c0 1d10 0dc0 3c2e 0c40
00000070: 8205 553e fae1 54c0 d8f6 62c0 0ef0 3140
00000080: 0f09 8940 feab e0c0 a45c 1340 4ce5 ac40
00000090: 2323 91c0 fb31 3dc0 cb8e 87c0 acb1 3bc0
000000a0: 0dcc b340 0aef 3c40 8a88 3fc0 1cf8 cec0
000000b0: 39d3 5a40 1ef0 0ec0 4ffc 863d e651 5fc0
000000c0: 0e10 f1be 5530 be40 04a4 ce40 8d7f 9c40
000000d0: e504 a340 b4e7 c7c0 49ba d8bf ab15 9e40
000000e0: ed52 8fc0 383d f5c0 f926 4bc0 898e 5bbf
000000f0: 9e33 f43f 43ba 86c0 cc45 7540 1cfb 6040
00000100: 490f aac0 75c0 57c0 4692 ee3f 029a a0c0
00000110: 3f7f b340 e80f 04c0 9e1b a840 b8bd 9fc0
00000120: 2733 fac0 c36c d440 c622 0240 e5d1 0dc0
00000130: 8da1 a43f 4708 acc0 df91 9ac0 7e2d f7bf
00000140: 2647 0e41 10f2 d2bf 6619 51c0 229f ce3f
00000150: c90b 6340 ed57 22c0 35fb 0140 9427 98c0
00000160: 23fa a740 2167 73c0 826a e9bf aad2 3b40
00000170: ddfc 8840 b55d 0641 1d54 9840 5b5f a8c0
00000180: d628 32c0 7317 2540 be9a 21c0 7eab a0c0
-6.1599584 3.4019146 -0.23054272 5.1756577 5.342718 -2.9399981 1.0917829 2.4596336
4.8451166 6.3621182 -1.0361651 -4.6506815 -10.634022 2.3886409 6.601789 3.201926
-5.1264696 -4.730007 1.0891232 -5.8057985 -3.781171 -1.0155761 6.1024923 8.125263
-4.54039 -7.747177 -2.2041085 2.190322 0.20802882 -3.3262925 -3.5463161 2.7802768
4.282356 -7.020995 2.3025293 5.4029903 -4.535539 -2.9561756 -4.236181 -2.9327192
5.6186585 2.9520898 -2.9927087 -6.467787 3.419142 -2.2334056 0.06591093 -3.4893737
-0.4708256 5.9434 6.4575214 4.89057 5.0943475 -6.247034 -1.693185 4.940145
-4.478873 -7.663723 -3.1742537 -0.85764366 1.9078252 -4.210237 3.832385 3.5153265
-5.314366 -3.3711216 1.8638389 -5.0188 5.609283 -2.0634708 5.2533712 -4.991909
-7.818744 6.6382766 2.0333724 -2.215936 1.2861801 -5.3760104 -4.8303065 -1.9310758
8.89237 -1.6480122 -3.2671752 1.6142313 3.5475943 -2.5366166 2.0309575 -4.7548313
5.2492843 -3.8031695 -1.8235629 2.934733 4.280867 8.397878 4.7602677 -5.26164
-2.7837424 2.5795562 -2.5250697 -5.020934

complner.2.weight f4 [1, 100]
00000000: ca53 e3c0 be74 1041 d325 fac0 4fec f140
00000010: 2c55 db40 c4a1 07c1 cfaf f840 eb8d 0e41
00000020: d4bd e840 8283 0241 6f9b 08c1 2b59 0ec1
00000030: dea3 b5c0 b485 ec40 0d9e b640 4306 da40
00000040: 6012 e8c0 143a e5c0 c4e3 29c1 639d ebc0
00000050: 47c7 fec0 efb4 0dc1 a9a5 e940 e42b bb40
00000060: 6fee d8c0 717b dcc0 5729 f4c0 7c23 fb40
00000070: b8d6 1fc1 5d8a 0ac1 ded3 00c1 8032 0741
00000080: 1e09 e440 ca22 e3c0 9bd4 0e41 156d f840
00000090: 27fd 04c1 faac 10c1 fde4 eec0 b2e7 03c1
000000a0: a31d 0741 f6f0 eb40 2d9b f2c0 e9e0 12c1
000000b0: f66d f040 811d 00c1 c31e 13c1 cc07 eac0
000000c0: 0750 f940 7730 c840 0c94 1d41 7fe3 f240
000000d0: 3cd3 0a41 a1c7 0ac1 a1ea eac0 7745 fb40
000000e0: 3408 ddc0 4be5 bdc0 afb7 0ec1 41e2 15c1
000000f0: 49be 0741 3562 f6c0 9dbe fb40 9dd9 e640
00000100: ec5d e1c0 2088 00c1 3fc7 0841 110b 04c1
00000110: 0b22 0241 525d d9c0 1457 df40 ee67 f0c0
00000120: 7069 d5c0 0895 bb40 f5e1 0541 d4b0 04c1
00000130: dda0 fd40 71fd 00c1 927e b8c0 1ccb 02c1
00000140: 7bc0 e440 c0f3 fdc0 d518 e2c0 44f9 ed40
00000150: 75cd 0741 746c 00c1 0b9e 0241 0f8a f6c0
00000160: 4bb6 e640 ed90 ffc0 13ec e6c0 1330 0741
00000170: f23c dd40 706d d940 826d ed40 8106 02c1
00000180: 682e 0cc1 8b9f eb40 0022 e5c0 1ace 03c1
-7.103978 9.0285015 -7.817117 7.5600963 6.854147 -8.476994 7.771461 8.909648
7.2731724 8.157106 -8.537948 -8.89677 -5.6762533 7.391321 5.7067933 6.8132644
-7.252243 -7.1633396 -10.618107 -7.3629622 -7.961826 -8.856673 7.301472 5.8491077
-6.7791057 -6.8900685 -7.6300464 7.8480816 -9.989922 -8.65878 -8.051725 8.449829
7.126113 -7.0979967 8.926906 7.7633157 -8.311805 -9.042231 -7.4654527 -8.244066
8.444736 7.373164 -7.5814424 -9.17991 7.513423 -8.007203 -9.19501 -7.313452
7.791019 6.255916 9.848644 7.5902705 8.676571 -8.673738 -7.341141 7.8522296
-6.9072514 -5.93424 -8.919845 -9.367738 8.483956 -7.699488 7.867018 7.214064
-7.042715 -8.033234 8.548644 -8.252702 8.133311 -6.7926416 6.9793797 -7.5126867
-6.669121 5.8619423 8.367665 -8.293171 7.9258866 -8.061875 -5.7654505 -8.174587
7.148496 -7.9360046 -7.0655313 7.436678 8.48766 -8.026478 8.163585 -7.704353
7.2097526 -7.986441 -7.2163177 8.449237 6.9136896 6.794609 7.4196177 -8.126588
-8.76133 7.3632255 -7.1604004 -8.237818
