MPSNN_Analytical_System/model/modeltrained.pt (torch_old, 11213 bytes, 3 tensors)

complner.0.weight f4 [50, 50]
0	0x3bf4ab9b	0.007466746
1	0x3c28bdc7	0.010299153
2	0x3c6680f7	0.014068834
3	0x3c5e41a8	0.013565458
4	0x3c82f756	0.01598708
5	0xbcaa959c	-0.020823292
6	0xbc469fb2	-0.012123035
7	0xbbb6bca4	-0.005576687
8	0x3b174819	0.0023083745
9	0xbcbd543a	-0.023111451
10	0xbc02b132	-0.007976817
11	0xbc49a7ef	-0.012308105
12	0xbb6770a1	-0.0035314935
13	0xbb996ab2	-0.0046819085
14	0x3bf5015b	0.007476968
15	0x3be9509d	0.0071202056
16	0x3ca66c7b	0.0203154
17	0x3b68ad65	0.0035503742
18	0x3c5bf99c	0.013426211
19	0xbc568fc9	-0.0130958045
20	0xbc51bc72	-0.0128012765
21	0xbcdb341c	-0.026758246
22	0xbcb2cca7	-0.021826101
23	0x3c1326ab	0.008981387
24	0x3b8e5a28	0.0043442436
25	0x3c7204d2	0.014771657
26	0x3ce367a2	0.027759377
27	0x3d82a7e5	0.063796796
28	0x3cb0d22c	0.021584593
29	0x3cae5384	0.021280058
30	0x3bc0e834	0.005887056
31	0xbd23260c	-0.039831206
32	0xbd7e7cc8	-0.06213072
33	0xbd6994f5	-0.057026822
34	0xbd83f7d9	-0.064437576
35	0xbd5a1ce2	-0.0532502
36	0xbd2fc79d	-0.042914975
37	0x3d626757	0.055274334
38	0x3db476cd	0.08811722
39	0x3e0557d5	0.13021787
40	0x3e0a10c5	0.1348296
41	0x3ded4868	0.11586076
42	0x3d1d3095	0.03837641
43	0xbd07cc10	-0.033153594
44	0xbe09c51f	-0.13454102
45	0xbe7705a5	-0.24123247
46	0xbe8be775	-0.27325025
47	0xbe852686	-0.26005954
48	0xbe11bd5d	-0.14232393
49	0x3bf83280	0.0075743794
50	0x3c16cebc	0.009204563
51	0x3b709734	0.0036711218
52	0x3c401df8	0.011725895
53	0xbb0ee2bc	-0.0021802625
54	0xba6f0de9	-0.0009119199
55	0xbb2d57fd	-0.002645015
56	0xbbbe89b5	-0.005814756
57	0xbc8aeace	-0.016957667
58	0xbc15043c	-0.009095248
59	0xbc86efa1	-0.016471686
60	0xbc4cb61c	-0.01249459
61	0xbc4569eb	-0.012049179
62	0x3b836024	0.0040092636
63	0x3c3161a6	0.010826504
64	0x3ce10e92	0.027472768
65	0x3c8b5bcd	0.017011547
66	0x3c1c529d	0.009541181
67	0x3c40960c	0.011754524
68	0xba45c2e1	-0.0007543993
69	0xbceae7a9	-0.028674917
70	0xbd32c4af	-0.043644603
71	0xbd1de926	-0.038552426
72	0xbd3bd5b3	-0.045858096
73	0xbd11526e	-0.035479
74	0x3c191dcd	0.009345484
75	0x3d40b5ca	0.047048368
76	0x3d8c75e0	0.0685842
77	0x3da8e6f6	0.08247177
78	0x3dac6837	0.08418315
79	0x3d6a2589	0.057164703
80	0x3c25e1b5	0.0101246135
81	0xbd827b76	-0.063712046
82	0xbdec33ee	-0.11533342
83	0xbe2714f1	-0.16316582
84	0xbe2612ca	-0.16218105
85	0xbe013071	-0.12616135
86	0xbd45bdca	-0.0482767
87	0x3d79b125	0.060959954
88	0x3e3317d4	0.17489558
89	0x3e8b7511	0.27237752
90	0x3ea2ac94	0.31772292
91	0x3e85211a	0.26001817
92	0x3e0df8f0	0.13864493
93	0xbd83110c	-0.06399736
94	0xbe8e5e80	-0.27806473
95	0xbeee039e	-0.46487135
96	0xbf12861c	-0.57235885
97	0xbf086dc0	-0.53292465
98	0xbeb076a4	-0.34465516
99	0xbb8a2375	-0.0042156526
100	0x3a21a60a	0.00061664043
101	0x3bb5ba08	0.0055458583
102	0x3a4b05a2	0.0007744675
103	0x3c0110b1	0.007877515
104	0x3ada25ff	0.0016643404
105	0x3c63d115	0.0139048295
106	0x3c348602	0.011018278
107	0x3bfbce30	0.0076844916
108	0x3bf7b9bd	0.0075599835
109	0x3c955f6e	0.018233981
110	0xbb398af8	-0.0028311592
111	0x3c63a88c	0.013895165
112	0x3b7a03e8	0.00381493
113	0x3b611295	0.003434335
114	0x3c4050a4	0.011737976
115	0x3cfe11d9	0.03101437
116	0x3b78c754	0.0037960606
117	0x3c1bccf7	0.009509317
118	0xbcad2f0f	-0.021140603
119	0xbc33b1a7	-0.010967649
120	0xbcb353c1	-0.021890523
121	0xbd1d1a80	-0.03835535
122	0xbc9857aa	-0.018596489
123	0xbaecaa40	-0.001805611
124	0xbbce9b5c	-0.0063051414
125	0x3bde6405	0.0067868256
126	0x3d43d3ed	0.04780953
127	0x3d565796	0.052329622
128	0x3d5e68de	0.054299228
129	0x3d0b97fc	0.03408049
130	0x3b38d686	0.0028204038
131	0xbcc6f186	-0.02428509
132	0xbd91e9c7	-0.071246676
133	0xbdb6e3bb	-0.08930155
134	0xbdbb22fb	-0.09137531
135	0xbda9cb1f	-0.082906954
136	0xbd0cffa4	-0.034423485
137	0x3d153cf7	0.036435094
138	0x3deb8468	0.11499864
139	0x3e3810ed	0.17975207
140	0x3e463e8e	0.193598
141	0x3e3124d3	0.17299204
142	0x3dba8e12	0.09109129
143	0xbd1be1fe	-0.03805732
144	0xbe2c0cf7	-0.1680182
145	0xbe95aa30	-0.29231405
146	0xbeb0b370	-0.345119
147	0xbea7cba7	-0.32772562
148	0xbe4f0cf0	-0.20219779
149	0x3c6a8659	0.014314258
150	0xbc155c9a	-0.009116316
151	0xbc193c02	-0.009352686
152	0x3c663c48	0.014052458
153	0x3b4e195a	0.0031448216
154	0xbb80f80c	-0.0039358195
155	0x3bd2be4d	0.006431377
156	0xbb11ef9d	-0.0022268065
157	0xbc8f7778	-0.017513022
158	0xbc88e784	-0.016711958
159	0x3a9fda6a	0.001219583
160	0xbb7f4fc0	-0.0038957447
161	0xbbb70267	-0.005585003
162	0x3c1ac4ff	0.009446382
163	0x3c43eece	0.011958791
164	0x3c1cc0a3	0.009567413
165	0x3bfad429	0.007654686
166	0x3c6c0e69	0.0144077325
167	0x3bb216c5	0.0054348432
168	0xbcb7e996	-0.02245025
169	0xbc3ada75	-0.011404623
170	0xbb6530c0	-0.0034971684
171	0xbc87b679	-0.016566502
172	0xbd13680e	-0.035987906
173	0xbc7e94a1	-0.015538366
174	0x3c48cbee	0.012255652
175	0x3cb4753f	0.022028564
176	0x3d1ed29a	0.038775064
177	0x3d3f326f	0.046678957
178	0x3d1d0564	0.03833522
179	0x3c7ac923	0.015306744
180	0x3be12303	0.006870629
181	0xbcf5c36a	-0.030000407
182	0xbd82e541	-0.06391383
183	0xbdaa9d10	-0.083307385
184	0xbd9e8e00	-0.07741928
185	0xbd4e6c96	-0.050396524
186	0xbc415b11	-0.011801497
187	0x3d49b5ed	0.049245764
188	0x3dbf636f	0.09345137
189	0x3e0aaecb	0.1354324
190	0x3e1f3899	0.15548934
191	0x3e0143ee	0.1262357
192	0x3d785254	0.06062539
193	0xbc9c834d	-0.019105578
194	0xbe0859a8	-0.13315451
195	0xbe659619	-0.22420539
196	0xbe82873c	-0.254938
197	0xbe896bb7	-0.26839992
198	0xbe261a0b	-0.16220872
199	0xbbb201f8	-0.0054323636
200	0x3c1fe2ca	0.009758661
201	0xbbf96ccf	-0.007611848
202	0x3c8029c6	0.01564492
203	0x3cb3a97b	0.0219314
204	0xba8c9e90	-0.0010728408
205	0x3c62028d	0.0137945535
206	0x3c719654	0.014745314
207	0x3c7c0a92	0.0153833795
208	0x3c7b73e9	0.015347459
209	0x3d1c8cdb	0.038220268
210	0x3c1aab0b	0.009440194
211	0x3cacdadf	0.02110046
212	0xbc03fed1	-0.008056358
213	0xba9c4ddd	-0.001192506
214	0xbba4b223	-0.0050261184
215	0xbc6a1048	-0.014286108
216	0xbcc7f4d6	-0.024408739
217	0x3c73db8b	0.014883886
218	0xbc47c96f	-0.012194022
219	0x3c88ca73	0.016698098
220	0x3c9f9429	0.019479828
221	0x3c861fdd	0.016372615
222	0x3cb9c3b6	0.02267633
223	0x3ceff4c7	0.029291524
224	0x37ef0c38	2.849671e-05
225	0xbc7e2b22	-0.015513213
226	0xbd018467	-0.03162041
227	0xbd4b8085	-0.049683113
228	0xbd54f1f1	-0.051988546
229	0xbd3adebd	-0.045622576
230	0xbcce674f	-0.025195746
231	0x3c63304c	0.013866495
232	0x3d06abaa	0.032878555
233	0x3d6ef5d0	0.058339894
234	0x3da6df1e	0.08148025
235	0x3d3faf26	0.046797894
236	0xbb30195b	-0.0026870582
237	0xbd3e0435	-0.04639073
238	0xbdc88ac7	-0.09792095
239	0xbde59f58	-0.11212033
240	0xbe078c5f	-0.13237141
241	0xbdd594e4	-0.10428789
242	0xbd9798e9	-0.07402212
243	0x3c995300	0.018716335
244	0x3e15e6cb	0.14638822
245	0x3e4aa94b	0.19791143
246	0x3e8a2138	0.2697847
247	0x3e6f6018	0.233765
248	0x3e220c78	0.15825069
249	0x3bb15df4	0.0054128114
250	0xbb90bfed	-0.0044174106
251	0x3c7db135	0.015484144
252	0xbc9c1f62	-0.019057933
253	0xbb6a03e4	-0.0035707885
254	0x3c6298a5	0.013830339
255	0xbaca9fbc	-0.0015458982

complner.0.bias f4 [50]
0	0x3edb797f	0.42866132
1	0xc07da8be	-3.9634242
2	0xbfe49d56	-1.7860515
3	0x3eccb7dd	0.39984027
4	0x3e3c76e1	0.18404724
5	0xbe384e14	-0.17998534
6	0xbd359306	-0.044329666
7	0x3c81d72a	0.015849669
8	0xbf0a75e0	-0.5408611
9	0x3ce65ee8	0.028121427
10	0x3fd5d0c5	1.6704336
11	0xbd9e9ddb	-0.07744952
12	0xbf9172c5	-1.136315
13	0xbdb87609	-0.090068884
14	0x3f101eab	0.56296796
15	0xbd9ebee1	-0.07751251
16	0x3f995976	1.1980426
17	0x3f343619	0.70395046
18	0x3d8354fe	0.06412695
19	0xbe1ce630	-0.15322185
20	0x3baaff47	0.0052184197
21	0x3f8a7510	1.0816975
22	0xbfaef331	-1.3667966
23	0xbeca1c4e	-0.3947472
24	0x3d4bed31	0.04978675
25	0xbf94fd48	-1.1639795
26	0x3d61510a	0.055008925
27	0x3fa5583d	1.2917553
28	0x3d93b8ce	0.07212983
29	0x3e8fe296	0.2810256
30	0x3d5e9428	0.05434051
31	0xbe15c6e2	-0.14626649
32	0xbf65cd98	-0.89766836
33	0xbc9cf830	-0.019161314
34	0x3d05d5b4	0.032674506
35	0xbf1cc3dc	-0.6123636
36	0xbf5c1b1e	-0.8597888
37	0x3ecd1ca3	0.4006091
38	0xbd5dba9e	-0.05413305
39	0x3f339060	0.70142174
40	0x3bf7e2bf	0.007564872
41	0xbeaf5d6b	-0.3425096
42	0x3e9ba497	0.3039901
43	0xbd371a74	-0.044702962
44	0x3d79b882	0.060966976
45	0x3e8bb436	0.27285928
46	0xbe5bc6b3	-0.21462516
47	0xc072d436	-3.7942023
48	0x3e99c5a4	0.300336
49	0x3fc69f42	1.5517352

complner.2.weight f4 [1, 50]
0	0xbefdff4b	-0.49608836
1	0xc01fd6f8	-2.4974957
2	0xbfaec112	-1.365267
3	0xbee576a5	-0.4481708
4	0x3e7e90fa	0.24859992
5	0xbe8bb4e9	-0.2728646
6	0x3ca8ebc0	0.020620227
7	0x3ae04f51	0.0017113482
8	0xbf12b159	-0.5730186
9	0x3c532762	0.012887808
10	0xbfaaf7bf	-1.3356856
11	0xbe3bb32f	-0.18330072
12	0x3f649229	0.8928552
13	0xbe2128e4	-0.15738255
14	0x3f125f79	0.5717693
15	0x3dccd591	0.10001672
16	0x3f854983	1.0413059
17	0xbf3e0399	-0.7422424
18	0x3dd928b1	0.106034644
19	0xbe64987d	-0.22323795
20	0x3ccb38c4	0.024807341
21	0x3f6e4849	0.9307905
22	0x3f927799	1.1442748
23	0xbed18a6a	-0.40925914
24	0xbe291723	-0.16512732
25	0x3f6bc7d9	0.9210182
26	0xbd76fdfb	-0.06030081
27	0xbf891f32	-1.0712645
28	0x3da60205	0.08105854
29	0xbea7194d	-0.3263649
30	0xbdd997ef	-0.10624682
31	0xbe2e6e08	-0.17034161
32	0xbf4922f9	-0.7856899
33	0xbcc6145f	-0.024179636
34	0xbd2181e3	-0.03943051
35	0xbf1f167a	-0.6214367
36	0x3f67e8f7	0.9058985
37	0x3eefab95	0.46810594
38	0x3dd68350	0.104742646
39	0x3f339e74	0.70163655
40	0x3cf13066	0.029442023
41	0x3ec053cb	0.3756393
42	0x3eb1c779	0.34722498
43	0xbc96ced0	-0.018409163
44	0xbdecbf08	-0.11559874
45	0xbed63988	-0.41840768
46	0x3e9eea53	0.3103815
47	0x400f2c36	2.2370734
48	0xbeaa6bea	-0.33285457
49	0x3f946361	1.1592828
