MPSNN_Analytical_System/model/modeltrained_savetc300_50.pt (torch_old, 363223 bytes, 3 tensors)

complner.0.weight f4 [300, 300]
0.023158032 0.05687977 0.053256303 -0.03188836 0.0491858 0.036311712 -0.05564594 0.018025648
0.03873833 -0.0073242923 0.018483367 -0.029655345 0.052014645 0.021558063 0.023311123 -0.010843669
0.044124275 0.043496944 -0.037816644 0.013933287 -0.032356106 -0.02694331 0.041985475 0.046560373
0.011304436 -0.015977656 0.03258229 0.015303863 -0.026885683 -0.033663847 -0.055779397 -0.049447108
-0.0396806 0.045884244 0.0025734948 0.048040193 0.02735629 0.0031429722 0.029493913 -0.026456138
0.00088955014 -0.027658079 0.05174722 -0.017688505 0.038095027 -0.009601509 0.047487117 -0.03317576
0.02458702 -0.024251552 -0.017229032 -0.017706849 0.017762251 -0.042580348 0.05376723 -0.026727976
-0.0012166434 -0.030706475 -0.012819285 0.02996864 0.032856744 -0.028495979 -0.002604067 0.009712976
0.014681768 -0.045601536 -0.03526644 -0.011191763 0.015429861 -0.037470087 -0.03764621 -0.03799398
0.00078111154 0.04839608 -0.024372282 -0.055295017 -0.055006962 0.031501666 0.0039861905 -0.010047762
-0.027565705 0.027107459 -0.030792266 0.05753914 0.000994979 0.0047346186 -0.009885753 -0.009640089
0.02962166 0.0070360424 0.04866365 0.049327817 -0.02071815 -0.05473556 -0.02238174 -0.049034372
0.011035846 -0.050195683 -0.007858786 0.05168257 0.044671502 0.04895918 -0.035327625 -0.036426585
-0.016345749 -0.046225112 -0.023032565 -0.005118226 0.054663446 0.022654213 -0.014673497 -0.0050860904
-0.032714363 0.021115564 0.053537503 0.008617572 0.032740887 -0.021614432 -0.014265462 0.0401359
0.033079963 0.044797577 -0.055246327 0.03380358 -0.048894048 -0.026039355 -0.0044351392 0.039638326
-0.034909956 -0.051939588 -0.0388991 -0.012678717 0.0006776572 0.016999828 0.0038221271 0.042383354
0.010045004 0.025288817 -0.027892798 -0.040403638 -0.022640362 0.047505677 -0.03202763 0.039817095
-0.008413711 -0.014450577 0.0462466 -0.029876953 0.016576828 0.051956113 0.0035272266 0.011928525
-0.022130843 -0.043323625 0.041315384 0.06296173 0.025982043 -0.004688479 0.0035681105 -0.017149266
-0.034395214 0.04820215 0.043462906 -0.030239133 -0.05532271 -0.017889058 0.026920758 -0.03613558
0.004625168 -0.05228227 0.023453705 0.044290733 0.049214892 0.0033780676 0.048325617 -0.05537399
-0.010580041 -0.0051473654 0.03779416 0.005652314 -0.012686495 -0.015328696 -0.01298256 0.021563072
0.02163731 -0.032957986 0.017602665 -0.0021376528 -0.045359123 -0.035246573 0.010186746 0.000539601
-0.0542085 -0.0061959894 0.039490238 0.01326902 0.01053602 0.036024764 -0.027474657 0.036088396
-0.031276364 -0.0557808 -0.03310707 0.053807367 -0.03668404 0.018099515 -0.03950519 0.05312188
0.02740265 0.02645293 -0.055918336 -0.047605224 0.024416864 -0.012472971 0.052636597 -0.052643757
-0.046021864 -0.05070684 0.0417037 -0.033675592 0.032788612 -0.026008857 0.028066045 0.0027677282
0.032846317 -0.025148023 0.007663554 0.037485253 0.027088605 -0.013396893 0.039157882 -0.015999395
0.056546018 -0.03657049 0.022953615 -0.03748171 -0.05675587 0.037135556 0.049906224 0.015627297
-0.015422254 -0.032478455 0.017809907 0.016027462 0.013605968 -0.04422251 -0.049670763 0.041281555
-0.014915836 0.036869995 0.05438784 -0.0130443275 -0.042001087 -0.021932643 -0.043695528 -0.014455676
00000000: eab5 bd3c c3fa 683d 4823 5a3d 5e9d 02bd
00000010: 0d77 493d 97bb 143d ffec 63bd 86aa 933c
00000020: 15ac 1e3d 9e00 f0bb 6e6a 973c c4ef f2bc
00000030: 4f0d 553d 899a b03c f8f6 be3c a5a9 31bc
00000040: a8bb 343d da29 323d a0e5 1abd 7148 643c
00000050: d687 04bd 37b8 dcbc f6f8 2b3d 17b6 3e3d
00000060: 3e36 393c 93e3 82bc 0275 053d 0ebd 7a3c
00000070: 5d3f dcbc 1ae3 09bd f078 64bd 0d89 4abd
00000080: 2088 22bd 1ef1 3b3d 14a8 283b cbc5 443d
00000090: 4c1a e03c 53fa 4d3b 389d f13c 8bba d8bc
000000a0: b330 693a 3293 e2bc e5f4 533d 7ce7 90bc
000000b0: 8809 1c3d a64f 1dbc da81 423d 4ee3 07bd
000000c0: b86a c93c 31ab c6bc e623 8dbc f40d 91bc
000000d0: 2482 913c bb68 2ebd 073b 5c3d a1f4 dabc
000000e0: c777 9fba 258c fbbc fa07 52bc cb80 f53c
000000f0: cb94 063d 6670 e9bc ffa8 2abb 2d23 1f3c
00000100: cc8b 703c adc8 3abd 8b73 10bd a85d 37bc
00000110: 87cd 7c3c 3c7a 19bd ea32 1abd 939f 1bbd
00000120: 82c3 4c3a f83a 463d 61a8 c7bc 077d 62bd
00000130: fb4e 61bd e407 013d 979e 823b 5e9f 24bc
00000140: 79d1 e1bc 7610 de3c 1040 fcbc 29ae 6b3d
00000150: f569 823a dc24 9b3b daf7 21bc 77f1 1dbc
00000160: 20a9 f23c 9a8e e63b 8953 473d f70b 4a3d
00000170: 1cb9 a9bc 6532 60bd e959 b7bc 44d8 48bd
00000180: b1cf 343c fd99 4dbd 23c2 00bc 1ab1 533d
00000190: 77f9 363d 6c89 483d b3b3 10bd 0b34 15bd
000001a0: 85e7 85bc 8b56 3dbd caae bcbc cbb6 a7bb
000001b0: c7e6 5f3d 5495 b93c 1b69 70bc 38a9 a6bb
000001c0: 7fff 05bd 8cfa ac3c 244a 5b3d b730 0d3c
000001d0: 4f1b 063d c010 b1bc afb9 69bc 8b65 243d
000001e0: db7e 073d aa7d 373d f949 62bd 9f75 0a3d
000001f0: 2045 48bd 7c50 d5bc a554 91bb cc5b 223d
00000200: befd 0ebd 9bbe 54bd aa54 1fbd 65ba 4fbc
00000210: cea4 313a 3943 8b3c a77c 7a3b 2b9a 2d3d
00000220: cd93 243c 7e2a cf3c 707f e4bc 497e 25bd
00000230: 4878 b9bc 5095 423d 672f 03bd 4017 233d
00000240: a9d9 09bc 1dc2 6cbc 136d 3d3d 83c0 f4bc
00000250: 21cc 873c efcf 543d 0b29 673b dc6f 433c
00000260: be4b b5bc 1d74 31bd 523a 293d 14f2 803d
00000270: 4bd8 d43c d0a1 99bb f6d6 693b 9e7c 8cbc
00000280: ffe1 0cbd 9e6f 453d 2906 323d 0fb8 f7bc
00000290: 119a 62bd 138c 92bc ec88 dc3c e702 14bd
000002a0: b98e 973b ef25 56bd fc21 c03c 336a 353d
000002b0: 8e95 493d 9262 5d3b 15f1 453d d6cf 62bd
000002c0: e957 2dbc 3bab a8bb 0dce 1a3d 0c37 b93b
000002d0: 04db 4fbc 3625 7bbc ceb4 54bc 0aa5 b03c
000002e0: ba40 b13c f4fe 06bd 7733 903c dd17 0cbb
000002f0: 7dca 39bd b65e 10bd 4fe6 263c 0374 0d3a
00000300: bb09 5ebd ba07 cbbb 84c0 213d 4e66 593c
00000310: 459f 2c3c b48e 133d 8812 e1bc 6dd1 133d
00000320: a51b 00bd 687a 64bd 479b 07bd 1d65 5c3d
00000330: 0142 16bd 6f45 943c 32d0 21bd 5496 593d
00000340: 867b e03c d1b3 d83c a00a 65bd b2fd 42bd
00000350: e005 c83c 6f5b 4cbc 7999 573d fba0 57bd
00000360: 6c81 3cbd fab1 4fbd 80d1 2a3d 6bef 09bd
00000370: 5a4d 063d 8710 d5bc c3ea e53c c662 353b
00000380: dc89 063d 3a03 cebc 8d1e fb3b 238a 193d
00000390: ece8 dd3c a47e 5bbc 0464 203d 2a11 83bc
000003a0: cc9c 673d f0ca 15bd 3809 bc3c 6c86 19bd
000003b0: d878 68bd 741b 183d 786a 4c3d d104 803c
000003c0: 9fad 7cbc 2108 05bd 15e6 913c 064c 833c
000003d0: 91eb 5e3c aa22 35bd 9273 4bbd d916 293d
000003e0: 8d61 74bc fe04 173d c9c5 5e3d e0b7 55bc
000003f0: 5509 2cbd 16ac b3bc 15fa 32bd 80d7 6cbc

complner.0.bias f4 [300]
0.022577632 -0.018007813 -0.032576624 0.007767874 0.044586536 -0.023442945 -0.050481837 0.011299402
0.05376091 0.027103173 0.018713053 0.04995837 -0.04799016 -0.013375687 -0.051950235 -0.015844483
-0.0317702 0.011669257 0.02576883 0.04168787 0.0033976112 -0.02226218 0.04543828 0.04433271
-0.029989904 -0.035246145 0.037992306 0.017116543 0.014699779 0.054871313 0.02750229 0.037029836
0.0020686649 -0.035032663 -0.04599178 -0.03072045 0.02221968 -0.043563798 0.054498035 -0.0013822537
-0.03509817 -0.041584443 0.03407468 0.0070354026 -0.02928151 0.02651821 -0.039963476 -0.0019771704
-0.044145923 0.011721845 -0.046909913 0.020417087 -0.0076433946 -0.045166474 0.0028507144 0.014998166
0.041794624 0.003620832 -0.024551664 0.046012715 0.053039245 0.021387456 -0.00641046 -0.0060692756
0.057142965 0.0034547877 0.033637807 0.03705923 0.0028177442 0.041776918 -0.045007784 0.04326932
-0.03905459 0.01518383 0.010454112 0.043877866 -0.02680774 0.029291851 -0.049923155 -0.039453227
0.051611554 0.024387954 -0.051728714 0.01939705 0.048433315 -0.022101015 -0.038161233 -0.0078918105
-0.056160565 0.054305635 0.041924834 -0.04411758 -0.0024918253 -0.011393447 -0.043222543 0.039207943
0.029989112 0.03122926 0.0019457024 -0.043328825 0.03913635 -0.03891966 0.0026711822 -0.05437995
0.035702642 0.035120018 -0.025070682 0.008271975 -0.0009585132 0.04452661 0.023215225 0.019997092
-0.019812033 0.012637408 -0.039794825 -0.022972193 -0.047399506 -0.056102052 -0.052367788 0.004857324
0.030698651 0.0123541355 0.030523228 -0.020720722 -0.04894643 0.047049794 0.02577776 -0.00044103406
0.056017756 -0.018467063 0.018258521 0.03783238 0.01088694 -0.02861404 -0.007956119 0.054614075
0.01896264 0.04660025 0.005162487 0.05673306 0.017744577 -0.014613094 -0.029815247 -0.020888098
0.006051623 0.044217296 -0.023214681 -0.019826157 0.049951512 -0.03680166 -0.056818046 0.057669528
0.03762338 0.02525726 0.049851906 0.056207225 0.038432207 -0.04186299 0.041938983 -0.009269851
-0.040697087 0.04420066 0.03693834 0.017565995 -0.003892859 -0.041409604 0.045107923 0.024159111
-0.004290067 -0.025368644 0.055778645 0.04168389 0.010811657 -0.04365673 0.045475204 0.0038517714
0.024082955 -0.01000128 0.032112706 0.053327102 -0.012073502 -0.01134168 0.03952826 0.048624016
0.018979087 -0.011105262 -0.03258094 -0.016240016 0.004684459 -0.019076949 -0.04902464 -0.014331459
0.036404945 -0.017783577 -0.014545202 -0.011178648 0.02120749 -0.042997677 -0.033536177 0.049113337
0.044895634 -0.048450522 -0.022270521 -0.05061659 -0.010779989 0.043853793 -0.05736937 -0.05283918
-0.0498534 -0.0537345 0.05055002 -0.013381346 -0.04794291 -0.009112049 -0.055563595 -0.05022726
-0.025837664 -0.03483635 0.009994769 -0.008205448 -0.028577477 0.022816457 0.04447681 0.021731423
0.017401606 0.0017300781 0.023622302 0.021522412 0.0462252 0.033657875 -0.0474422 0.038369402
-0.055636622 0.025200436 0.0077956854 0.011303383 -0.042550404 0.018849004 0.057073094 0.023753552
0.047433283 -0.034088496 -0.024124915 0.038287465 -0.056870025 -0.055908937 0.034765407 0.0021457153
0.031103535 0.01905629 0.0073509156 -0.053024095 0.049275585 -0.05383107 -0.007441029 0.0021763055
00000000: baf4 b83c 1f85 93bc 116f 05bd a689 fe3b
00000010: 5fa0 363d 6b0b c0bc 0bc6 4ebd 2121 393c
00000020: 6634 5c3d 7907 de3c 1e4c 993c 26a1 4c3d
00000030: 5491 44bd b325 5bbc c5c9 54bd 4acc 81bc
00000040: 7821 02bd 6930 3f3c 2719 d33c e6c0 2a3d
00000050: 75aa 5e3b 2d5f b6bc 7d1d 3a3d 3796 353d
00000060: 63ad f5bc 435e 10bd d29d 1b3d fe37 8c3c
00000070: 58d7 703c bec0 603d 7c4c e13c 99ac 173d
00000080: 7092 073b 697e 0fbd e061 3cbd 74a9 fbbc
00000090: 0c06 b63c f46f 32bd 5539 5f3d bd2c b5ba
000000a0: 19c3 0fbd 7354 2abd e491 0b3d 3c89 e63b
000000b0: c7df efbc b83c d93c beb0 23bd 6a93 01bb
000000c0: 5bd2 34bd fb0c 403c 9c24 40bd bc41 a73c
000000d0: 7175 fabb 7b00 39bd 0dd3 3a3b deba 753c
000000e0: d730 2b3d 7b4b 6d3b 9220 c9bc d477 3c3d
000000f0: ae3f 593d bf34 af3c d60e d2bb c6e0 c6bb
00000100: be0e 6a3d b869 623b ccc7 093d 6bcb 173d
00000110: e7a9 383b 461e 2b3d 155a 38bd 2c3b 313d
00000120: b5f7 1fbd 99c5 783c b947 2b3c 47b9 333d
00000130: e89b dbbc 77f5 ef3c 397c 4cbd b599 21bd
00000140: a366 533d 3fc9 c73c 7de1 53bd 90e6 9e3c
00000150: 0362 463d 300d b5bc f44e 1cbd a74c 01bc
00000160: 9f08 66bd 966f 5e3d 60b9 2b3d a3b4 34bd
00000170: e44d 23bb 95ab 3abc 1f0a 31bd 8298 203d
00000180: baab f53c 81d4 ff3c f006 ff3a 9179 31bd
00000190: 704d 203d 396a 1fbd 000f 2f3b 83bd 5ebd
000001a0: ef3c 123d 02da 0f3d 0861 cdbc 2e87 073c
000001b0: bb44 7bba 8961 363d db2d be3c f1d0 a33c
000001c0: d84c a2bc 220d 4f3c e6ff 22bd 2e30 bcbc
000001d0: fc25 42bd 44cb 65bd 9b7f 56bd 302a 9f3b
000001e0: bd7b fb3c 0069 4a3c d90b fa3c 81be a9bc
000001f0: 0d7c 48bd 49b7 403d e22b d33c 973a e7b9
00000200: e072 653d 3d48 97bc e592 953c 20f6 1a3d
00000210: 235f 323c fe67 eabc 625a 02bc 02b3 5f3d
00000220: 8a57 9b3c e7df 3e3d 142a a93b ed60 683d
00000230: 135d 913c c26b 6fbc 1b3f f4bc 841d abbc
00000240: b14c c63b 321d 353d b72c bebc 776a a2bc
00000250: f599 4c3d 56bd 16bd 0aba 68bd e236 6c3d
00000260: f91a 1a3d 50e8 ce3c 8331 4c3d 8c39 663d
00000270: 176b 1d3d 8778 2bbd 36c8 2b3d 93e0 17bc
00000280: fdb1 26bd c00b 353d a84c 173d 90e6 8f3c
00000290: 561f 7fbb 1e9d 29bd 16c3 383d 54e9 c53c
000002a0: b193 8cbb e7d1 cfbc 2678 643d babc 2a3d
000002b0: 6023 313c 66d1 32bd 3544 3a3d 006e 7c3b
000002c0: 9e49 c53c 69dc 23bc 9d88 033d 856d 5a3d
000002d0: f0cf 45bc 74d2 39bc 62e8 213d fa29 473d
000002e0: 087a 9b3c d8f2 35bc 9773 05bd c809 85bc
000002f0: 1780 993b 4347 9cbc 10ce 48bd 7fce 6abc
00000300: 5a1d 153d ddae 91bc 004f 6ebc a626 37bc
00000310: 54bb ad3c 551e 30bd 3b5d 09bd 112b 493d
00000320: 7ce4 373d 0e74 46bd ab70 b6bc 5753 4fbd
00000330: 8d9e 30bc 09a0 333d 25fc 6abd e56d 58bd
00000340: 1433 4cbd b518 5cbd 8a0d 4f3d 6f3d 5bbc
00000350: c95f 44bd b44a 15bc a796 63bd 19bb 4dbd
00000360: 82a9 d3bc 8fb0 0ebd 19c1 233c 2570 06bc
00000370: 501b eabc 94e9 ba3c 512d 363d 1906 b23c
00000380: d08d 8e3c cac3 e23a 8f83 c13c c54f b03c
00000390: a356 3d3d d7dc 093d c152 42bd 3c29 1d3d
000003a0: 3ae3 63bd 2571 ce3c f372 ff3b d331 393c
000003b0: 5549 2ebd 3a69 9a3c 7ac5 693d cf96 c23c
000003c0: 6749 423d 61a0 0bbd 9da1 c5bc 51d3 1c3d
000003d0: 8bf0 68bd c500 65bd 2c66 0e3d 219f 0c3b
000003e0: d7cc fe3c f01b 9c3c f3df f03b cb2f 59bd
000003f0: 32d5 493d f87d 5cbd e0d3 f3bb 59a0 0e3b

complner.2.weight f4 [1, 300]
0.018190557 -0.015598354 0.04789729 0.02982742 0.0076012122 -0.012377811 0.026181562 0.03117599
0.0064391023 0.015062577 0.0568918 -0.045822762 0.008975868 -0.010723201 0.0021623024 -0.038761914
-0.02963597 -0.013913911 -0.015810164 -0.00752614 0.049006186 -0.040727705 -0.009143369 -0.016181048
0.04015779 -0.039228123 0.03954042 0.02497468 -0.046143997 0.040809575 -0.057190355 0.02303079
-0.003689024 -0.031381328 0.029163761 -0.052161418 0.04579366 -0.0016698595 -0.017254319 -0.03096314
-0.03414251 -0.029661823 0.0034826177 -0.04173603 -0.046611283 -0.05278951 0.045569956 -0.04836042
0.012552804 -0.034660798 0.051809516 0.052474063 0.0072119813 0.03998742 -0.0036400068 -0.0041479366
0.03482423 -0.018620206 0.017069966 -0.05684961 -0.048060205 0.024026645 0.04666703 0.007348537
-0.021672435 -0.047880415 0.01793542 0.05334012 0.026781771 -0.04080056 -0.007155455 -0.017225748
-0.05265575 0.04138363 0.019280927 0.02112324 0.030636305 0.049001116 0.022342352 0.04527312
0.004955264 0.005966677 0.056499258 0.02535745 -0.04552025 0.05285105 -0.055344786 0.018716674
-0.047725637 -0.009704358 -0.03542553 0.01745199 0.015487085 0.05600625 0.055891097 0.008658009
-0.06026525 -0.039674744 -0.027957836 0.009887206 0.03761181 0.048482846 0.017013894 -0.011963354
0.030069998 0.01742549 0.042431623 0.033412714 -0.01769558 -0.024659388 -0.012577097 -0.03848191
-0.02664019 0.009052739 -0.013577128 -0.010430706 -0.0529939 -0.052232806 -0.020505607 -0.046597116
-0.013803312 -0.013987635 -0.0028153087 0.036325205 -0.026204707 0.037152242 -0.0143219875 0.03459113
0.05487329 -0.047495913 -0.018255282 0.041716576 -0.033287346 -0.033440705 0.032963626 -0.0070936186
0.05364591 -0.017044365 0.018759107 0.004969447 -0.006118172 0.011058341 -0.04510083 -0.034084585
0.049863197 0.010585454 0.026185133 0.010852343 -0.014718552 -0.024613727 -0.029576411 -0.024424357
0.03358532 -0.029648066 0.026524583 0.032032855 -0.04320837 0.017963009 -0.029637959 0.049082607
-0.037686065 -0.03517563 0.041291855 0.0072103566 0.029908072 0.05263017 -0.04897065 0.018594338
-0.042537272 0.004588206 -0.018789787 -0.0077098114 0.05090528 0.046867147 0.037453756 0.0141895935
0.042265523 -0.020436337 -0.010024149 0.04848153 0.049763773 0.003228457 -0.009390283 0.021892898
0.012419029 -0.034284335 -0.03022255 0.049547482 0.039009973 -0.0056555187 0.0021058887 -0.0022210993
0.048838027 -0.049438782 0.0320781 -0.025023324 0.05800902 0.0062699025 -0.02960133 0.04789182
-0.040027443 0.0153071415 -0.013716107 -0.01735103 0.03230736 0.049900312 0.04098546 0.03603381
0.03593565 -0.0341705 -0.0059857257 -0.035591774 -0.014009567 0.034906536 0.016901877 0.039113257
0.005600726 -0.053372893 0.044149026 -0.020946985 -0.03899667 -0.0152062755 -0.00789251 -0.036477525
0.034038458 -0.049583588 0.02702509 0.055529047 -0.024960635 -0.01792279 -0.05201517 0.0036182068
-0.014920644 0.03095074 0.02721384 0.038831703 0.013742559 0.03225253 0.051949695 -0.02611614
-0.036729347 -0.009725689 0.00794051 -0.02183415 -0.019632025 -0.01800007 -0.059506755 -0.04123065
0.04690455 -0.007756406 0.017083464 -0.009727513 -0.028388675 0.036506403 -0.031099593 -0.046504125
00000000: 5d04 953c 3d90 7fbc f32f 443d a258 f43c
00000010: 9713 f93b 4dcc 4abc b77a d63c ca64 ff3c
00000020: 1bff d23b 07c9 763c 6007 693d a6b0 3bbd
00000030: 850f 133c 5db0 2fbc 6ab5 0d3b d0c4 1ebd
00000040: 22c7 f2bc 2cf7 63bc 5184 81bc d79d f6bb
00000050: b6ba 483d 18d2 26bd 12ce 15bc 1e8e 84bc
00000060: 7f7c 243d abad 20bd 23f5 213d b397 cc3c
00000070: 7d01 3dbd f127 273d 6f40 6abd 11ab bc3c
00000080: 8dc3 71bb b589 00bd d7e8 ee3c 36a7 55bd
00000090: 2292 3b3d 30df daba ee58 8dbc 69a6 fdbc
000000a0: 04d9 0bbd 5afd f2bc a13c 643b 66f3 2abd
000000b0: 79eb 3ebd d039 58bd 90a7 3a3d 9315 46bd
000000c0: 47aa 4d3c 7bf8 0dbd 3736 543d 0bef 563d
000000d0: 7c52 ec3b d9c9 233d 2e8d 6ebb 6aeb 87bb
000000e0: daa3 0e3d 6789 98bc 50d6 8b3c 23db 68bd
000000f0: c7da 44bd 87d3 c43c ed25 3f3d ffcb f03b
00000100: 648a b1bc 411e 44bd 4ded 923c 2b7b 5a3d
00000110: 7265 db3c 7d1e 27bd 4f78 eabb 031d 8dbc
00000120: 8ead 57bd e281 293d 09f3 9d3c a50a ad3c
00000130: fdf8 fa3c 65b5 483d 4f07 b73c 4f70 393d
00000140: c45f a23b 1d84 c33b c46b 673d 6dba cf3c
00000150: 7173 3abd 587a 583d 37b1 62bd b653 993c
00000160: f57b 43bd 07ff 1ebc 5c1a 11bd 7af7 8e3c
00000170: 8bbd 7d3c cf66 653d 10ee 643d 52da 0d3c
00000180: b2d8 76bd fc81 22bd d507 e5bc f3fd 213c
00000190: d70e 1a3d f395 463d b960 8b3c f201 44bc
000001a0: 5b55 f63c e7bf 8e3c c8cc 2d3d c5db 083d
000001b0: 52f6 90bc 7c02 cabc 2b10 4ebc 359f 1dbd
000001c0: 873c dabc f051 143c 9a72 5ebc 8de5 2abc
000001d0: 2210 59bd 11f2 55bd 60fb a7bc 9edc 3ebd
000001e0: 4927 62bc 652c 65bc 0b81 38bb bdc9 143d
000001f0: 41ab d6bc f32c 183d c5a6 6abc 6eaf 0d3d
00000200: d1c2 603d 138b 42bd 1a8c 95bc 00df 2a3d
00000210: 5058 08bd 1ff9 08bd de04 073d 9671 e8bb
00000220: d0bb 5b3d a0a0 8bbc b3ac 993c bed6 a23b
00000230: f27a c8bb 0b2e 353c a6bb 38bd 479c 0bbd
00000240: 5a3d 4c3d 9d6e 2d3c 3482 d63c 07ce 313c
00000250: 1526 71bc baa2 c9bc 3b4a f2bc 9715 c8bc
00000260: c390 093d 80e0 f2bc 154a d93c e234 033d
00000270: 43fb 30bd 2927 933c 4ecb f2bc d80a 493d
00000280: b45c 1abd 5214 10bd a621 293d db44 ec3b
00000290: c601 f53c bc92 573d 7395 48bd 2753 983c
000002a0: 903b 2ebd a958 963b 0aed 99bc 96a2 fcbb
000002b0: 0e82 503d c4f7 3f3d 1c69 193d 787b 683c
000002c0: 9d1e 2d3d 1b6a a7bc 543c 24bc 9294 463d
000002d0: 19d5 4b3d 8594 533b b4d9 19bc bc58 b33c
000002e0: 2f79 4b3c bb6d 0cbd 4895 f7bc 4df2 4a3d
000002f0: ecc8 1f3d ee51 b9bb f302 0a3b dd8f 11bb
00000300: 620a 483d 5280 4abd 5364 033d b7fd ccbc
00000310: de9a 6d3d c173 cd3b 7d7e f2bc 372a 443d
00000320: d1f3 23bd ceca 7a3c 86b9 60bc bf23 8ebc
00000330: b954 043d 4564 4c3d 5fe0 273d 3098 133d
00000340: 4331 133d 5ef6 0bbd e823 c4bb aec8 11bd
00000350: 6288 65bc 28fa 0e3d ce75 8a3c 3935 203d
00000360: 4c86 b73b 899d 5abd 9cd5 343d 0399 abbc
00000370: f9ba 1fbd be23 79bc 964f 01bc 7569 15bd
00000380: e96b 0b3d 2918 4bbd b963 dd3c 6d72 633d
00000390: 3f7a ccbc d1d2 92bc dc0d 55bd 701f 6d3b
000003a0: b875 74bc 688c fd3c 8fef de3c fe0d 1f3d
000003b0: 7828 613c 3b1b 043d 34c9 543d 84f1 d5bc
000003c0: 8371 16bd 7f58 1fbc ea18 023c 88dd b2bc
000003d0: 57d3 a0bc e274 93bc 5bbd 73bd 78e1 28bd
000003e0: fc1e 403d 7329 febb 9ff2 8b3c 2660 1fbc
000003f0: 5e8f e8bc bd87 153d 93c4 febc 1c7b 3ebd
