MPSNN_Analytical_System/model/modeltrained_savetc200_1000.pt (torch_old, 162413 bytes, 3 tensors)

complner.0.weight f4 [200, 200]
0.07000121 0.11879526 -0.0039556557 0.05609265 -0.008501097 -0.07999534 -0.048465494 -0.05244302
-0.014909639 -0.074035995 -0.022111394 0.00023589164 0.04337879 0.123439185 0.0472282 0.07134751
0.08240667 -0.03593706 0.019087665 -0.08965325 0.014718883 -0.039521158 -0.09559626 -0.04315918
-0.017182223 -0.06317857 -0.019329727 -0.016677823 -0.041231684 0.06712382 0.008577023 -0.03983426
0.080769345 0.04953466 0.048984054 0.043531343 0.01607861 0.071395025 0.0811351 0.04454936
0.019164005 -0.066875294 -0.046499155 -0.04890942 -0.12258808 -0.103630036 -0.021942819 -0.008676495
0.005024666 0.035073638 0.008416258 0.13895115 0.048975103 0.09855163 0.07904328 0.040314008
0.005631558 -0.036649182 0.027471256 -0.0486611 -0.053389687 -0.050263554 -0.082897305 -0.04981187
-0.09705056 -0.050039522 -0.0013302016 -0.033174023 -0.08943996 0.0059704217 0.007909214 0.0691032
0.08893574 0.10817908 -0.016865345 0.09144999 0.060525 0.013064108 0.038362797 0.027920138
0.027198048 -0.049555134 -0.0689948 -0.03328119 -0.12869938 -0.08456832 -0.010178766 -0.07617985
-0.05458072 0.07262284 0.036515933 0.14535773 0.09234583 0.02586836 0.04416624 0.034524266
0.035591684 0.023613201 -0.054940503 -0.035744797 -0.09088739 -0.10475772 -0.0495249 -0.015699156
-0.015186644 0.031759843 0.047919925 0.0689 -0.03411219 0.0671125 0.07587652 0.09281661
0.008522767 -0.015369959 0.061283305 0.039711103 -0.04157426 -0.0455593 -0.013570301 -0.07227718
-0.049397577 0.011602863 -0.015948592 0.0120356325 -0.046214115 -0.10129934 -0.08824888 0.026027136
-0.028326964 0.063106 0.024564877 0.07194982 -0.025613384 0.01480956 0.070201695 0.03148022
0.011899717 0.037863173 0.045948904 -0.033696435 0.008589875 -0.07723247 0.01054196 0.016209818
-0.026408244 -0.10414514 -0.07186642 -0.0024508035 -0.019609949 0.00077016046 -0.010981111 0.027605891
0.087159954 -0.031571154 0.101909235 0.12047235 0.04834744 0.06679582 0.04681833 0.078118585
0.05668303 -0.019254394 -0.06702795 -0.03607975 -0.10025113 -0.04903958 -0.09217165 -0.037172176
-0.110447794 -0.06617582 -0.04960809 0.0057893367 0.0125685455 -0.029125731 0.054031756 0.051665094
0.044100877 0.04122066 -0.022345163 -0.061030705 0.016374048 0.027081294 0.05648756 0.018462932
0.06331478 0.012984964 0.076098256 0.03351918 -0.05670412 -0.011615532 -0.014957092 -0.039392173
-0.053634092 -0.04217216 0.08489666 -0.02700911 -0.0037584137 -0.015654923 0.05163724 0.025212325
-0.12007959 -0.11419017 -0.0575404 0.041198112 -0.010186773 -0.0034985524 0.1182541 0.034699317
0.11633735 0.023645354 -0.018151514 0.044486444 0.08562329 -0.04423661 0.015602809 0.014172102
0.04943289 -0.07439334 0.028834054 0.0072260383 -0.024216937 -0.08727316 0.014423294 -0.08030866
-0.04062115 -0.057729475 0.017724102 0.015178723 0.065884024 0.057494823 0.08347093 -0.03464053
0.039722595 -0.049605846 0.012626278 -0.06194361 0.03234014 -0.08519807 -0.053209975 -0.05629396
-0.031574294 0.013392615 -0.03575989 -0.026756857 0.049953286 0.08598585 0.057918437 0.10571121
0.06644753 0.044569958 0.049333774 0.010167633 -0.05042377 -0.0745047 -0.01522777 -0.016556555
00000000: cb5c 8f3d ee4a f33d 729e 81bb 68c1 653d
00000010: 2f48 0bbc 99d4 a3bd c183 46bd 7ece 56bd
00000020: 8f47 74bc 2fa0 97bd f422 b5bc ae59 7739
00000030: f5ad 313d afcd fc3d 5b72 413d a51e 923d
00000040: d4c4 a83d bd32 13bd bc5d 9c3c 209c b7bd
00000050: 7827 713c f0e0 21bd f9c7 c3bd aec7 30bd
00000060: bcc1 8cbc c463 81bd 6059 9ebc ee9f 88bc
00000070: 8ee2 28bd 3778 893d a486 0c3c 4029 23bd
00000080: 666a a53d dbe4 4a3d 81a3 483d ec4d 323d
00000090: 4ab7 833c 8e37 923d 292a a63d 6479 363d
000000a0: d5fd 9c3c eaf5 88bd e675 3ebd 3e55 48bd
000000b0: 760f fbbd fc3b d4bd 6dc1 b3bc dc27 0ebc
000000c0: f4a5 a43b 60a9 0f3d 58e4 093c 3649 0e3e
000000d0: 1e9a 483d 70d5 c93d 71e1 a13d 4d20 253d
000000e0: ef88 b83b 741d 16bd 660b e13c dd50 47bd
000000f0: 25af 5abd 28e1 4dbd 10c6 a9bd 8807 4cbd
00000100: 72c2 c6bd 3ef6 4cbd 295a aeba 7ce1 07bd
00000110: 4c2c b7bd 87a3 c33b a695 013c fb85 8d3d
00000120: f123 b63d fe8c dd3d 3129 8abc 224a bb3d
00000130: 10e9 773d d70a 563c 4f22 1d3d c6b8 e43c
00000140: 71ce de3c 53fa 4abd 254d 8dbd db51 08bd
00000150: c5c9 03be 2832 adbd d7c4 26bc 2e04 9cbd
00000160: 0890 5fbd 49bb 943d bb91 153d a8d8 143e
00000170: cf1f bd3d e2e9 d33c a9e7 343d 5169 0d3d
00000180: 96c8 113d 7970 c13c 4b09 61bd 2369 12bd
00000190: 2b23 babd 378b d6bd 9fda 4abd 849b 80bc
000001a0: 67d1 78bc 9c16 023d af47 443d 711b 8d3d
000001b0: 39b9 0bbd 4772 893d 2665 9b3d a316 be3d
000001c0: 13a3 0b3c 48d2 7bbc 3404 7b3d 1ca8 223d
000001d0: c549 2abd 639c 3abd f855 5ebc 0f06 94bd
000001e0: 1d55 4abd ef19 3e3c 9fa6 82bc 1a31 453c
000001f0: 034b 3dbd 0776 cfbd d4bb b4bd dc36 d53c
00000200: f30d e8bc b83d 813d 483c c93c 6d5a 933d
00000210: 29d3 d1bc cca3 723c e8c5 8f3d 67f1 003d
00000220: 08f7 423c 6a16 1b3d eb34 3c3d 4605 0abd
00000230: 8cbc 0c3c 0f2c 9ebd 2fb8 2c3c 74ca 843c
00000240: 1a56 d8bc 0c4a d5bd b42e 93bd a99d 20bb
00000250: 0ba5 a0bc 98e4 493a 1eea 33bc c025 e23c
00000260: eb80 b23d c150 01bd cab5 d03d 35ba f63d
00000270: f707 463d 3fcc 883d 94c4 3f3d a3fc 9f3d
00000280: 772c 683d 64bb 9dbc f345 89bd 5cc8 13bd
00000290: 7750 cdbd badd 48bd 7dc4 bcbd da41 18bd
000002a0: 7432 e2bd 3087 87bd da31 4bbd 7ab4 bd3b
000002b0: 4dec 4d3c 1699 eebc 6750 5d3d c79e 533d
000002c0: 1fa3 343d ffd6 283d 340d b7bc 55fb 79bd
000002d0: de22 863c 97d9 dd3c 805f 673d 933f 973c
000002e0: 2eab 813d e3be 543c 67d9 9b3d 684b 093d
000002f0: 9442 68bd 134f 3ebc 970e 75bc b059 21bd
00000300: 6caf 5bbd b7bc 2cbd 4dde ad3d 3642 ddbc
00000310: b84f 76bb c13e 80bc 9281 533d 148a ce3c
00000320: 4aec f5bd 89dc e9bd 7caf 6bbd 5abf 283d
00000330: 6ce6 26bc f847 65bb 352f f23d df20 0e3d
00000340: 4742 ee3d e7b3 c13c 7cb2 94bc 6b37 363d
00000350: 435b af3d 7331 35bd eda2 7f3c 1b32 683c
00000360: 247a 4a3d 895b 98bd 6535 ec3c 67c8 ec3b
00000370: 9962 c6bc 45bc b2bd ae4f 6c3c de78 a4bd
00000380: 5d62 26bd be75 6cbd 2332 913c 2eb0 783c
00000390: 34ee 863d b17f 6b3d cff2 aa3d 3ae3 0dbd
000003a0: 29b4 223d 802f 4bbd 73de 4e3c 95b8 7dbd
000003b0: 1877 043d 537c aebd b4f2 59bd 7f94 66bd
000003c0: 0c54 01bd b36c 5b3c f678 12bd 3231 dbbc
000003d0: d19b 4c3d 5919 b03d e23b 6d3d 1e7f d83d
000003e0: a515 883d fd8e 363d 3612 4a3d 2596 263c
000003f0: 2889 4ebd ec95 98bd e67d 79bc 9da1 87bc

complner.0.bias f4 [200]
-0.057201542 -0.009295006 0.0287771 -0.4343929 -0.0066498355 -0.056877546 -0.64131 -0.1028919
0.01615628 -0.026963936 -0.3959683 -1.1542563 -0.036579993 -0.6850719 -0.03774204 0.048904434
-0.003538904 -0.013832528 0.31284466 -0.02673023 0.33901381 -0.0072139245 0.33916852 -0.0068302345
-0.051649705 0.93421507 0.8988847 0.04638867 -0.052656855 -0.02200944 -0.072053686 0.018152732
0.0066654133 0.052411444 0.3564578 -0.51993316 -0.62876666 0.0019048539 -0.028520074 0.043471478
-0.0902351 0.018993894 0.013854472 -0.004546854 0.01649735 0.308801 0.3927371 -0.832585
-0.2780645 -0.020151416 0.010562191 0.049904212 -0.8185648 -0.03278901 -0.0277131 0.020670708
-0.015278159 -0.013431165 -0.056211602 -0.037726313 0.060410306 0.71127945 -0.5602602 0.02839332
-0.0132058505 0.07749576 0.009207838 -0.051438622 0.055188954 0.030568808 -0.8475889 -0.0029868376
-0.06603481 -0.012072189 -0.023233984 -0.005961037 -0.02580066 0.010241727 0.0042217183 -0.031160312
-0.007452082 -0.914742 0.012253598 -0.8279389 0.66119725 0.74504185 0.03253283 -0.006830923
-0.3866646 0.046413768 0.22177835 1.0370872 -0.0034754227 -0.025554333 0.27594787 -0.057910383
0.97106886 0.10102052 1.5097932 0.02186872 -0.039592378 -0.65771663 0.00085985166 -0.03912377
-0.02189183 -0.005568939 -0.014265412 -0.27613884 0.006187129 -0.05851932 0.45465058 0.007225348
-1.3902204 0.0026426525 0.03299789 -0.03278019 -0.7295244 -0.015139609 -0.8178752 0.020642966
-0.06810129 0.013125139 -0.89858603 -1.001453 0.008813275 0.664304 0.0011497358 -0.025375584
-0.028949441 1.102286 -0.009067164 0.052310042 0.30162248 0.356663 -0.101181485 0.050021127
-0.0031527132 -0.013711973 -0.9647375 0.13704662 -0.0010565356 -0.016300607 0.0028212282 0.030780366
1.1748432 0.018178098 0.053399358 -1.1124495 -0.03032931 -0.17620823 0.0028979403 -0.024743168
0.024136676 0.47046742 -0.09844855 -0.024882112 0.022362491 0.06534307 0.02091377 0.027539808
-0.011842822 0.023681924 0.035832483 0.0057393555 0.013666795 -0.035543136 -0.5417021 -0.86964566
0.08507172 -0.05773343 0.23256132 0.01077579 0.008561242 -0.009124175 -0.006234944 -0.011594184
0.014905516 0.036675896 -0.016639085 -0.008668497 -0.2240011 0.25389007 -0.037022926 0.013024115
0.0015708465 0.020120526 0.026567087 -0.020877462 -0.016344966 0.0485086 0.026437946 -0.025030365
-0.002803331 0.011767641 -0.0002501039 0.039332014 -0.0200819 0.020746278 0.019888334 -1.3703724
00000000: 2a4c 6abd 154a 18bc f4bd eb3c bf68 debe
00000010: dde6 d9bb 6ef8 68bd e42c 24bf fdb8 d2bd
00000020: 2d5a 843c 79e3 dcbc 5bbc cabe acbe 93bf
00000030: e7d4 15bd df60 2fbf 6697 1abd 0450 483d
00000040: f5ec 67bb d4a1 62bc 2d2d a03e 5bf9 dabc
00000050: 3893 ad3e c962 ecbb 7fa7 ad3e 29d0 dfbb
00000060: a48e 53bd b828 6f3f 4f1d 663f 0c02 3e3d
00000070: b7ae 57bd 244d b4bc e290 93bd 0ab5 943c
00000080: 8a69 da3b 62ad 563d a381 b63e 571a 05bf
00000090: daf6 20bf 4aac f93a eea2 e9bc 260f 323d
000000a0: 2ecd b8bd 1599 9b3c defd 623c c7fd 94bb
000000b0: 7325 873c 2a1b 9e3e d614 c93e 4a24 55bf
000000c0: 785e 8ebe 9514 a5bc 0a0d 2d3c 5c68 4c3d
000000d0: 768d 51bf c54d 06bd 9506 e3bc 9e55 a93c
000000e0: 3e51 7abc 640e 5cbc 233e 66bd e886 1abd
000000f0: cc70 773d 6916 363f 366d 0fbf 1c99 e83c
00000100: 5a5d 58bc 19b6 9e3d 79dc 163c 4eb1 52bd
00000110: d00d 623d 706b fa3c 96fb 58bf d2be 43bb
00000120: 423d 87bd 6eca 45bc 3255 bebc cd54 c3bb
00000130: e85b d3bc ebcc 273c 5756 8a3b e943 ffbc
00000140: 9830 f4bb 882c 6abf 51c3 483c cef3 53bf
00000150: 3944 293f 10bb 3e3f 2541 053d efd5 dfbb
00000160: e7f8 c5be 5d1c 3e3d dd19 633e 46bf 843f
00000170: ebc3 63bb 5257 d1bc 0a49 8d3e 7033 6dbd
00000180: f897 783f d9e3 ce3d e740 c13f 0826 b33c
00000190: 9e2b 22bd 1e60 28bf ab67 613a 3f40 20bd
000001a0: 7f56 b3bc a57b b6bb 7ab9 69bc 1262 8dbe
000001b0: 66bd ca3b f4b1 6fbd f6c7 e83e 9dc2 ec3b
000001c0: bef2 b1bf 5a30 2d3b cc28 073d 8544 06bd
000001d0: 1cc2 3abf 1f0c 78bc 4560 51bf 701b a93c
000001e0: b078 8bbd d30a 573c bc09 66bf 9d2f 80bf
000001f0: 8e65 103c d40f 2a3f bbb2 963a 75e0 cfbc
00000200: 6127 edbc b517 8d3f 718e 14bc 0e43 563d
00000210: 436e 9a3e 889c b63e 3d38 cfbd f4e2 4c3d
00000220: c09d 4ebb 2fa8 60bc 09f9 76bf f355 0c3e
00000230: 747b 8aba da88 85bc 5be4 383b 1b27 fc3c
00000240: 4361 963f 3cea 943c 49b9 5a3d bf64 8ebf
00000250: 2c75 f8bc ee6f 34be 5feb 3d3b 2fb2 cabc
00000260: 47ba c53c 1be1 f03e 659f c9bd 92d5 cbbc
00000270: 8b31 b73c 96d2 853d 5b53 ab3c 2a9b e13c
00000280: 6508 42bc 9800 c23c 15c5 123d 3411 bc3b
00000290: b1ea 5f3c ae95 11bd fdac 0abf 19a1 5ebf
000002a0: 153a ae3d e479 6cbd 8e24 6e3e f08c 303c
000002b0: 7444 0c3c 907d 15bc 804e ccbb 88f5 3dbc
000002c0: 4436 743c 7739 163d b14e 88bc 5006 0ebc
000002d0: 8b60 65be e1fd 813e 5aa5 17bd 1963 553c
000002e0: dde4 cd3a cdd3 a43c 38a3 d93c 3607 abbc
000002f0: e1e5 85bc f4b0 463d 6494 d83c 7b0c cdbc
00000300: 17b8 37bb 10cd 403c 6120 83b9 9b1a 213d
00000310: cc82 a4bc 19f4 a93c dcec a23c 5d68 afbf

complner.2.weight f4 [1, 200]
-0.0007599804 0.0005695297 0.0018341246 -0.05034507 -0.0006656991 6.115765e-07 -0.033941276 -7.236008e-05
-0.00066065334 -0.0005026978 0.043349702 -0.018464496 -0.0012681602 0.023770662 4.0764604e-05 0.0014932776
-0.00027978487 -0.00092958636 -0.028513495 0.0002783826 -0.026307559 -0.0009293681 0.030246252 -0.00024731574
-0.0013407648 0.04820715 -0.028322881 0.0009311059 -0.07157059 -0.00021252439 -0.030538784 -0.00032021376
-0.0005054111 0.00011228432 -0.028160362 0.016792195 0.02926827 -0.0006533404 -0.0018331474 0.00033422344
0.04349646 0.00017483914 -0.001318398 -0.0006697872 -0.00053515617 -0.020905152 0.032001983 0.030701341
-0.01687031 -6.887847e-05 0.025736906 0.0003310389 0.031254146 0.043703202 -0.0008628517 -0.0005296542
0.06600386 -0.00049283035 -0.0018725618 0.000102288395 -0.016355263 0.027473146 -0.030091148 -0.0006543463
-0.0004426826 0.0011142718 0.00031357174 0.000296969 0.0015946912 0.0012883439 -0.033132765 0.0005730656
-0.00040722758 -0.00025245585 0.0010903433 0.0018783602 -0.00073551876 -0.00040458862 -0.0013418538 0.00051528803
-0.0007368165 0.021258488 -0.00011546347 0.02392321 -0.05826556 -0.024461256 0.0010413204 0.00037289015
-0.0394385 -0.00015852725 -0.029954663 0.029265994 -0.00028815257 -0.00013053216 -0.026075032 -0.0012647081
0.029638361 0.056673083 0.028511204 -6.368323e-05 -0.00041917025 -0.021622643 -0.00034874806 -0.001099392
-0.0006921021 0.00068601244 0.00016782426 -0.023703255 0.0006936351 0.02999883 -0.028643228 -0.0005658761
0.0256658 0.00023172167 -2.605886e-06 -0.0011103527 -0.023427844 -0.0009017013 0.014040993 -0.0010664496
0.02542153 0.0006460369 0.020746447 0.02637457 0.00070926384 -0.03783891 -0.00018532106 -0.00017577178
-0.0003303278 -0.02417543 0.000153519 0.00035401652 -0.038831424 0.034602772 0.040891107 0.00088488334
-2.3426175e-05 0.0011012921 0.038895812 -0.00079212454 -0.00017166909 -0.00092734996 -0.0008881008 0.00043971604
0.024836421 -0.001134738 0.054674562 0.015832296 -0.00095421856 -0.045293167 0.0008649021 0.00065248954
0.0011364889 0.0349689 -0.025240766 -0.0014254481 -0.00053646043 0.0006090595 -0.0005929633 4.3395903e-05
0.00062839146 0.0005571977 -0.00022102075 -0.00071253313 0.001052749 -0.00075955834 -0.022575617 0.027704714
0.0010897446 2.5055937e-05 0.050997064 -0.0018508973 0.0003307442 -0.0013267061 -0.0011096299 -0.0003485026
0.00024495536 0.0007718224 -0.00087733386 0.0010544064 0.042534746 0.029418731 -0.0010539093 0.00024090272
-0.00030644468 5.510926e-05 -0.0003319717 -0.0011573542 -0.00041141367 4.7937538e-05 -3.9810362e-05 -0.00059189857
-0.0006436742 -0.00033089603 0.00056053395 0.0006631775 0.00018571987 -0.00015949199 0.00010765028 0.026046066
00000000: 6c39 47ba 7e4c 153a 0267 f03a a236 4ebd
00000010: 4f82 2eba 382b 2435 0206 0bbd 06c0 97b8
00000020: b22f 2dba 7ac7 03ba 758f 313d db42 97bc
00000030: 6538 a6ba b1ba c23c a9fa 2a38 15ba c33a
00000040: 17b0 92b9 7caf 73ba 2295 e9bc e1f3 9139
00000050: f382 d7bc d6a0 73ba fdc6 f73c 28aa 81b9
00000060: 9abc afba dc74 453d 6305 e8bc 7615 743a
00000070: 9a93 92bd 15d9 5eb9 792c fabc 5de2 a7b9
00000080: 917d 04ba 2f7a eb38 8fb0 e6bc c98f 893c
00000090: 03c4 ef3c ef44 2bba 3846 f0ba b63a af39
000000a0: 5829 323d 0655 3739 19ce acba a894 2fba
000000b0: b949 0cba 4841 abbc 8314 033d 6181 fb3c
000000c0: 9b33 8abc d972 90b8 34d6 d23c 4a8f ad39
000000d0: 5904 003d 2102 333d ff30 62ba 7ed8 0aba
000000e0: 082d 873d 4931 01ba bf70 f5ba aa83 d638
000000f0: 79fb 85bc 5d0f e13c b681 f6bc 7088 2bba
00000100: da17 e8b9 c20c 923a e366 a439 81b2 9b39
00000110: f504 d13a a6dd a83a 39b6 07bd c839 163a
00000120: 2981 d5b9 0d5c 84b9 dae9 8e3a 4f33 f63a
00000130: d4cf 40ba f71e d4b9 24e1 afba 6514 073a
00000140: eb26 41ba 4826 ae3c fa24 f2b8 9cfa c33c
00000150: dea7 6ebd f962 c8bc ea7c 883a 7880 c339
00000160: 448a 21bd 563a 26b9 7b63 f5bc 3dbf ef3c
00000170: 2f13 97b9 76df 08b9 4e9b d5bc 90c4 a5ba
00000180: 26cc f23c 0922 683d 5490 e93c ac8d 85b8
00000190: 14c4 dbb9 f821 b1bc 2cd8 b6b9 7919 90ba
000001a0: 306e 35ba 84d5 333a fbf9 2f39 542d c2bc
000001b0: 10d5 353a 1bc0 f53c 34a5 eabc 4d57 14ba
000001c0: 1541 d23c 50fa 7239 c8e0 2eb6 4189 91ba
000001d0: c0eb bfbc 2660 6cba 310c 663c 1cc8 8bba
000001e0: d040 d03c cd5a 293a 74f4 a93c 7b0f d83c
000001f0: e4ed 393a f9fc 1abd be52 42b9 614f 38b9
00000200: d92f adb9 8d0b c6bc f1f9 2039 4b9b b939
00000210: b30d 1fbd a3bb 0d3d 6f7d 273d 84f7 673a
00000220: 5483 c4b7 3b59 903a 3751 1f3d 94a6 4fba
00000230: 1202 34b9 6719 73ba 70cf 68ba b089 e639
00000240: c075 cb3c 7dbb 94ba 6ff2 5f3d bbb2 813c
00000250: 8624 7aba 5485 39bd 99ba 623a d50b 2b3a
00000260: 3df6 943a 8d3b 0f3d b9c5 cebc 1ad6 baba
00000270: 40a1 0cba 4ba9 1f3a 1871 1bba ff03 3638
00000280: a3ba 243a e810 123a cec1 67b9 4ac9 3aba
00000290: 65fc 893a 191d 47ba 80f0 b8bc fff4 e23c
000002a0: c3d5 8e3a 372f d237 4ce2 503d cf99 f2ba
000002b0: bc67 ad39 dfe4 adba 0071 91ba 3ab7 b6b9
000002c0: 5a6d 8039 2054 4a3a e1fc 65ba 0234 8a3a
000002d0: ea38 2e3d 8dff f03c 5423 8aba d59a 7c39
000002e0: 4faa a0b9 1e25 6738 7d0c aeb9 5db2 97ba
000002f0: 02b3 d7b9 8a10 4938 0dfa 26b8 a429 1bba
00000300: 3fbc 28ba 1d7c adb9 ccf0 123a 17d9 2d3a
00000310: ccbd 4239 4e3d 27b9 4ec2 e138 8f5e d53c
