MPSNN_Analytical_System/model/modeltrained_save.pt (torch_old, 41613 bytes, 3 tensors)

complner.0.weight f4 [100, 100]
0	0xbfab5f2c	-1.3388419
1	0x405983a1	3.398659
2	0x40ad98a9	5.4248853
3	0x40498c0e	3.1491733
4	0x405336d6	3.300222
5	0x40618bd1	3.5241587
6	0xc0193492	-2.3938336
7	0xc00723a9	-2.1115515
8	0xbf646494	-0.8921597
9	0x3edce26c	0.43141496
10	0xc093c34a	-4.617589
11	0x408d8b31	4.423241
12	0xc0be6724	-5.9500904
13	0xc083b321	-4.1156163
14	0xc034b6cb	-2.8236568
15	0xbe01e6a0	-0.12685633
16	0x404fc834	3.2465944
17	0xc035bd6f	-2.839687
18	0xc036ca7e	-2.8561091
19	0x3f1a009e	0.6015719
20	0xbf45b79b	-0.77233285
21	0x408eb5f4	4.459711
22	0x40c1b4b4	6.0533085
23	0xc0f48ab8	-7.6419334
24	0xc06e71b4	-3.72569
25	0x4120b627	10.044471
26	0xc024824a	-2.5704522
27	0x3fe2280d	1.7668473
28	0xc0f484f1	-7.641228
29	0x410441e1	8.266084
30	0x40e268eb	7.0753074
31	0xbe557fd9	-0.20849551
32	0xc0c03216	-6.006114
33	0xc0ab725e	-5.357711
34	0x402d24fc	2.7053823
35	0x412cb563	10.794284
36	0xbf882d8e	-1.0638902
37	0xbef49f79	-0.47777918
38	0x40c5adc4	6.1774616
39	0xbf810658	-1.0080061
40	0xc07b10d9	-3.9229033
41	0x3fac85fe	1.3478391
42	0x3f7f01cc	0.99612117
43	0xc0f03cc9	-7.50742
44	0x405206dd	3.281669
45	0xc007f572	-2.1243558
46	0x3f612079	0.87940174
47	0xc08712cd	-4.221045
48	0xc038d61b	-2.888068
49	0x3ea81454	0.3282801
50	0x4094946b	4.6431174
51	0xc0cef8bd	-6.4678636
52	0xc09325f7	-4.5983844
53	0x4080ef3e	4.0292044
54	0x3fdf8dbe	1.7465131
55	0xc00378cf	-2.0542486
56	0xc0a51281	-5.158509
57	0x411273d0	9.153275
58	0xc0d27008	-6.5761757
59	0x40f29bff	7.5815425
60	0x4095b189	4.677922
61	0xc00d6796	-2.2094474
62	0xc14f03f9	-12.93847
63	0xc07dec84	-3.9675608
64	0x4035f228	2.842905
65	0x41029756	8.161947
66	0x40ece48b	7.4028983
67	0xbf922be3	-1.1419643
68	0x406b559e	3.6771007
69	0xc13bb589	-11.73182
70	0xc0431050	-3.0478706
71	0x410886ef	8.532943
72	0xc081ea37	-4.0598407
73	0x40a93c01	5.2885747
74	0xbfde4720	-1.7365456
75	0x3f4929b4	0.7857926
76	0xc0716232	-3.7716184
77	0xc0ac806d	-5.390677
78	0xc08c7aa6	-4.3899717
79	0xc00e2f51	-2.221638
80	0xc0dd3938	-6.9132347
81	0x40580df2	3.3758512
82	0xc081e2e9	-4.058949
83	0x40c806a2	6.2508097
84	0x4035d0cc	2.840869
85	0x41328b80	11.159058
86	0x4082508b	4.072332
87	0xc0d0b3c9	-6.5219464
88	0x4105d591	8.36464
89	0x40d37661	6.6082006
90	0xc0c461fd	-6.1369615
91	0x409d3561	4.912766
92	0xc0028c2a	-2.039805
93	0xbf806e0a	-1.0033581
94	0x3e338613	0.17531614
95	0xc10469b8	-8.27581
96	0x40d02105	6.5040307
97	0xc0e9626f	-7.293266
98	0x405541c6	3.3321395
99	0xc0abc929	-5.3683057
100	0xbebf710a	-0.3739093
101	0x3e314c03	0.17314152
102	0xbf9fc6c2	-1.2482531
103	0x3fd192d2	1.6372931
104	0xbf781886	-0.9691242
105	0xbfdfa6b6	-1.7472751
106	0x3d8da387	0.06915956
107	0xbdaf0e28	-0.08547622
108	0xbf9cb4e1	-1.22427
109	0x3efb8f4e	0.4913277
110	0xbe085e7c	-0.13317293
111	0xbf290926	-0.66029584
112	0xbd9e0bb6	-0.077170774
113	0x3fa60cce	1.2972658
114	0xbfbceeb9	-1.4760352
115	0x3faee5b5	1.3663851
116	0xbf3988c1	-0.72474295
117	0xbf39ed0c	-0.7262733
118	0x3f0e2a7d	0.5553358
119	0x3fcb5684	1.5885777
120	0xbf6af70d	-0.9178322
121	0x3db08d1c	0.086206645
122	0x3f0807d3	0.5313694
123	0xbf8691c0	-1.0513229
124	0x40118b96	2.2741446
125	0xbf95587c	-1.1667628
126	0x3f75e070	0.9604559
127	0x3f085abf	0.5326347
128	0xbe4eccdf	-0.2019534
129	0xbf4b3698	-0.7938018
130	0x3f18f1db	0.5974404
131	0x3facda03	1.3504032
132	0x3f93d360	1.1548882
133	0xbea69193	-0.3253294
134	0xbf4332ac	-0.76249194
135	0x3f9fe581	1.2491914
136	0x3f79f5ed	0.9764088
137	0x3f055980	0.5208969
138	0x3e3e8b2c	0.18607777
139	0x3f832e21	1.0248452
140	0x3fa96ea5	1.3236891
141	0x3fae38d1	1.3611089
142	0x3e1cd7f2	0.15316752
143	0x3f977bb1	1.1834623
144	0xbdb8f7a3	-0.09031608
145	0xbd4656f0	-0.048422754
146	0x3e729d73	0.23692875
147	0xbecd5f79	-0.40111902
148	0xbf9ae9e4	-1.2102628
149	0xbfca36d8	-1.5797987
150	0x3fb22d07	1.3919991
151	0xbce16c6d	-0.027517522
152	0xbcd258b4	-0.025677063
153	0x404a6b74	3.1628084
154	0x3f906dde	1.1283529
155	0x3f24a551	0.6431475
156	0xbdade72f	-0.084913604
157	0xbf2cbbbf	-0.6747398
158	0xc008508f	-2.129917
159	0xbf73d8b6	-0.9525255
160	0xbf71845f	-0.9434261
161	0x3ee398a8	0.44452405
162	0xbf82962f	-1.0202082
163	0x3f36f6e5	0.7147048
164	0xbf2b4fa7	-0.66918415
165	0x3f498a51	0.7872668
166	0xbfd86000	-1.6904297
167	0x3f38a087	0.72119945
168	0xbd90c3aa	-0.0706857
169	0x3e94098a	0.28913528
170	0x3e365eb8	0.1780957
171	0x3ed94225	0.42433277
172	0xbffaf2ff	-1.9605407
173	0xbf0a2315	-0.5395978
174	0x3fa76901	1.307892
175	0x3e427211	0.18988825
176	0xbf3f7781	-0.74791723
177	0x3e099e40	0.13439274
178	0x3f8ffd91	1.1249257
179	0xbf629352	-0.8850604
180	0x3f681d9e	0.9067019
181	0xbefec3b5	-0.49758688
182	0xc03bc6a0	-2.933998
183	0xbf9eb4f7	-1.2398976
184	0xbf72125e	-0.94559276
185	0x3f40aef0	0.75266933
186	0x3fb767d5	1.4328562
187	0x3f24ef13	0.644273
188	0x3f8899d5	1.0671946
189	0x3fcd0149	1.6016017
190	0x40034c3f	2.0515287
191	0x3fe0f36d	1.7574288
192	0x3f4f1e72	0.8090583
193	0xbfc61d98	-1.5477781
194	0xbeb3c061	-0.3510771
195	0xbf87e6a4	-1.0617261
196	0xc0471037	-3.1103647
197	0xbfb9a4b4	-1.4503388
198	0xbf316bc7	-0.6930508
199	0x3baa58c9	0.0051985723
200	0xbe32f3d4	-0.17475826
201	0xbfbabbae	-1.4588525
202	0x3f76175e	0.96129405
203	0x3fa22cf3	1.2669967
204	0xbf8f91af	-1.1216334
205	0x3d48db9c	0.04903756
206	0x3ec09220	0.37611485
207	0x3e9e7339	0.30947283
208	0xbeb291bb	-0.3487681
209	0xbf4cbf06	-0.7997898
210	0x3f539e61	0.8266354
211	0x3f2da268	0.6782594
212	0xbee36de4	-0.44419777
213	0xbf03c964	-0.5147917
214	0xbdbc0f86	-0.09182648
215	0x3f1c5082	0.61060345
216	0x3e71156f	0.23543333
217	0x3f5550ee	0.83326614
218	0xbf045b65	-0.51701957
219	0x3d2b9044	0.04188563
220	0x3eb86b90	0.36019564
221	0x3f34f799	0.70690304
222	0x3fa922a1	1.3213693
223	0xbf150899	-0.58216244
224	0x3f5a4548	0.85261965
225	0x3f1ab27a	0.60428584
226	0xbd09e72e	-0.033667736
227	0x3dbd7a3a	0.092518285
228	0xbf8cf089	-1.1010906
229	0x3e2be1fa	0.16785422
230	0x3f50dc56	0.81586206
231	0x3f1b029e	0.6055087
232	0x3f495dcf	0.78658766
233	0xbed514ec	-0.41617525
234	0xbfbe73eb	-1.4879125
235	0x3d592311	0.053011958
236	0x3ddafb23	0.10692432
237	0x3e8730ce	0.26404423
238	0x3cda5ec8	0.026656523
239	0x3de17a49	0.11009652
240	0x3db99d5f	0.09063219
241	0xbd33a356	-0.04385694
242	0x3da73118	0.08163661
243	0x3f66d2d4	0.9016545
244	0x3f255b92	0.6459285
245	0x3de3051c	0.11084959
246	0x3f732787	0.9498219
247	0x3d98c408	0.07459265
248	0x3ef01f95	0.46899095
249	0x3f0631a8	0.5241952
250	0x3e33ab3c	0.1754579
251	0x3d787123	0.06065477
252	0xbf08d2a9	-0.5344644
253	0xbfab6f05	-1.3393255
254	0x3ea0bd99	0.31394652
255	0x3e3dc344	0.18531519

complner.0.bias f4 [100]
0	0xc0bff998	-5.999218
1	0xc21b1f8f	-38.78082
2	0xc20748eb	-33.82121
3	0xc22079f4	-40.119095
4	0x411dac68	9.854591
5	0x4226ce92	41.70173
6	0x42235799	40.835545
7	0xc2122f4a	-36.54618
8	0xc21e3961	-39.556034
9	0x420f0d26	35.76284
10	0x40bc6de5	5.888415
11	0x422c439a	43.066017
12	0xc1883a69	-17.02852
13	0x42110e75	36.26412
14	0xc16aad0f	-14.667251
15	0xc1eb5307	-29.41554
16	0xc220d68b	-40.209515
17	0x4210d7ab	36.210613
18	0x418125f0	16.143524
19	0x41bf5715	23.91752
20	0x4219a876	38.414513
21	0x421e6d5c	39.606796
22	0xc2277e3e	-41.873283
23	0xc190d702	-18.104984
24	0xc16b2853	-14.697345
25	0xc227027a	-41.75242
26	0x42204aaf	40.072933
27	0x4171abb2	15.104418
28	0x4223b2d4	40.924637
29	0x410bb14d	8.730786
30	0xc21c68b2	-39.10224
31	0xc1c9fd12	-25.24857
32	0x41bdea57	23.739424
33	0xc1e19880	-28.199463
34	0xc21d7c48	-39.37137
35	0x41880446	17.002087
36	0x40985f16	4.761607
37	0x41668821	14.408235
38	0x42061f93	33.530834
39	0x4228d3cb	42.20683
40	0x422e309a	43.547462
41	0xc152a9a1	-13.166413
42	0x421da6eb	39.413006
43	0x4002a756	2.0414634
44	0xc22044e4	-40.067276
45	0xc1457133	-12.340137
46	0x41a75033	20.91416
47	0x41b1d68d	22.229761
48	0x42299e28	42.40445
49	0x4052ef64	3.2958612
50	0x41b7941b	22.947317
51	0xc2021775	-32.522907
52	0xc1a99fae	-21.202969
53	0x4228f767	42.241604
54	0x41db9f7d	27.452875
55	0xc226ee2f	-41.7326
56	0xc0054f5d	-2.082969
57	0xc1933381	-18.400148
58	0xc20cc168	-35.188873
59	0xc2128ab5	-36.635456
60	0x4100ade5	8.042455
61	0x4199c920	19.223206
62	0x41ce0263	25.751165
63	0xc175fc9e	-15.374174
64	0xc2166c16	-37.605553
65	0xc163500a	-14.207041
66	0xc229b1ae	-42.423515
67	0xc0a52aae	-5.16146
68	0xc2184b2d	-38.073414
69	0xc1be6bbd	-23.802607
70	0xc2109003	-36.140636
71	0xc1e13a8c	-28.153587
72	0x421d9a04	39.400406
73	0x412220b2	10.132982
74	0x41ad715b	21.68035
75	0xc0ac6d35	-5.388331
76	0xc22832fd	-42.049793
77	0xc21e1231	-39.517765
78	0xc1b07c8e	-22.060818
79	0x42213fa6	40.312157
80	0x42201479	40.019993
81	0xc229c4b6	-42.4421
82	0x4217af6e	37.921318
83	0xc21661b6	-37.59542
84	0x4222adf6	40.669884
85	0xc22a3e46	-42.560814
86	0xc12385e6	-10.22019
87	0x420d046d	35.254322
88	0xc1d20824	-26.253975
89	0x42179ad7	37.90121
90	0xc180d791	-16.105257
91	0x4213f559	36.989597
92	0xc2194e5f	-38.326534
93	0xc16803a8	-14.500893
94	0xc13cb72f	-11.794723
95	0x41a465f8	20.54979
96	0x421e5e06	39.59182
97	0xc21ce1df	-39.220577
98	0x41867374	16.806374
99	0xc19ddf3f	-19.734007

complner.2.weight f4 [1, 100]
0	0xbed38794	-0.41314375
1	0xc0dd16dc	-6.9090405
2	0xc1037489	-8.215951
3	0xc10e5a4a	-8.897043
4	0x3f1260b3	0.571788
5	0x4102f100	8.183838
6	0x40e6e037	7.21487
7	0xc1059dcc	-8.351025
8	0xc10ff707	-8.997809
9	0x41049c28	8.288124
10	0xbf225ab8	-0.63419676
11	0x40ed6309	7.4183393
12	0xbf03fec5	-0.5156062
13	0x4100e076	8.0548
14	0xbf0889ca	-0.5333525
15	0xbf1028a2	-0.56312
16	0xc0f696e0	-7.7059174
17	0x40f5cde8	7.681385
18	0x3ef3819f	0.4755983
19	0x3f07af76	0.5300211
20	0x4100db12	8.053484
21	0x41036910	8.21315
22	0xc0f6cc38	-7.712429
23	0xbef77cab	-0.48337302
24	0xbf0338a2	-0.5125829
25	0xc103eea4	-8.245762
26	0x40fa1b68	7.8158455
27	0x3f1347f0	0.5753164
28	0x4106d0a4	8.425938
29	0x3f1bfc80	0.6093216
30	0xc10425f3	-8.259265
31	0xbefe4c6b	-0.49667677
32	0x3f072c83	0.52802294
33	0xbeffac53	-0.4993616
34	0xc1197df9	-9.593255
35	0x3f08e4dc	0.5347421
36	0x3f0618b7	0.5238146
37	0x3f006577	0.50154823
38	0x4100d914	8.052998
39	0x4100ed4f	8.057937
40	0x40b1aad6	5.552104
41	0xbedff5a1	-0.43742087
42	0x4102fcd8	8.186729
43	0xc31839f2	-152.22635
44	0xc0e1489a	-7.0401125
45	0xbf111c31	-0.5668364
46	0x410a023f	8.625548
47	0x3f0cf2b6	0.5505785
48	0x410689b2	8.408617
49	0x3f0fa917	0.56117386
50	0xc2a004ea	-80.0096
51	0xc10517fe	-8.318357
52	0xc102fcd5	-8.186727
53	0x410c44ef	8.7668295
54	0xc2ad5697	-86.66912
55	0xc10b1d91	-8.694718
56	0x430f32d3	143.19853
57	0xbf0f115c	-0.55885863
58	0xc0fdb81c	-7.9287243
59	0xc0ed1a12	-7.4094324
60	0x3f0dedcf	0.5544099
61	0x3f088045	0.53320724
62	0x3f0e690c	0.5562904
63	0xbf0e1312	-0.5549785
64	0xc0e4ca6a	-7.1497087
65	0xbf0ee24b	-0.55814046
66	0xc0f36d77	-7.6071124
67	0xbf0a06af	-0.5391645
68	0xc0fcb3bf	-7.8969417
69	0xc107f02d	-8.496137
70	0xc1026dd8	-8.151817
71	0xbf048078	-0.5175853
72	0x40f7d493	7.744699
73	0x3f01e91e	0.50746334
74	0x40f5bba7	7.679157
75	0xbf165aa2	-0.58732045
76	0xc108a0bc	-8.539242
77	0xc0fb336b	-7.8500266
78	0xbee49d8f	-0.44651458
79	0x4106a7f0	8.416
80	0x4107f465	8.497167
81	0xc0f841ef	-7.7580485
82	0x41004b5c	8.018398
83	0xc1086a98	-8.526024
84	0x4100db41	8.053529
85	0xc104c569	-8.298196
86	0xbf04befb	-0.51853913
87	0x410afd14	8.686787
88	0xbf1865e3	-0.59530467
89	0x40fdd61b	7.932386
90	0xbf026f66	-0.5095123
91	0x410825ed	8.509259
92	0xc0faeb9c	-7.841261
93	0x3f02b51d	0.51057607
94	0xbee96f4a	-0.4559272
95	0x3f06b14d	0.5261429
96	0x40ffb43d	7.9907517
97	0xc10bbe3a	-8.733942
98	0x3f1110e0	0.56666374
99	0xbf0a9005	-0.54126006
