LVFFN_Inverter/model/j20m40a855inv_all_batch100.pt (torch_old, 2573 bytes, 3 tensors)

complner.0.weight f4 [20, 20]
0.101741195 -0.015576682 -0.17536582 -0.18212959 -0.19838005 0.013379611 0.09973547 0.07533089
-0.21336526 0.1889772 0.1173168 -0.106337324 -0.13612077 0.017106453 0.10173724 -0.19600862
0.041900903 -0.044762526 -0.18770334 0.18055609 0.13107237 0.1432081 -0.13357241 0.18734546
0.1921744 0.14471836 0.08111525 0.2149318 0.05491333 0.09925997 0.14687482 -0.030082393
-0.1184572 0.17153461 -0.031166615 -0.20475489 0.11533029 0.069362335 0.025149846 -0.08996111
0.16951762 0.09577902 -0.1316003 0.034014247 0.085115954 -0.22768304 0.13652806 -0.14488153
-0.07792134 0.072081186 -0.08469512 -0.10347649 -0.21268165 -0.14173715 0.0040878155 -0.21886028
-0.114874795 0.0876941 0.15121898 -0.12446479 -0.07039173 0.04926241 -0.05860974 -0.09254883
-0.05285631 0.02640188 -0.029738016 -0.15901929 0.23601882 0.023853052 -0.2173641 -0.064788505
0.03258973 -0.15494302 -0.047595922 0.042964388 0.08259972 -0.06447093 0.23680955 0.18230605
0.17958613 -0.17001301 0.15833022 -0.22964025 0.21894597 -0.19441223 0.0640868 -0.10639201
0.11154658 -0.015159547 0.1744966 -0.119250454 -0.02431557 -0.09889245 0.10036167 -0.06224743
0.14578365 -0.055037085 0.073880926 0.014843674 -0.046018496 0.13384432 0.058212407 0.18752864
-0.024867933 0.016471583 0.062414374 -0.098957375 0.03492306 -0.06692906 -0.10765899 -0.20033225
-0.10249695 -0.05957674 -0.16395277 -0.14031592 0.14718066 0.021991236 -0.1333364 -0.22914393
0.06433416 -0.13610873 0.111282416 -0.28472596 0.05006868 0.06454469 0.08221541 0.21768296
-0.1820963 0.09954459 0.015815295 0.0013401979 -0.04697145 -0.22152266 -0.026885664 0.28996995
-0.08555143 -0.26049048 -0.014151083 0.1735412 -0.12346253 0.20380557 -0.15778852 0.031599544
0.12592088 -0.08269865 0.103424706 0.12370557 -0.013436183 -0.25081432 -0.0073212557 -0.00803063
0.12438985 -0.14007473 -0.07101625 -0.093806565 -0.018958254 -0.16768065 -0.11892411 -0.21527603
-0.087528504 0.083753735 -0.18995005 0.07828768 0.078556776 0.19761154 0.11578611 0.0394927
0.1319442 -0.18816233 -0.08556468 -0.01927672 0.04150825 -0.085694 0.14683166 0.09896823
-0.2483899 0.0011362844 0.07590771 -0.15302685 -0.062290672 -0.28319052 -0.05002737 -0.325765
0.11589143 0.06597152 0.20514914 0.0356755 0.09447232 -0.102658466 -0.33363253 -0.12678023
0.2568551 -0.15486208 -0.0077261725 0.032869685 -0.35510236 -0.29905435 0.018106923 0.01883036
0.11952116 0.1359725 -0.22142194 0.24171254 0.13422465 -0.056591015 -0.13680626 -0.010770252
-0.019910982 -0.020251645 0.16158998 0.054996017 -0.26871657 -0.0057092654 0.08796843 -0.034876004
0.061186932 -0.002910565 -0.16898954 -0.04096063 0.18112384 -0.06594521 0.17564213 -0.04510514
0.07251434 0.15154345 0.17539103 0.16905387 -0.06952948 0.16560878 0.1476575 -0.19841301
-0.10979543 -0.050721277 -0.08736032 -0.2268419 -0.11193024 -0.008648739 0.2202361 -0.19796534
-0.039937668 0.08614196 -0.026608434 0.1482185 -0.1973141 -0.21100414 0.2569012 0.120744996
0.13119528 -0.005689644 -0.092029855 -0.046631027 -0.1441031 -0.11831905 0.06378933 0.25838745
00000000: b05d d03d 5735 7fbc 1993 33be 2e80 3abe
00000010: 2424 4bbe 2836 5b3c 1c42 cc3d 1547 9a3d
00000020: 6c7c 5abe 3d83 413e ca43 f03d 62c7 d9bd
00000030: 3e63 0bbe d522 8c3c 9d5b d03d 7cb6 48be
00000040: 48a0 2b3d e958 37bd 4e35 40be b2e3 383e
00000050: d637 063e 25a5 123e 35c7 08be 7dd7 3f3e
00000060: 5ec9 443e 0d31 143e c11f a63d 1517 5c3e
00000070: cdec 603d d048 cb3d 5a66 163e 5a6f f6bc
00000080: b099 f2bd c5a6 2f3e 2151 ffbc 44ab 51be
00000090: 4932 ec3d d70d 8e3d 0d07 ce3c 883d b8bd
000000a0: 0796 2d3e ca27 c43d 3bc2 06be 8652 0b3d
000000b0: 4651 ae3d be25 69be 03ce 0b3e d35b 14be
000000c0: 3995 9fbd 4d9f 933d a374 adbd 7beb d3bd
000000d0: 38c9 59be 8b23 11be 15f3 853b e91c 60be
000000e0: 7a43 ebbd f798 b33d 26d9 1a3e 65e7 febd
000000f0: 8a29 90bd 61c7 493d c410 70bd 3e8a bdbd
00000100: dc7f 58bd c148 d83c 249d f3bc f4d5 22be
00000110: ebae 713e 7a67 c33c b294 5ebe d6af 84bd
00000120: cf7c 053d 62a9 1ebe f1f3 42bd 6dfb 2f3d
00000130: 0b2a a93d 5609 84bd 347e 723e 70ae 3a3e
00000140: 6de5 373e e417 2ebe 5121 223e d026 6bbe
00000150: 5f33 603e 0014 47be f13f 833d 0ee4 d9bd
00000160: 8972 e43d c05f 78bc 3daf 323e 9539 f4bd
00000170: 7231 c7bc 2088 cabd 6b8a cd3d 29f7 7ebd
00000180: 4f48 153e 916e 61bd e24e 973d e232 733c
00000190: e47d 3cbd 7c0e 093e 2270 6e3d 8207 403e
000001a0: d6b7 cbbc 6aef 863c 37a6 7f3d 2aaa cabd
000001b0: 7c0b 0f3d 1a12 89bd 517c dcbd e623 4dbe
000001c0: ece9 d1bd bd06 74bd 3ce3 27be faae 0fbe
000001d0: 87b6 163e f726 b43c 5689 08be b5a4 6abe
000001e0: a1c1 833d 1660 0bbe 09e8 e33d 9ac7 91be
000001f0: d114 4d3d 0230 843d 8e60 a83d 48e8 5e3e
00000200: 7477 3abe 09de cb3d 148f 813c 94a9 af3a
00000210: 2365 40bd d6d6 62be 533f dcbc f176 943e
00000220: 9735 afbd 025f 85be f2d9 67bc c9b4 313e
00000230: ecd9 fcbd 68b2 503e 5093 21be 866e 013d
00000240: 67f1 003e e95d a9bd 55d0 d33d 5959 fd3d
00000250: 7023 5cbc bc6a 80be 25e7 efbb e792 03bc
00000260: 1bc0 fe3d c06f 0fbe f870 91bd a81d c0bd
00000270: 574e 9bbc 7ab4 2bbe 7c8e f3bd 5271 5cbe
00000280: 2542 b3bd 1487 ab3d 4482 42be 4b55 a03d
00000290: 60e2 a03d ae5a 4a3e 4521 ed3d 19c3 213d
000002a0: 611c 073e a0ad 40be 893c afbd 36ea 9dbc
000002b0: 8e04 2a3d 5680 afbd 0a5b 163e dbaf ca3d
000002c0: ec59 7ebe 61ef 943a 8075 9b3d 12b3 1cbe
000002d0: 8124 7fbd 59fe 90be 80e9 4cbd acca a6be
000002e0: 7c58 ed3d 141c 873d 9e12 523e 7920 123d
000002f0: b47a c13d 9a3e d2bd e2d1 aabe add2 01be
00000300: 8382 833e 2a94 1ebe d52b fdbb 5da2 063d
00000310: facf b5be a71d 99be f854 943c 2142 9a3c
00000320: 83c7 f43d 603c 0b3e 6fbc 62be 7e83 773e
00000330: 3072 093e fbcb 67bd f116 0cbe b675 30bc
00000340: 5b1c a3bc c7e6 a5bc d877 253e 8143 613d
00000350: 3895 89be ca14 bbbb cb28 b43d 24da 0ebd
00000360: 269f 7a3d 2dbf 3ebb 980b 2dbe 55c6 27bd
00000370: 8778 393e 480e 87bd 88db 333e 2bc0 38bd
00000380: 6682 943d 352e 1b3e b599 333e 751c 2d3e
00000390: 7965 8ebd 5995 293e 8733 173e c82c 4bbe
000003a0: 6ddc e0bd 1dc1 4fbd f8e9 b2bd 3e49 68be
000003b0: af3b e5bd 71b3 0dbc 9285 613e 6db7 4abe
000003c0: ae95 23bd 326b b03d eef9 d9bc 97c6 173e
000003d0: b50c 4abe 7811 58be 8e88 833e 2749 f73d
000003e0: 0e58 063e 3170 babb 267a bcbd 2d00 3fbd
000003f0: c38f 13be 4251 f2bd fba3 823d 5c4b 843e

complner.0.bias f4 [20]
-0.018591747 -0.33833042 0.031557765 -0.019334318 -0.0992144 0.0881409 0.4649393 -0.112588316
-0.27775347 -0.48842794 0.55781984 0.16924009 -0.14350921 -0.124258325 0.53832376 -0.06375829
-0.61057967 -0.25860587 -0.21558382 0.15771383
00000000: b84d 98bc a539 adbe b742 013d 0163 9ebc
00000010: eb30 cbbd 3783 b43d 860c ee3e b494 e6bd
00000020: b435 8ebe 3a13 fabe 48cd 0e3f 464d 2d3e
00000030: 14f4 12be 267b febd 96cf 093f b593 82bd
00000040: f34e 1cbf fd67 84be 01c2 5cbe bc7f 213e

complner.2.weight f4 [1, 20]
-0.06305804 -0.15719134 -0.13303682 -0.16105619 -0.17889096 0.26501426 0.38837984 -0.16594641
0.23397367 -0.09590986 0.0256132 0.048280764 -0.22459324 0.22861396 0.352035 -0.018513804
-0.15558854 -0.05434876 -0.10207098 0.059448212
00000000: 9324 81bd c4f6 20be ce3a 08be eaeb 24be
00000010: 312f 37be f3af 873e b9d9 c63e dbed 29be
00000020: cb96 6f3e 646c c4bd c6d2 d13c 0dc2 453d
00000030: c5fb 65be c719 6a3e ee3d b43e 43aa 97bc
00000040: 9a52 1fbe ce9c 5ebd 970a d1bd f87f 733d
