LVFFN_Inverter/model/j20m40a855inv_all.pt (torch_old, 2573 bytes, 3 tensors)

complner.0.weight f4 [20, 20]
0.10695939 -0.0080682 -0.17940938 -0.18718313 -0.19197163 0.01718067 0.10581545 0.05711458
-0.21785696 0.18360312 0.107799515 -0.08412289 -0.13169721 0.022197321 0.110427685 -0.17802343
0.032285694 -0.044624235 -0.18851136 0.17843294 0.13605171 0.13397078 -0.13973917 0.18210474
0.19238451 0.14829826 0.08728301 0.21383311 0.05310121 0.09507793 0.13719797 -0.02733108
-0.11826909 0.17470755 -0.024003102 -0.17614074 0.119030476 0.07011617 0.0230932 -0.09493185
0.1705101 0.09169471 -0.13701159 0.027445711 0.08922982 -0.22487856 0.14336428 -0.15209544
-0.079815246 0.069164485 -0.093838155 -0.095047265 -0.20903786 -0.13743933 0.011995856 -0.18959929
-0.11423994 0.08837354 0.15068358 -0.1265866 -0.07103531 0.05107282 -0.055849344 -0.08928526
-0.05847308 0.02408211 -0.028716512 -0.1506127 0.24066564 0.018160038 -0.23422003 -0.081285045
0.022651464 -0.15656468 -0.023166656 0.07515176 0.105702534 -0.04916784 0.2445451 0.17500544
0.17964071 -0.17313212 0.15621808 -0.22216767 0.2229254 -0.19402808 0.05431423 -0.1096444
0.10887819 -0.014980231 0.18109071 -0.11630341 -0.022158876 -0.09957561 0.08716439 -0.06481351
0.14056158 -0.059378322 0.06983863 0.01419346 -0.04809006 0.13923596 0.058939528 0.16365871
-0.028199174 0.01166914 0.068620086 -0.09925963 0.03837326 -0.059424397 -0.10482613 -0.19095805
-0.10037497 -0.062192153 -0.17518438 -0.14336416 0.14025317 0.020079806 -0.13112132 -0.22101393
0.068291254 -0.12957804 0.1122897 -0.2900336 0.039342362 0.0625869 0.081145376 0.22157054
-0.17570354 0.10380877 0.021385368 0.0015877809 -0.055533826 -0.22351436 -0.030633267 0.28439885
-0.06966567 -0.25602254 -0.016607486 0.16941181 -0.12798843 0.20850982 -0.15494026 0.029523605
0.1177021 -0.08814482 0.10144642 0.12740546 -0.008531739 -0.24902804 -0.008091709 -0.011198658
0.11684976 -0.14533925 -0.07634293 -0.098832384 -0.030914862 -0.17073947 -0.12290015 -0.21888433
-0.087835506 0.085485615 -0.18582828 0.08216681 0.09282537 0.20214374 0.11924839 0.04149391
0.12862064 -0.1933225 -0.09174316 -0.037290186 0.043123998 -0.07957542 0.157812 0.12627551
-0.2104661 0.0135254245 0.08203876 -0.15164728 -0.07049832 -0.29543084 -0.04792838 -0.31604993
0.11827317 0.06730794 0.20007476 0.03451479 0.09069054 -0.109070666 -0.33659846 -0.14138891
0.25352576 -0.15289716 -0.0020172894 0.02378812 -0.3495074 -0.30047935 0.012633084 0.011038331
0.13035981 0.14528582 -0.2246147 0.23752992 0.12725921 -0.056838345 -0.14039312 -0.013773082
-0.02336444 -0.02181921 0.16892295 0.065802336 -0.26068488 0.0012151914 0.09369303 -0.03063667
0.059020724 -0.00712606 -0.17351018 -0.04538694 0.19058172 -0.06557878 0.17999478 -0.038422268
0.07475032 0.14837967 0.17026961 0.16938879 -0.06580789 0.1706709 0.1408636 -0.20539999
-0.11877684 -0.061006773 -0.10177827 -0.22568308 -0.10531837 0.00053925643 0.23146142 -0.18247563
-0.03629647 0.088985905 -0.024224525 0.14974277 -0.20359665 -0.21543986 0.2541027 0.1295501
0.13708793 -0.0043579456 -0.0995601 -0.0622377 -0.15439141 -0.1251424 0.06298597 0.2609575
00000000: 860d db3d 7c30 04bc 18b7 37be efac 3fbe
00000010: 3694 44be 7abe 8c3c c5b5 d83d faf0 693d
00000020: e515 5fbe 7502 3c3e fec5 dc3d 9f48 acbd
00000030: a2db 06be 28d7 b53c e927 e23d c64b 36be
00000040: 013e 043d e7c7 36bd 1f09 41be 20b7 363e
00000050: 2451 0b3e a32f 093e c917 0fbe aa79 3a3e
00000060: 7200 453e 80db 173e 6fc1 b23d 11f7 5a3e
00000070: a880 593d 38b8 c23d a07d 0c3e 6ee5 dfbc
00000080: 1137 f2bd 89e6 323e 27a2 c4bc 3d5e 34be
00000090: 40c6 f33d 1199 8f3d f32d bd3c a16b c2bd
000000a0: 339a 2e3e 70ca bb3d c44c 0cbe d4d5 e03c
000000b0: 20be b63d 9146 66be 16ce 123e e8be 1bbe
000000c0: 2d76 a3bd 1ca6 8d3d 382e c0bd 24a8 c2bd
000000d0: 050e 56be e5bc 0cbe 448a 443c 5126 42be
000000e0: a1f6 e9bd 30fd b43d cc4c 1a3e eb9f 01be
000000f0: f67a 91bd bc31 513d 48c2 64bd 31db b6bd
00000100: 7881 6fbd d847 c53c e43e ebbc 373a 1abe
00000110: 0e71 763e 5cc4 943c 60d7 6fbe c678 a6bd
00000120: 908f b93c 7e52 20be 00c8 bdbc 2ae9 993d
00000130: 927a d83d 3864 49bd 086a 7a3e a034 333e
00000140: bcf3 373e 8c49 31be a2f7 1f3e ec7f 63be
00000150: 8e46 643e 4caf 46be 9978 5e3d 3e8d e0bd
00000160: 87fb de3d a56f 75bc d86f 393e 7b30 eebd
00000170: 8886 b5bc 4cee cbbd 3e83 b23d f2bc 84bd
00000180: 60ef 0f3e af36 73bd 8e07 8f3d b08b 683c
00000190: 15fa 44bd df93 0e3e 936a 713d 2696 273e
000001a0: f401 e7bc ec2f 3f3c b088 8c3d a248 cbbd
000001b0: 482d 1d3d ff66 73bd 15af d6bd 828a 43be
000001c0: 6491 cdbd 33bd 7ebd 8963 33be 0ece 12be
000001d0: 879e 0f3e 687e a43c ab44 06be 7a51 62be
000001e0: 49dc 8b3d 1bb0 04be 24f8 e53d 497f 94be
000001f0: 7525 213d 902d 803d 8c2f a63d 63e3 623e
00000200: a1eb 33be b199 d43d 5e30 af3c 161d d03a
00000210: 7077 63bd f3e0 64be 9ef2 fabc ba9c 913e
00000220: e0ac 8ebd 6315 83be 6c0c 88bc 4a7a 2d3e
00000230: 660f 03be 9983 553e a9a8 1ebe 7ddb f13c
00000240: cc0d f13d 4585 b4bd 24c3 cf3d 9476 023e
00000250: b5c8 0bbc 3501 7fbe 1693 04bc 937a 37bc
00000260: ed4e ef3d d0d3 14be af59 9cbd a268 cabd
00000270: 2a41 fdbc 54d6 2ebe 13b3 fbbd 3723 60be
00000280: 1ae3 b3bd 1513 af3d c549 3ebe 1347 a83d
00000290: 3a1b be3d c5fe 4e3e 8038 f43d 85f5 293d
000002a0: 21b5 033e 55f6 45be d6e3 bbbd 98bd 18bd
000002b0: caa2 303d 70f8 a2bd 7899 213e 5e4e 013e
000002c0: 6d84 57be be99 5d3c f003 a83d 6d49 1bbe
000002d0: 6c61 90bd b642 97be 8d50 44bd 4cd1 a1be
000002e0: 3439 f23d bfd8 893d 66e0 4c3e 615f 0d3d
000002f0: f6bb b93d 7160 dfbd a256 acbe 41c8 10be
00000300: 21ce 813e 1391 1cbe 8034 04bb 4edf c23c
00000310: a2f2 b2be 6ed8 99be fffa 4e3c 1eda 343c
00000320: 0b7d 053e cec5 143e 6501 66be 0b3b 733e
00000330: 3d50 023e 53cf 68bd 37c3 0fbe 7ea8 61bc
00000340: c866 bfbc 33be b2bc 23fa 2c3e 60c3 863d
00000350: 7d78 85be 0f47 9f3a 22e2 bf3d c1f9 fabc
00000360: b7bf 713d b981 e9bb a7ac 31be a8e7 39bd
00000370: db27 433e 2b4e 86bd 8d50 383e ab60 1dbd
00000380: b216 993d d7f0 173e 285b 2e3e 4174 2d3e
00000390: 49c6 86bd 5ac4 2e3e 8c3e 103e 6054 52be
000003a0: 4641 f3bd 3de2 79bd 2071 d0bd 7719 67be
000003b0: 28b1 d7bd e35c 0d3a 3904 6d3e e4da 3abe
000003c0: 9bab 14bd 3e3e b63d 8372 c6bc 2b56 193e
000003d0: a47b 50be 449c 5cbe c019 823e c8a8 043e
000003e0: c760 0c3e 19cd 8ebb 2ae6 cbbd f5ec 7ebd
000003f0: c818 1ebe 5425 00be cafe 803d 399c 853e

complner.0.bias f4 [20]
-0.02246032 -0.31908125 0.051203527 0.02632717 -0.10379343 0.08603624 0.44178918 -0.10829914
-0.26194647 -0.49646983 0.51189107 0.17311011 -0.09401031 -0.13478214 0.51078147 -0.04500017
-0.5899666 -0.24090473 -0.19437116 0.15615521
00000000: b4fe b7bc 9e5e a3be caba 513d 14ac d73c
00000010: a691 d4bd c533 b03d 3132 e23e f1cb ddbd
00000020: d91d 86be 4b31 febe 4b0b 033f c743 313e
00000030: 7a88 c0bd 5404 0abe 93c2 023f 1952 38bd
00000040: 0d08 17bf bbaf 76be 3c09 47be 27e7 1f3e

complner.2.weight f4 [1, 20]
-0.06795861 -0.16069919 -0.13330649 -0.17033328 -0.180388 0.2656482 0.37432334 -0.17429624
0.23647845 -0.10379431 0.03648179 0.062701486 -0.2304697 0.24086249 0.33910686 -0.020916542
-0.15734428 -0.06156469 -0.09514742 0.048022784
00000000: e22d 8bbd 548e 24be 7f81 08be d96b 2ebe
00000010: a2b7 38be 0a03 883e 4fa7 bf3e b77a 32be
00000020: 6827 723e 1c92 d4bd ee6d 153d a369 803d
00000030: 4000 6cbe a8a4 763e 6a9f ad3e 2b59 abbc
00000040: dc1e 21be 422b 7cbd a7dc c2bd 8ab3 443d
