LVFFN_Inverter/model/j20m40a855invallshuffle_batch50.pt (torch_old, 2573 bytes, 3 tensors)

complner.0.weight f4 [20, 20]
0	0x3dcf62aa	0.101262406
1	0xbc9fba71	-0.019498082
2	0xbe36b4a9	-0.17842354
3	0xbe3bd71f	-0.18343781
4	0xbe49bb07	-0.19700252
5	0x3c6f01de	0.0145878475
6	0x3dcd33fb	0.1001968
7	0x3d982838	0.07429546
8	0xbe5bf393	-0.21479635
9	0x3e410f30	0.1885345
10	0x3df1c63b	0.118053876
11	0xbdd375e0	-0.10325217
12	0xbe08438f	-0.13307022
13	0x3c989030	0.018623441
14	0x3dd0d1bb	0.10196253
15	0xbe4ab0d5	-0.19794019
16	0x3d13ea39	0.036112044
17	0xbd4d98f9	-0.050194714
18	0xbe455e28	-0.19274199
19	0x3e32c457	0.1745771
20	0x3e04ba52	0.129617
21	0x3e178579	0.1479701
22	0xbe043c63	-0.1291366
23	0x3e4260af	0.18982194
24	0x3e3f85b5	0.18703349
25	0x3e100b07	0.14066707
26	0x3d9d7e70	0.07690132
27	0x3e59433b	0.21217053
28	0x3d6e26d2	0.05814249
29	0x3dd43f07	0.10363584
30	0x3e1c5516	0.15266833
31	0xbccaffaa	-0.024780113
32	0xbdf7fa8c	-0.12108335
33	0x3e2abd8e	0.16673872
34	0xbd1c6a34	-0.03818722
35	0xbe5e4bc1	-0.21708585
36	0x3dda59d0	0.106616616
37	0x3d8de1e5	0.069278516
38	0x3ce27718	0.027644679
39	0xbdb00b58	-0.08595914
40	0x3e2e9f2a	0.17052904
41	0x3dbf6634	0.093456656
42	0xbe02e601	-0.12783052
43	0x3d20da6e	0.03927081
44	0x3dbbb108	0.091646254
45	0xbe69a4d9	-0.2281679
46	0x3e09d03d	0.13458343
47	0xbe16cccb	-0.1472656
48	0xbd9e79a1	-0.077380426
49	0x3d963f45	0.073362865
50	0xbdaa95c8	-0.0832935
51	0xbdd3f49c	-0.1034939
52	0xbe5b1af3	-0.21396999
53	0xbe12806b	-0.143068
54	0x3b494268	0.0030709747
55	0xbe5ff859	-0.21872081
56	0xbde6fafc	-0.1127834
57	0x3db5cc7e	0.088768944
58	0x3e1a876e	0.15090725
59	0xbe02770c	-0.12740725
60	0xbda0a365	-0.07843665
61	0x3d479ef7	0.048735585
62	0xbd6d7af4	-0.057978585
63	0xbdbe1487	-0.09281259
64	0xbd627384	-0.055285946
65	0x3cbc8387	0.023011936
66	0xbd057abf	-0.032587763
67	0xbe2144a7	-0.15748845
68	0x3e76c67d	0.24099155
69	0x3d0439c2	0.032281645
70	0xbe5228d7	-0.20523392
71	0xbd7b1f6b	-0.06130926
72	0x3cf19aad	0.0294927
73	0xbe27971a	-0.16366234
74	0xbd879a1d	-0.06621192
75	0x3c555967	0.013021803
76	0x3d8d9868	0.06913835
77	0xbd8f2aca	-0.06990583
78	0x3e71c75f	0.2361121
79	0x3e3e8a01	0.18607332
80	0x3e3e600b	0.18591325
81	0xbe287e48	-0.16454422
82	0x3e2e4555	0.17018636
83	0xbe674522	-0.22584966
84	0x3e5e9072	0.21734789
85	0xbe489197	-0.19586788
86	0x3d88be3e	0.06676911
87	0xbdcdfac9	-0.10057599
88	0x3de841de	0.11340688
89	0xbcabdae8	-0.020978406
90	0x3e21cea0	0.15801477
91	0xbe11dc3c	-0.14244169
92	0xbd1d2b65	-0.038371462
93	0xbdd1399d	-0.10216067
94	0x3de1e28f	0.11029541
95	0xbd030df4	-0.03199573
96	0x3e38f9be	0.18064019
97	0xbcfe1576	-0.031016093
98	0x3db58139	0.08862538
99	0x3c9f4bf2	0.019445393
100	0xbd41a18d	-0.047273207
101	0x3e0d5db8	0.13805282
102	0x3d800092	0.06250109
103	0x3e4520e2	0.19250825
104	0xbcbb651b	-0.02287536
105	0x3c9a332b	0.018823227
106	0x3d8d9357	0.069128685
107	0xbdb3fc2c	-0.08788332
108	0x3d166aec	0.036723062
109	0xbd8f3365	-0.069922246
110	0xbdf5ba9d	-0.11998484
111	0xbe611e3e	-0.21984193
112	0xbddbce1e	-0.10732673
113	0xbd6bf44e	-0.057606034
114	0xbe1c6e3f	-0.1527643
115	0xbdca6e64	-0.098843366
116	0x3e37355f	0.17891453
117	0x3d150e4e	0.036390595
118	0xbe0134b0	-0.12617755
119	0xbe6993d2	-0.22810295
120	0x3d73c3a7	0.05951276
121	0xbe0e9efd	-0.13927837
122	0x3dea71f1	0.11447514
123	0xbe906cb1	-0.28207925
124	0x3d4f05a1	0.050542478
125	0x3d81421e	0.06311439
126	0x3da70be3	0.08156564
127	0x3e5f839f	0.21827553
128	0xbe3c230e	-0.18372747
129	0x3dc64541	0.09681178
130	0x3c2c7bc3	0.010527554
131	0xbc074fc3	-0.008258763
132	0xbd53249a	-0.051548578
133	0xbe6191ee	-0.22028324
134	0xbcaaa128	-0.020828798
135	0x3e9b2880	0.30304337
136	0xbd83e437	-0.06440013
137	0xbe7c87eb	-0.24661224
138	0xbbf01de8	-0.007327784
139	0x3e3422ae	0.17591354
140	0xbdf7a6e7	-0.12092381
141	0x3e521291	0.20514895
142	0xbe1ee3b8	-0.15516555
143	0x3d091b27	0.03347316
144	0x3e02809a	0.1274437
145	0xbdabe79c	-0.08393785
146	0x3dcfb685	0.10142235
147	0x3df68b57	0.12038296
148	0xbc55fbfa	-0.013060564
149	0xbe7edfbc	-0.24890035
150	0xbb815175	-0.003946478
151	0xba053358	-0.0005081198
152	0x3e01da6a	0.12680975
153	0xbe0f1b3c	-0.13975233
154	0xbd91d508	-0.071207106
155	0xbdbecc64	-0.09316328
156	0xbc620642	-0.013795437
157	0xbe27752c	-0.16353291
158	0xbdeb8e7a	-0.115017846
159	0xbe58d3bd	-0.21174522
160	0xbdb27078	-0.08712858
161	0x3dad8919	0.08473415
162	0xbe4363f3	-0.19081096
163	0x3d98d5dc	0.074626654
164	0x3d8e7bd6	0.069572136
165	0x3e46a9e4	0.19400746
166	0x3de88864	0.113541394
167	0x3d2a7dcb	0.04162387
168	0x3e0b113a	0.1358079
169	0xbe3c686d	-0.1839921
170	0xbda37549	-0.07981355
171	0xbc0bf613	-0.008542555
172	0x3d2c9db3	0.04214258
173	0xbdb3f3ef	-0.08786761
174	0x3e1164d6	0.14198622
175	0x3db33f93	0.0875236
176	0xbe88fab5	-0.26753774
177	0xbb99444e	-0.004677332
178	0x3d98a5c8	0.07453495
179	0xbe19d4e4	-0.15022618
180	0xbd5603b9	-0.052249644
181	0xbe8ebc2b	-0.27877936
182	0xbd456b12	-0.048197813
183	0xbea6f39f	-0.32607743
184	0x3de6bc69	0.11266405
185	0x3d829666	0.063763425
186	0x3e519d69	0.20470203
187	0x3d269080	0.04066515
188	0x3dc8b3b3	0.097999
189	0xbdcd8064	-0.10034254
190	0xbeab0e93	-0.33409557
191	0xbe0b9995	-0.13632806
192	0x3e8018f6	0.25019044
193	0xbe243ef1	-0.16039635
194	0xbc4d774b	-0.012540649
195	0x3cf59b50	0.029981285
196	0xbeb45c70	-0.35226774
197	0xbe974c72	-0.2955051
198	0x3caaab07	0.020833505
199	0x3c9d8b64	0.019231506
200	0x3df28231	0.11841238
201	0x3e0c83c8	0.13722146
202	0xbe60e728	-0.21963179
203	0x3e806834	0.250795
204	0x3e1e82f6	0.15479645
205	0xbd52662b	-0.051366966
206	0xbe0e6f31	-0.13909604
207	0xbd1eed1f	-0.038800355
208	0xbce3fdb3	-0.027830934
209	0xbcb845c9	-0.022494214
210	0x3e2b4f3e	0.16729447
211	0x3da6d0ef	0.0814532
212	0xbe85fd4e	-0.2616982
213	0xbb99f11e	-0.004697933
214	0x3da7fb39	0.08202214
215	0xbd84691a	-0.06465359
216	0x3d0ed7db	0.034873825
217	0xbc37f87b	-0.011228676
218	0xbe2d81de	-0.16944072
219	0xbd041ada	-0.03225217
220	0x3e2c3426	0.16816768
221	0xbda5c4dc	-0.080941886
222	0x3e223ca4	0.15843445
223	0xbd4a59b1	-0.049401943
224	0x3dbe5c9b	0.09295007
225	0x3e2cc568	0.1687218
226	0x3e3a51ce	0.18195269
227	0x3e1a0672	0.15041521
228	0xbdb8ad66	-0.09017448
229	0x3e1b0afc	0.15140909
230	0x3e1967ca	0.14980999
231	0xbe2cb2e2	-0.16865113
232	0xbda771bc	-0.0817599
233	0xbce4ca8e	-0.027928617
234	0xbd9540fc	-0.072877854
235	0xbe718489	-0.23585714
236	0xbe0f7e8a	-0.14013115
237	0xbd0fb33a	-0.035083033
238	0x3e4a62fd	0.19764324
239	0xbe5b40d3	-0.21411447
240	0xbd3548a4	-0.04425873
241	0x3dac6da3	0.08419349
242	0xbcf4ed06	-0.029898178
243	0x3e164294	0.14673835
244	0xbe4867d2	-0.19570854
245	0xbe562135	-0.20911105
246	0x3e83e691	0.25761846
247	0x3df2d714	0.11857429
248	0x3e051b98	0.12998807
249	0xbbae9114	-0.0053273533
250	0xbdb1f0e5	-0.08688525
251	0xbd23c55d	-0.039983142
252	0xbe10ba66	-0.14133605
253	0xbdf20813	-0.11817946
254	0x3d73ef5a	0.059554435
255	0x3e753910	0.23947549

complner.0.bias f4 [20]
0	0xbc80ceda	-0.015723635
1	0xbeb6da8b	-0.3571361
2	0x3cf305ff	0.029665945
3	0xbd17b70f	-0.037039813
4	0xbdcb45ca	-0.099254206
5	0x3dab6044	0.083679706
6	0x3efa4fa7	0.48888895
7	0xbdec7a23	-0.11546733
8	0xbe93a184	-0.28834164
9	0xbefdbe66	-0.49559325
10	0x3f14811d	0.5800951
11	0x3e208e03	0.15679173
12	0xbe19b0cb	-0.15008847
13	0xbe1a4e48	-0.15068924
14	0x3eefaedd	0.46813098
15	0xbd829be1	-0.06377388
16	0xbf1cc966	-0.6124481
17	0xbe85d453	-0.26138553
18	0xbe6e53e1	-0.23274185
19	0x3e2be63c	0.16787046

complner.2.weight f4 [1, 20]
0	0xbd845bc7	-0.06462818
1	0xbe2135fd	-0.15743251
2	0xbe07d835	-0.1326607
3	0xbe2939e5	-0.16525991
4	0xbe3a0810	-0.18167138
5	0x3e8b3442	0.27188307
6	0x3ec7b01c	0.39001548
7	0xbe2859ad	-0.16440459
8	0x3e6d6ecc	0.23186797
9	0xbdbe79db	-0.09300586
10	0x3d0f3564	0.034963027
11	0x3cdf7b05	0.02728034
12	0xbe64204e	-0.22277948
13	0x3e62177b	0.2207927
14	0x3eb049dd	0.34431353
15	0xbca13f2d	-0.019683445
16	0xbe1bf646	-0.15230665
17	0xbd5fb616	-0.05461701
18	0xbddb6082	-0.10711767
19	0x3da54cbc	0.080712765
