LVFFN_Inverter/model/j20m40a855inv.pt (torch_old, 2573 bytes, 3 tensors)

complner.0.weight f4 [20, 20]
0	0x3ddd6c1f	0.10811638
1	0x3cc1b7cb	0.02364721
2	0xbe441a78	-0.19150722
3	0xbe594525	-0.21217783
4	0xbe5f4199	-0.21802367
5	0x3cb97d5b	0.022642782
6	0x3e096128	0.13415968
7	0x3d52b274	0.051439717
8	0xbe4d0034	-0.20019609
9	0x3e3773d2	0.17915276
10	0x3d8d0437	0.068855695
11	0xbbf901ae	-0.007599077
12	0xbe0ed09a	-0.13946763
13	0x3cad360e	0.02114394
14	0x3e072b17	0.13200031
15	0xbd90d285	-0.070714034
16	0xbcd81f45	-0.026382098
17	0xbccad64e	-0.024760392
18	0xbe331c6e	-0.17491314
19	0x3e35cf6c	0.17754906
20	0x3e269ad0	0.16269994
21	0x3dfcc9ad	0.12343154
22	0xbe1f1c2a	-0.15538087
23	0x3e2fbccb	0.17161863
24	0x3e434ade	0.19071528
25	0x3e2386cf	0.15969394
26	0x3dda88cb	0.106706224
27	0x3e6727b9	0.22573747
28	0x3d5513bb	0.05202077
29	0x3daf26fc	0.085523576
30	0x3dd9dba1	0.10637594
31	0x3bcbf501	0.006224275
32	0xbdf98f42	-0.121855274
33	0x3e383b7e	0.17991444
34	0xbb91bd37	-0.004447605
35	0xbd8c4649	-0.06849343
36	0x3e05637d	0.13026233
37	0x3dac3fd2	0.0841061
38	0x3ceb803e	0.028747674
39	0xbdc85e28	-0.09783584
40	0x3e2b8ef7	0.16753756
41	0x3dac4103	0.084108375
42	0xbe0e30d0	-0.13885808
43	0x3d140d2e	0.03614538
44	0x3ddbd045	0.10733084
45	0xbe648bb9	-0.22318925
46	0x3e162dea	0.14665952
47	0xbe540cc7	-0.20707999
48	0xbda6be8b	-0.08141812
49	0x3d8f03d5	0.06983153
50	0xbdda71b3	-0.10666218
51	0xbd5f50d4	-0.054520443
52	0xbe4faba2	-0.20280316
53	0xbe0a97e9	-0.13534512
54	0x3ca7054e	0.020388272
55	0xbde16cd0	-0.110070825
56	0xbdf09b0d	-0.117483236
57	0x3dc9c8b2	0.09852733
58	0x3e265ef3	0.16247158
59	0xbdeb4c1e	-0.114891276
60	0xbdeb4b7e	-0.11489008
61	0x3d0e217f	0.034699913
62	0xbdbb9b4e	-0.091604814
63	0xbdb8895b	-0.090105735
64	0xbd52c17c	-0.051454052
65	0x3dc9a636	0.09846155
66	0xbc004359	-0.007828557
67	0xbe29c3a5	-0.16578539
68	0x3e4ebfc7	0.20190345
69	0xbd179462	-0.037006743
70	0xbe7364fd	-0.23768993
71	0xbd284cdc	-0.041088924
72	0x3d9b0b56	0.075705215
73	0xbdd35294	-0.10318485
74	0x3c9a541d	0.018838936
75	0x3d81cfce	0.06338464
76	0x3d2a0e8d	0.041517783
77	0xbdf45095	-0.11929432
78	0x3e3178a9	0.17331184
79	0x3dd61f1a	0.10455151
80	0x3e250620	0.16115618
81	0xbe1669ac	-0.14688748
82	0x3e17d990	0.14829087
83	0xbe3f4c71	-0.18681504
84	0x3e42a529	0.19008316
85	0xbe2ef060	-0.17083883
86	0x3c9c952f	0.019114105
87	0xbd631968	-0.05544415
88	0x3dd94883	0.10609534
89	0xbc8f41d0	-0.017487437
90	0x3e474245	0.19458874
91	0xbe3b5ee0	-0.1829791
92	0xbd273c78	-0.040829152
93	0xbdd94f48	-0.10610825
94	0x3d52abce	0.051433377
95	0xbcf7bfcb	-0.030242821
96	0x3e2dfcd7	0.16990982
97	0xbd78eecb	-0.060774606
98	0x3d8681b7	0.0656771
99	0x3d01894a	0.03162507
100	0xbd1c93de	-0.038226955
101	0x3e22021e	0.1582112
102	0x3d729343	0.05922247
103	0x3d79b8a0	0.060967088
104	0xbcc442f3	-0.023957705
105	0xbd013598	-0.03154525
106	0x3d720f1b	0.059096437
107	0xbe112e34	-0.14177781
108	0x3d425cf0	0.047451913
109	0xbc635f96	-0.01387777
110	0xbde2fcdc	-0.11083385
111	0xbe0a4164	-0.13501507
112	0xbdbcaa1d	-0.09212134
113	0xbdb3cdc3	-0.0877948
114	0xbe7081ec	-0.23487061
115	0xbd81e2d1	-0.0634209
116	0x3e0087db	0.12551825
117	0x3ce96f85	0.02849556
118	0xbdcc0b04	-0.099630386
119	0xbe262525	-0.16225107
120	0x3d573133	0.052537154
121	0xbdb740bf	-0.08947896
122	0x3e3d9ef3	0.18517666
123	0xbe41c75d	-0.18923707
124	0xbdbc6480	-0.09198856
125	0x3d29d2d8	0.041460842
126	0xbd7aa436	-0.06119176
127	0x3e43d1ca	0.19122997
128	0xbde70609	-0.11280448
129	0x3d8d030b	0.06885346
130	0x3df4f611	0.11960996
131	0xbc071b15	-0.008246203
132	0xbe561c62	-0.20909265
133	0xbe3df955	-0.18552144
134	0x3d19f5fd	0.03758811
135	0x3e50166b	0.20321052
136	0x3e77db92	0.24204853
137	0xbcb7cde2	-0.02243704
138	0x3d2ca138	0.042145938
139	0x3e24879d	0.16067357
140	0xbe1c2210	-0.15247369
141	0x3e468085	0.19384964
142	0xbdfe53e2	-0.12418343
143	0x3d9b2c59	0.07576818
144	0x3dca37e2	0.0987394
145	0xbde529be	-0.11189602
146	0x3d718aac	0.05897014
147	0x3e1771d8	0.14789522
148	0xbafc2e57	-0.0019239885
149	0xbe69f01f	-0.22845505
150	0x3c8f4b89	0.017492073
151	0xbd403378	-0.046924084
152	0x3dc81055	0.0976874
153	0xbe2a3d66	-0.16624984
154	0xbdd4b087	-0.103852324
155	0xbdda844d	-0.106697656
156	0xbd56ed0e	-0.052472167
157	0xbe258ba7	-0.16166554
158	0xbde14750	-0.1099993
159	0xbe4de3b4	-0.20106393
160	0xbe319fe2	-0.17346147
161	0x3c50b080	0.012737393
162	0xbdeff1c8	-0.11716038
163	0x3e10d8f3	0.1414526
164	0x3e098980	0.13431358
165	0x3e16f222	0.14740804
166	0x3da03c3d	0.078239895
167	0xbd01cfe7	-0.03169241
168	0x3e4d55f2	0.20052317
169	0xbe1d2ca1	-0.15349056
170	0xbd5c8e9c	-0.05384694
171	0xbd4de27a	-0.050264813
172	0xbc3cfbce	-0.011534644
173	0xbdd43da7	-0.10363322
174	0x3e1d966c	0.15389413
175	0x3e257b10	0.16160226
176	0x3ce6d6bd	0.028178567
177	0x3de79b31	0.11308897
178	0x3e1c7b87	0.15281497
179	0xbdbca9be	-0.09212063
180	0xbe563b60	-0.20921087
181	0xbe3fb30d	-0.18720646
182	0x3b526600	0.0032104254
183	0xbe12ea9d	-0.1434731
184	0x3dd98ae4	0.106221944
185	0x3d9734d1	0.07383121
186	0x3e07e44b	0.1327068
187	0x3dc588f4	0.09645262
188	0x3dc21aba	0.09477754
189	0xbdf614b8	-0.120156705
190	0xbe78d8da	-0.24301472
191	0xbe7d48d3	-0.24734811
192	0x3e763aaf	0.24045824
193	0xbdf69be4	-0.120414525
194	0x3d5bc876	0.05365797
195	0xbddec038	-0.108765066
196	0xbe69082c	-0.22757024
197	0xbe8c2e36	-0.27379006
198	0xbbcd18e7	-0.006259072
199	0xbd1a3615	-0.037649233
200	0x3e1c4bba	0.15263262
201	0x3dfd1f29	0.12359459
202	0xbe76a3a1	-0.24085857
203	0x3e57c0fd	0.21069713
204	0x3dfa5564	0.12223318
205	0xbd7765e7	-0.060399916
206	0xbe1892cb	-0.14899747
207	0xbd5c127f	-0.053728577
208	0xbcfcecf3	-0.030874705
209	0xbc9de3fd	-0.019273752
210	0x3e501d8e	0.20323774
211	0x3e1ab5ec	0.1510846
212	0xbe66c085	-0.22534378
213	0x3cdb49a3	0.026768511
214	0x3de6e9ae	0.112750396
215	0xbd7aa109	-0.06118873
216	0x3d273c10	0.040828764
217	0xbcb7df0b	-0.022445222
218	0xbe3eedd7	-0.18645416
219	0xbd5edfea	-0.05441276
220	0x3e433359	0.19062556
221	0x3a42b4d9	0.0007427461
222	0x3e39e3b1	0.18153264
223	0xbd3d828f	-0.04626709
224	0x3d9c4ab9	0.0763144
225	0x3e2328d7	0.15933548
226	0x3e293f63	0.16528086
227	0x3e36f8bd	0.17868324
228	0xbde44fb0	-0.11148012
229	0x3e0905f3	0.13381176
230	0x3de02f32	0.10946502
231	0xbe4dc7c2	-0.20095733
232	0xbd92f82a	-0.0717624
233	0xbc1247e9	-0.0089282775
234	0xbcd53764	-0.026027389
235	0xbe07e0c4	-0.13269335
236	0xbdd7c8d1	-0.105363496
237	0xbcb66767	-0.022266103
238	0x3e510902	0.20413592
239	0xbe621b71	-0.2208078
240	0x3d1b5a72	0.037928052
241	0x3dc25477	0.09488767
242	0xbd7a1df6	-0.06106373
243	0x3e1e33be	0.15449426
244	0xbe3b73bc	-0.18305868
245	0xbe2b7f55	-0.16747792
246	0x3e890a5d	0.2676572
247	0x3e195491	0.14973666
248	0x3e00a119	0.12561454
249	0xbc921c72	-0.01783583
250	0xbd24adb0	-0.040204704
251	0xbd9d1210	-0.07669461
252	0xbe0fde2b	-0.14049594
253	0xbdd5ae6d	-0.1043366
254	0x3d855592	0.06510462
255	0x3df8654e	0.12128697

complner.0.bias f4 [20]
0	0xbc4eca7c	-0.012621518
1	0xbe80f8ea	-0.25189906
2	0x3deabb99	0.11461563
3	0xbe6994ee	-0.22810718
4	0xbe117fc3	-0.14208893
5	0x3e1bbddc	0.15209144
6	0x3d99213e	0.074770436
7	0xbdd08c21	-0.101829775
8	0x3e0e5423	0.13899283
9	0xbef6a60d	-0.48173562
10	0x3eb22ec9	0.3480132
11	0x3e98cb43	0.29842576
12	0xbba65efb	-0.0050772405
13	0x3d3ef9f3	0.04662509
14	0x3dfffe70	0.12499702
15	0x3d70b18b	0.05876307
16	0xbebc63f3	-0.36795005
17	0xbe0fa017	-0.14025913
18	0x3d452634	0.048132136
19	0x3e1336a1	0.14376308

complner.2.weight f4 [1, 20]
0	0xbdaccdf8	-0.08437723
1	0xbe3eaeba	-0.1862134
2	0xbe016077	-0.12634455
3	0xbe4d2346	-0.20032987
4	0xbe11002d	-0.14160223
5	0x3e746e8d	0.23870297
6	0x3d7d54be	0.061848395
7	0xbe3b828a	-0.18311515
8	0x3e6dd4f4	0.23225766
9	0xbde22302	-0.110418335
10	0x3d9321d3	0.07184186
11	0x3d4089f2	0.047006555
12	0xbe68c0e5	-0.22729833
13	0x3e52ead4	0.20597392
14	0x3d892773	0.066969775
15	0xbd0c7c95	-0.0342985
16	0xbe314651	-0.1731198
17	0xbdbfe19a	-0.09369202
18	0xbd864395	-0.06555859
19	0x3d3bc723	0.04584421
