LVFFN_Inverter/model/modeltrained.pt (torch_old, 2573 bytes, 3 tensors)

complner.0.weight f4 [20, 20]
0.10058992 -0.025447635 -0.17723879 -0.18132661 -0.19936849 0.009543887 0.09357941 0.06386211
-0.21934776 0.18876225 0.12039101 -0.099431604 -0.12972479 0.01984828 0.10215081 -0.19849765
0.033767067 -0.05554561 -0.20056568 0.16115318 0.12382709 0.15724115 -0.11778389 0.19765583
0.18444133 0.13334513 0.06818937 0.20367564 0.06092785 0.10914265 0.1587208 -0.027186094
-0.1288232 0.15690966 -0.050144006 -0.2327528 0.10093159 0.07304441 0.033497754 -0.08090945
0.16874425 0.08554269 -0.125376 0.04458831 0.09659638 -0.23093414 0.12909725 -0.1553653
-0.07995492 0.073977694 -0.081904106 -0.103527844 -0.21443011 -0.14454168 0.0016025541 -0.2180521
-0.11173429 0.08844451 0.14835006 -0.13548201 -0.07791744 0.05715264 -0.059101827 -0.1023887
-0.06377334 0.016592963 -0.03923374 -0.1548519 0.247715 0.043189824 -0.18557566 -0.057871528
0.022348184 -0.1791453 -0.096794225 -0.046246447 0.049923133 -0.07342888 0.24089663 0.19714408
0.1923066 -0.16475207 0.15774123 -0.23482841 0.21399124 -0.19409071 0.06514425 -0.108554125
0.10265803 -0.032095034 0.15038842 -0.14789006 -0.04147483 -0.10433298 0.107058525 -0.033994187
0.18883614 -0.018200241 0.10626948 0.043966454 -0.04043707 0.1271705 0.0632996 0.19843619
-0.021687323 0.020977711 0.077988245 -0.06792614 0.04406894 -0.068793125 -0.12864743 -0.23865166
-0.11281105 -0.05462116 -0.13686982 -0.042230513 0.22496061 0.060341556 -0.110175245 -0.21474549
0.05540614 -0.13740613 0.12116156 -0.27991298 0.035699125 0.053778835 0.074122824 0.21142818
-0.19241042 0.09388596 0.008290233 -0.009425855 -0.037435777 -0.20662972 -0.0066628978 0.32060385
-0.04717195 -0.2492115 -0.016815208 0.16390572 -0.12069518 0.20471835 -0.1526859 0.035248235
0.12372478 -0.089625075 0.09625698 0.11723447 -0.00546257 -0.24062276 0.00492875 0.007250234
0.119964555 -0.14839529 -0.07924413 -0.09524236 0.012744481 -0.13773018 -0.09031527 -0.18754984
-0.08723407 0.08323299 -0.1859218 0.07816 0.062283248 0.18855098 0.10923906 0.040208463
0.14118208 -0.17955178 -0.076598845 -0.009300802 0.034707434 -0.09559164 0.13244516 0.07157189
-0.29557824 -0.012454923 0.07382903 -0.14372106 -0.045931455 -0.26513696 -0.043591645 -0.32252103
0.11022114 0.05987059 0.19864397 0.03331727 0.09793328 -0.09794087 -0.32906488 -0.12981239
0.25059378 -0.1622885 -0.016432388 0.022119362 -0.36025223 -0.3000093 0.015393645 0.008372073
0.10840854 0.14091629 -0.21925277 0.26471496 0.19547476 -0.033133034 -0.12742092 -0.046896536
-0.03467723 -0.026707377 0.16600363 0.08240328 -0.26882672 -0.018758148 0.054312915 -0.1480781
-0.009552619 -0.01606939 -0.1542219 0.010025605 0.16216221 -0.07177238 0.16180116 -0.050992556
0.090021126 0.16742857 0.18610653 0.16195671 -0.08039757 0.16197073 0.1650603 -0.14908062
-0.072587706 -0.021813435 -0.06698876 -0.22879155 -0.14104655 -0.03626065 0.19727437 -0.21148741
-0.048264146 0.079680644 -0.03767619 0.13899954 -0.19394566 -0.20859179 0.25093704 0.11011417
0.12761262 -0.00020410138 -0.06171448 -0.012932736 -0.12976591 -0.11493417 0.052169506 0.20328182
00000000: 1702 ce3d 8f77 d0bc 167e 35be afad 39be
00000010: 4127 4cbe f75d 1c3c 90a6 bf3d 23ca 823d
00000020: b39c 60be e44a 413e 908f f63d cca2 cbbd
00000030: 93d6 04be dc98 a23c 7234 d13d f842 4bbe
00000040: 564f 0a3d cb83 63bd 1761 4dbe 5705 253e
00000050: 0f99 fd3d d303 213e ae38 f1bd 4a66 4a3e
00000060: 30de 3c3e a08b 083e dea6 8b3d 5990 503e
00000070: 7b8f 793d 2f86 df3d b587 223e 5fb5 debc
00000080: 3bea 03be edac 203e cd63 4dbd c056 6ebe
00000090: 39b5 ce3d 4f98 953d f134 093d dbb3 a5bd
000000a0: 4bcb 2c3e 0131 af3d 9162 00be 3ba2 363d
000000b0: 53d4 c53d 007a 6cbe 1232 043e 1518 1fbe
000000c0: 68bf a3bd 9e81 973d 57bd a7bd 6806 d4bd
000000d0: 9193 5bbe bc02 14be cb0c d23a 0d49 5fbe
000000e0: f3d4 e4bd 6522 b53d 14e9 173e ccbb 0abe
000000f0: 2e93 9fbd e318 6a3d c214 72bd 2bb1 d1bd
00000100: 999b 82bd f7ed 873c 8fb3 20bd 7f91 1ebe
00000110: 00a9 7d3e d0e7 303d 8c07 3ebe b20a 6dbd
00000120: 8a13 b73c de71 37be 0d3c c6bd ea6c 3dbd
00000130: 337c 4c3d e161 96bd 9bad 763e 23e0 493e
00000140: 05ec 443e c4b4 28be eb86 213e dc76 70be
00000150: 8520 5b3e b7bf 46be 596a 853d a051 debd
00000160: 603e d23d 1576 03bd 6cff 193e 7e70 17be
00000170: 83e1 29bd 88ac d5bd 8041 db3d 7d3d 0bbd
00000180: 435e 413e ac18 95bc d0a3 d93d 2b16 343d
00000190: 57a1 25bd fc38 023e 38a3 813d db32 4b3e
000001a0: 9da9 b1bc 73d9 ab3c 4db8 9f3d dc1c 8bbd
000001b0: a281 343d 69e3 8cbd 27bc 03be 1a61 74be
000001c0: 7b09 e7bd 70ba 5fbd 9a27 0cbe e7f9 2cbd
000001d0: 135c 663e b528 773d 8fa3 e1bd 3ee6 5bbe
000001e0: 8cf1 623d 31b4 0cbe 8d23 f83d c150 8fbe
000001f0: 3f39 123d 3247 5c3d b5cd 973d a180 583e
00000200: 3d07 45be 4847 c03d c2d3 073c e76e 1abc
00000210: 4256 19bd be96 53be 7054 dabb 3026 a43e
00000220: 6037 41bd 4d31 7fbe 0cc0 89bc e7d6 273e
00000230: 092f f7bd b0a1 513e b159 1cbe 7460 103d
00000240: 6b63 fd3d 5a8d b7bd 6122 c53d a018 f03d
00000250: 5cff b2bb d065 76be 5a81 a13b 5f93 ed3b
00000260: faaf f53d eff4 17be bf4a a2bd 6d0e c3bd
00000270: 3ace 503c 2409 0dbe 36f7 b8bd 110d 40be
00000280: c7a7 b2bd 0f76 aa3d 4962 3ebe 5a12 a03d
00000290: b81c 7f3d 8213 413e bab8 df3d a1b1 243d
000002a0: 0992 103e 6cdc 37be dbdf 9cbd 6462 18bc
000002b0: 6229 0e3d 8dc5 c3bd b49f 073e 4894 923d
000002c0: 0856 97be bc0f 4cbc ad33 973d 9d2b 13be
000002d0: 9f22 3cbd 08c0 87be 278d 32bd 7a21 a5be
000002e0: 9fbb e13d dd3a 753d 5369 4b3e b177 083d
000002f0: 3e91 c83d 3995 c8bd 317b a8be 8aed 04be
00000300: d44d 803e f52e 26be 379d 86bc aa33 b53c
00000310: fb72 b8be d29a 99be a035 7c3c 052b 093c
00000320: 4c05 de3d 5c4c 103e cc83 60be b888 873e
00000330: 892a 483e 81b6 07bd a17a 02be 9516 40bd
00000340: b609 0ebd 6ec9 dabc dbfc 293e 0dc3 a83d
00000350: a8a3 89be b0aa 99bc 3877 5e3d c9a1 17be
00000360: 9782 1cbc f4a3 83bc 59ec 1dbe 6f42 243c
00000370: da0d 263e 66fd 92bd 34af 253e 92dd 50bd
00000380: ff5c b83d 6572 2b3e b692 3e3e fbd7 253e
00000390: 7ba7 a4bd a8db 253e 9105 293e 97a8 18be
000003a0: dda8 94bd 17b2 b2bc 6731 89bd 5548 6abe
000003b0: 826e 10be 0c86 14bd 4b02 4a3e 2890 58be
000003c0: a0b0 45bd 9b2f a33d 5952 1abd e555 0e3e
000003d0: b199 46be 1699 55be d27a 803e 8a83 e13d
000003e0: e2ac 023e 0c04 56b9 53c8 7cbd d4e3 53bc
000003f0: 5be1 04be 9b62 ebbd b1af 553d 1c29 503e

complner.0.bias f4 [20]
-0.018261341 -0.40826043 0.009079266 -0.011277245 -0.09988766 0.062410794 0.5093132 -0.12822857
-0.27639756 -0.5114452 0.62486935 0.16299129 -0.15784061 -0.15908296 0.50066644 -0.06749386
-0.6206407 -0.27752686 -0.25171718 0.09260028
00000000: cf98 95bc 8307 d1be 34c1 143c 32c4 38bc
00000010: e791 ccbd 76a2 7f3d 5a62 023f 5a4e 03be
00000020: fb83 8dbe 13ee 02bf 70f7 1f3f 30e7 263e
00000030: f8a0 21be a5e6 22be ad2b 003f 393a 8abd
00000040: 4fe2 1ebf 0018 8ebe 13e1 80be 37a5 bd3d

complner.2.weight f4 [1, 20]
-0.06298887 -0.1586182 -0.12859304 -0.17331646 -0.18569198 0.26558548 0.38555878 -0.15748209
0.22449893 -0.0863597 0.049162164 0.023574114 -0.21524619 0.21748237 0.33718878 -0.019747175
-0.14399508 -0.05219942 -0.11288928 0.07616427
00000000: 4f00 81bd cf6c 22be e5ad 03be df79 31be
00000010: 0a26 3ebe d2fa 873e f667 c53e fc42 21be
00000020: 0ce3 653e 5bdd b0bd 445e 493d 801e c13c
00000030: 7f69 5cbe b3b3 5e3e 02a4 ac3e d4c4 a1bc
00000040: 7273 13be 0fcf 55bd 7f32 e7bd 03fc 9b3d
