LVFFN_PAM4/model/j10m150a90pam4new.pt (torch_old, 1292 bytes, 3 tensors)

complner.0.weight f4 [10, 10]
-0.004939974 0.05704258 -0.09799579 -0.00038098323 0.06186368 0.049561806 -0.22015257 0.25454158
-0.4002421 0.2744031 -0.06174123 -0.10534974 -0.12373635 -0.10112846 -0.12255405 -0.19629821
0.007916004 -0.5661637 0.41827422 -0.58277696 -0.0044322666 0.00960229 -0.10324592 -0.015012875
-0.11020719 0.22321436 0.011845428 -0.31470993 0.52993655 -0.39669746 0.038971055 -0.011333621
-0.04089177 0.02686102 -0.038244605 0.096155025 0.04881654 -0.1295446 0.22142121 0.10432655
0.01322292 -0.054337222 -0.023674427 0.04447805 -0.19445723 0.1824263 -0.14759706 -0.065691695
0.34816584 -0.12279213 0.024731487 0.114065155 0.13193658 0.015829086 0.19767115 -0.2791552
0.36206132 -0.10191491 -0.021885805 0.12922911 0.007106057 -0.036289338 0.0602684 0.007957342
-0.14352725 0.1948379 -0.26750833 0.32232574 -0.1389512 -0.05534378 0.008988442 -0.027225168
0.03615596 0.10238624 0.02723022 -0.012548261 -0.020375269 -0.2150011 0.12364602 -0.09333083
-0.0022334312 -0.014254912 0.043727346 -0.15426505 0.24074502 -0.55110306 0.53037566 -0.037325606
-0.37801057 0.4311901 -0.0044736606 0.033659104 -0.05528989 -0.009345803 0.14253503 -0.19077832
0.26251695 -0.3077833 0.13386354 0.056153364
00000000: 81df a1bb 7ba5 693d 04b2 c8bd b4be c7b9
00000010: c564 7d3d 5201 4b3d ad6f 61be 4653 823e
00000020: 88ec ccbe 907e 8c3e 5fe4 7cbd 9bc1 d7bd
00000030: 7c69 fdbd 701c cfbd 9efd fabd 6602 49be
00000040: 21b2 013c 1bf0 10bf 0a28 d63e df30 15bf
00000050: 8c3c 91bb ec52 1d3c 9972 d3bd 90f8 75bc
00000060: 4fb4 e1bd 4e92 643e 5313 423c a921 a1be
00000070: eca9 073f ee1b cbbe 1da0 1f3d a7b0 39bc
00000080: 217e 27bd a40b dc3c 60a6 1cbd edec c43d
00000090: daf3 473d 57a7 04be 3ebc 623e 29a9 d53d
000000a0: f2a4 583c b590 5ebd dff0 c1bc 9e2e 363d
000000b0: cc1f 47be f6cd 3a3e af23 17be 5e89 86bd
000000c0: cb42 b23e 717a fbbd b099 ca3c fe9a e93d
000000d0: 621a 073e 00ac 813c 4e6a 4a3e 6eed 8ebe
000000e0: 1a60 b93e c4b8 d0bd dc49 b3bc a354 043e
000000f0: edd9 e83b 21a4 14bd ffdb 763d 835f 023c
00000100: cff8 12be 9683 473e daf6 88be e107 a53e
00000110: 3949 0ebe 29b0 62bd 4244 133c 5107 dfbc
00000120: 4618 143d e1af d13d e911 df3c 3997 4dbc
00000130: 09ea a6bc 4029 5cbe 203a fd3d 3c24 bfbd
00000140: c25e 12bb 6f8d 69bc 721b 333d a8f7 1dbe
00000150: dd85 763e 1715 0dbf b3c6 073f bce2 18bd
00000160: 9a8a c1be f3c4 dc3e c997 92bb 21de 093d
00000170: a777 62bd 241f 19bc b4f4 113e 645b 43be
00000180: 9f68 863e c695 9dbe 8613 093e 1201 663d

complner.0.bias f4 [10]
0.017099174 0.0034764858 -0.018855898 0.010988478 -0.013365412 0.014001784 -1.1331714 -0.014413494
-0.016005365 -1.0087235
00000000: 9113 8c3c c1d5 633b af77 9abc 0409 343c
00000010: 9afa 5abc bd67 653c c30b 91bf 9326 6cbc
00000020: af1d 83bc da1d 81bf

complner.2.weight f4 [1, 10]
0.037082363 -0.02610096 -0.03377583 -0.035968885 0.034613848 -0.025052477 0.056075025 -0.036004037
-0.047987923 -0.066008165
00000000: ade3 173d aed1 d5bc 8658 0abd 1c54 13bd
00000010: 40c7 0d3d da3a cdbc edae 653d f878 13bd
00000020: fc8e 44bd 4a2f 87bd
