LVFFN_PAM4/model/j20m300a90pam4new.pt (torch_old, 2641 bytes, 3 tensors)

complner.0.weight f4 [20, 20]
0.02277527 0.07580368 0.070147306 0.049242526 0.06962378 0.040998764 -0.004216799 -0.012628087
-0.02426514 -0.004867168 0.025495166 -0.072164685 0.18220796 -0.12250472 0.0023332178 0.047431834
-0.08892026 -0.034618694 0.14003807 -0.11307078 -0.016205253 0.07086329 0.007858362 0.01110899
0.11561985 0.14701694 0.07183058 -0.001132042 -0.015972689 -0.011370647 0.018994505 0.0653644
0.12648395 0.056975644 0.13771568 0.07338385 -0.0074628163 0.04480792 0.03673165 -0.06279506
0.0025053914 -0.009738238 0.015425863 0.028941723 0.025387743 0.025664598 0.038308192 0.050968174
0.005986107 0.0723384 -0.034543 0.09150182 -0.06538744 0.11315839 0.010956731 0.092052124
-0.04041285 0.097324125 -0.10328921 0.06853855 0.041784897 -0.03784924 -0.046712812 -0.024033215
-0.057551343 -0.07669038 -0.07760321 -0.06208136 -0.11019496 -0.0994319 -0.17212144 -0.13873866
-0.05456135 -0.08466756 0.011806481 0.036683243 0.08859536 0.14681417 0.026418531 0.14710611
-0.00997815 0.06402093 -0.10313385 0.019741079 0.06497248 -0.010338561 -0.09328586 -0.093316436
-0.05376079 -0.01943002 0.029239882 -0.07142077 0.03647903 -0.013121275 -0.112004526 0.14666127
-0.11352508 -0.057635766 0.06913284 -0.09197882 -0.006324574 -0.018655127 -0.029127648 -0.04051456
-0.04911052 -0.05753625 -0.058736395 -0.039974216 -0.06434897 0.009293903 -0.11171647 0.10629513
-0.17751361 0.1479253 -0.1596555 0.06805454 -0.091247104 0.018480642 -0.028777666 -0.032827474
0.0019422666 0.037548885 0.039522182 0.060733065 0.07895824 0.062204618 0.053652175 0.06576429
-0.003704324 0.08155778 -0.03349648 -0.026265105 0.12309529 -0.11905624 0.013957848 0.14703903
-0.076355495 -0.11130408 0.22301765 -0.12505527 -0.034047056 -0.00469337 -0.029784838 -0.030950017
0.0019657693 0.017003056 0.0018890144 0.023885848 0.052487068 -0.002716687 0.0031755548 -0.056704164
0.058167383 0.033892546 -0.040833995 0.003251635 0.1237049 -0.030479215 0.0808897 0.17521636
-0.029838368 -0.02955663 -0.046611972 -0.09636903 -0.040261663 0.076028876 0.12879741 0.12670922
0.105661206 0.08322767 0.0036956568 0.06196524 -0.11084769 -0.058645137 -0.026921846 -0.034072984
-0.1196148 0.08749683 -0.07038926 -0.024430124 0.0055001313 -0.025081962 0.006979161 -0.011450944
-0.028151931 -0.024234992 -0.018175464 -0.011834709 -0.073786795 -0.015350356 -0.046743665 -0.114781596
0.070740744 -0.22377819 0.09129184 -0.027278604 -0.115768544 0.03544121 0.10776964 0.05127609
0.03335027 -0.009995671 -0.016479308 0.046804972 -0.0042931596 -0.06947013 -0.07148622 -0.08580741
0.035062447 -0.08803873 0.14439009 -0.09243211 -0.09333699 0.010593805 -0.0756982 -0.08643488
0.08334692 0.11394816 -0.16712035 0.13522434 -0.00593338 0.03979335 -0.06869455 0.01993139
0.052526984 -0.002721544 -0.049345016 -0.03044045 -0.026233733 0.06911616 -0.05840999 0.0743836
-0.053770605 -0.047537938 0.07647185 -0.08432221 0.053693447 -0.024898479 0.018066324 -0.028458415
-0.03837355 -0.012240892 0.022275016 -0.057199694 -0.07248976 -0.043215197 -0.00949031 0.045065768
0.011928005 0.044209477 -0.09515626 -0.05457937 -0.06933417 -0.07987766 -0.125486 0.03522856
00000000: 3493 ba3c f63e 9b3d 64a9 8f3d 88b2 493d
00000010: ea96 8e3d 52ee 273d 132d 8abb 09e6 4ebc
00000020: b0c7 c6bc c47c 9fbb 3ddb d03c 14cb 93bd
00000030: b994 3a3e c1e3 fabd e6e8 183b e247 423d
00000040: d31b b6bd 55cc 0dbd 2466 0f3e a791 e7bd
00000050: e1c0 84bc c620 913d 5cc0 003c 7b02 363c
00000060: 1aca ec3d 9c8b 163e e91b 933d 0761 94ba
00000070: 28d9 82bc f34b 3abc 5d9a 9b3c c5dd 853d
00000080: 0285 013e 4b5f 693d 5705 0d3e 464a 963d
00000090: a48a f4bb 8288 373d ed73 163d b29a 80bd
000000a0: 7e31 243b 218d 1fbc c2bc 7c3c 3117 ed3c
000000b0: f5f9 cf3c 903e d23c 0de9 1c3d 01c4 503d
000000c0: 1b27 c43b 2826 943d f67c 0dbd 4e65 bb3d
000000d0: dae9 85bd 96bf e73d dc83 333c d385 bc3d
000000e0: f287 25bd df51 c73d 4b89 d3bd f05d 8c3d
000000f0: a426 2b3d ce07 1bbd ef55 3fbd 4ee1 c4bc
00000100: f5ba 6bbd d90f 9dbd 6fee 9ebd 0649 7ebd
00000110: e5ad e1bd f4a2 cbbd 9a40 30be 8211 0ebe
00000120: b97b 5fbd 3066 adbd f86f 413c 2b41 163d
00000130: 7c71 b53d 7456 163e ad6b d83c fca2 163e
00000140: 657b 23bc 681d 833d d737 d3bd 0bb8 a13c
00000150: 4b10 853d 1163 29bc a80c bfbd b01c bfbd
00000160: 4634 5cbd b52b 9fbc 7a88 ef3c 0d45 92bd
00000170: 096b 153d 9efa 56bc a162 e5bd 5f2e 163e
00000180: d67f e8bd 7b13 6cbd 8595 8d3d 645f bcbd
00000190: 5f3e cfbb a3d2 98bc 1b9d eebc 98f2 25bd
000001a0: 1d28 49bd 22ab 6bbd 9395 70bd 01bc 23bd
000001b0: 65c9 83bd 7445 183c 9bcb e4bd 43b1 d93d
000001c0: 21c6 35be bb79 173e bb7c 23be 2e60 8b3d
000001d0: c3df babd b764 973c 24bf ebbc 1a76 06bd
000001e0: a793 fe3a dccc 193d 03e2 213d 3cc3 783d
000001f0: dcb4 a13d 45ca 7e3d 62c2 5b3d 6eaf 863d
00000200: 3ec4 72bb c407 a73d 9b33 09bd eb29 d7bc
00000210: 6219 fc3d c2d3 f3bd 75af 643c 6691 163e
00000220: 4560 9cbd 65f3 e3bd bd5e 643e 7d0e 00be
00000230: ed74 0bbd d7ca 99bb 55ff f3bc e48a fdbc
00000240: 23d4 003b fe49 8b3c ce98 f73a 41ac c33c
00000250: aefc 563d 720a 32bb f81c 503b a042 68bd
00000260: ec40 6e3d e9d2 0a3d 8c41 27bd 6219 553b
00000270: ff58 fd3d 8caf f9bc 80a9 a53d eb6b 333e
00000280: 986f f4bc bf20 f2bc 32ec 3ebd 205d c5bd
00000290: 6ae9 24bd 07b5 9b3d 78e3 033e 10c0 013e
000002a0: e764 d83d 4573 aa3d d532 723b 43cf 7d3d
000002b0: 1d04 e3bd e235 70bd 348b dcbc 1d90 0bbd
000002c0: 9bf8 f4bd 8a31 b33d 3f28 90bd af21 c8bc
000002d0: 723a b43b b078 cdbc 72b1 e43b bd9c 3bbc
000002e0: e19e e6bc 7688 c6bc b6e4 94bc 5ee6 41bc
000002f0: 881d 97bd 0f80 7bbc 4976 3fbd 9d12 ebbd
00000300: 86e0 903d 1c26 65be 37f7 ba3d 6177 dfbc
00000310: 0f18 edbd cd2a 113d 54b6 dc3d e106 523d
00000320: 4b9a 083d e2c4 23bc 9dff 86bc 92b6 3f3d
00000330: a2ad 8cbb 5b46 8ebd 5e67 92bd ccbb afbd
00000340: a49d 0f3d a64d b4bd ffda 133e 0c4d bdbd
00000350: 7727 bfbd a491 2d3c a807 9bbd c504 b1bd
00000360: cab1 aa3d a75d e93d 9921 2bbe 4078 0a3e
00000370: cd6c c2bb 5afe 223d baaf 8cbd 2847 a33c
00000380: 8926 573d ee5b 32bb 001e 4abd 405e f9bc
00000390: 20e8 d6bc c68c 8d3d 503f 6fbd 6e56 983d
000003a0: 913e 5cbd 24b7 42bd 469d 9c3d 1fb1 acbd
000003b0: a9ed 5b3d e5f7 cbbc d4ff 933c 9f21 e9bc
000003c0: 952d 1dbd 068e 48bc 187a b63c 3a4a 6abd
000003d0: 8375 94bd 6b02 31bd 3f7d 1bbc e296 383d
000003e0: ae6d 433c ff14 353d 49e1 c2bd 9e8e 5fbd
000003f0: 13ff 8dbd e696 a3bd 677f 00be d34b 103d

complner.0.bias f4 [20]
-0.01823894 -0.0049926015 0.012124012 -0.005143677 -0.06621644 -0.0032212045 0.040929973 -0.043674618
0.0348044 0.1338736 0.018614108 1.0461128 -0.0046490673 -0.006201347 -0.011419784 0.027377188
1.0782423 0.009599137 0.017951956 0.0029594423
00000000: d469 95bc fa98 a3bb cba3 463c 4a8c a8bb
00000010: 7c9c 87bd d81a 53bb 30a6 273d 28e4 32bd
00000020: 0f8f 0e3d 2916 093e 9d7c 983c 06e7 853f
00000030: 3457 98bb ab34 cbbb 0c1a 3bbc 2046 e03c
00000040: d803 8a3f b345 1d3c fb0f 933c 34f3 413b

complner.2.weight f4 [1, 20]
-0.013333454 -0.016245142 0.00334711 0.014727428 0.020090973 0.002148531 -0.005643512 0.015586196
0.013315676 0.008929274 -0.01495252 -0.053084027 -0.016962286 0.019242352 -0.0018262217 0.018035443
0.058964774 0.0010204447 0.01293439 -0.016623223
00000000: 8f74 5abc 8814 85bc 305b 5b3b 4f4b 713c
00000010: d395 a43c 5ece 0c3b 36ed b8bb 3f5d 7f3c
00000020: fe29 5a3c 174c 123c 6afb 74bc a36e 59bd
00000030: 7ef4 8abc 23a2 9d3c d55d efba 11bf 933c
00000040: 0c85 713d 71c0 853a c4ea 533c 6d2d 88bc
