LVFFN_PAM4/model/modeltrained.pt (torch_old, 1292 bytes, 3 tensors)

complner.0.weight f4 [10, 10]
0	0x3c120ff6	0.008914938
1	0xbd07fa35	-0.0331976
2	0x3d800894	0.06251636
3	0x3ca1dd4b	0.019758841
4	0xbc9f80d6	-0.019470613
5	0x3c4dad79	0.012553566
6	0x3d70272c	0.058631107
7	0x3da6b5a9	0.08140118
8	0x3d8bd114	0.06826988
9	0x3ceac856	0.02865998
10	0xbc5c2d7f	-0.0134385815
11	0x3c98afca	0.01863851
12	0xbd966846	-0.07344107
13	0x3dbdf62a	0.09275468
14	0x3c06f05e	0.008236019
15	0xbbe5304e	-0.0069942838
16	0x3d420d7e	0.04737615
17	0x3e07e501	0.13270952
18	0x3de93df0	0.11388767
19	0x3d7f6ea9	0.062361393
20	0x3c0dc685	0.008653288
21	0xbd10a215	-0.035310823
22	0x3d7c634f	0.061618146
23	0x3c5ab922	0.013349803
24	0xbca98b75	-0.020696381
25	0x3a22729a	0.00061968865
26	0x3d64707c	0.055771336
27	0x3d97fad3	0.07420888
28	0x3d814c98	0.06313437
29	0x3cf82645	0.030291686
30	0xbdda6b1c	-0.10664961
31	0xbdcdc29b	-0.10046884
32	0x3cf2b4e3	0.02962727
33	0x3da3d17d	0.07998941
34	0x3d743246	0.059618257
35	0x3ca6944b	0.020334383
36	0x3bf85355	0.0075782933
37	0xbb6a3eb4	-0.003574294
38	0x3c6c5275	0.014423956
39	0x3b8fbb73	0.0043863594
40	0x3d635164	0.055497542
41	0x3cbb5a19	0.02287011
42	0x3cd8d49b	0.026468566
43	0x3d00d0aa	0.031448998
44	0xbcb617a0	-0.022228062
45	0xbdfb2495	-0.12262837
46	0xbe32b3bf	-0.1745138
47	0xbe5c65ac	-0.2152316
48	0xbe0caefe	-0.13738629
49	0xbd7ebb24	-0.06219019
50	0xbdcb1e34	-0.0991787
51	0xbe35d8d6	-0.17758498
52	0xbdb57d46	-0.08861785
53	0xbd218e95	-0.039442617
54	0x3a3ca6e4	0.00071964995
55	0x3d86492b	0.065569244
56	0x3dd26b4c	0.102743715
57	0x3df47a02	0.11937334
58	0x3dbab91d	0.09117339
59	0x3d0b07e4	0.033943072
60	0x3baa9076	0.0052052094
61	0x3a7fc5f8	0.00097569777
62	0xbcd8c13e	-0.026459333
63	0x3d0bcf8c	0.03413348
64	0xbda43227	-0.08017378
65	0xbcf552d4	-0.029946722
66	0x3cba6f19	0.022758054
67	0xbd820ce2	-0.063501135
68	0xbddf1a4b	-0.10893687
69	0xbda138f3	-0.0787219
70	0xbcf82c49	-0.030294554
71	0xbca23ecf	-0.01980534
72	0xbd1d7fe1	-0.038452033
73	0x3c3f44a1	0.011674077
74	0x3d7969b7	0.060891833
75	0x3d00a4ab	0.03140704
76	0x3da713f1	0.081581004
77	0xbd0ef667	-0.034902956
78	0xbcdb9ffa	-0.026809681
79	0x3ca4acf1	0.020101996
80	0xbd00fbc1	-0.03149009
81	0x3dde7560	0.10862231
82	0xbd0c7cf2	-0.034298845
83	0x3a51363a	0.00079807977
84	0x3d8c1011	0.06839002
85	0x3e1bec6c	0.15226907
86	0x3e0f5490	0.13997102
87	0x3dd7502d	0.10513339
88	0x3d4ae6b4	0.049536422
89	0x3cb72153	0.022354757
90	0x3c53c680	0.012925744
91	0x3deef058	0.11666936
92	0x3e2a7a52	0.16648224
93	0x3e42f7b7	0.19039808
94	0x3e3f22df	0.18665646
95	0x3df34229	0.118778534
96	0x3da143f6	0.07874291
97	0x3d7abcc0	0.061215162
98	0x3d63a956	0.055581413
99	0x3d56607f	0.05233812

complner.0.bias f4 [10]
0	0xbf850e5b	-1.0395006
1	0xbd5aca4c	-0.05341558
2	0x3f78ef72	0.97240365
3	0x3ccd6fef	0.025077788
4	0xbd07bf8c	-0.033141658
5	0xbbb0600c	-0.0053825434
6	0x3b09bac6	0.0021015867
7	0x3dcb8e4b	0.099392496
8	0xbd939ad1	-0.07207263
9	0x3cccbda4	0.024992771

complner.2.weight f4 [1, 10]
0	0x3d89450d	0.067026235
1	0xbcd54309	-0.026032941
2	0x3d9bf4a1	0.07615019
3	0x3ce18c0f	0.027532605
4	0xbd0b7765	-0.03404941
5	0xbd10ee6b	-0.035383623
6	0x3cd3f0b3	0.02587161
7	0xbc99dda0	-0.018782437
8	0xbcb4f698	-0.022090241
9	0xbcb4325b	-0.021996668
